output/A_C2_S20_D15.pth (torch, 7428 bytes, 9 tensors)

rate_f.0.weight f4 [24, 3]
00000000: 8f9b 95bd 85ff 1f3e be14 70bd 161e b63d
00000010: 21d5 083e 6990 ebbd 2dab 82bd d282 0f3e
00000020: 6c13 c3bd d599 5fbb bee7 b8bb 4ed1 29bc
00000030: ae66 9c3d c7b7 1bbe 5ca6 a23e 266c 79ba
00000040: 2d50 baba e83b 9dba 1528 0e3d c56e 483e
00000050: 8113 45be 58b8 ec3d f4b0 b13d 5d58 2e3b
00000060: 0498 a33d 552c e43d b8db a4bd ce56 80bd
00000070: 64f6 173e b0bb a0bd 5940 0c3d d7a9 2e3e
00000080: ef0b 2cbe cc8b 89bd 600c 123e 25b5 1ebd
00000090: 5785 d33d 550a ac3d 4333 2cbd 1dda 843d
000000a0: ecc2 df3d 487c f6bd bceb e23d 4ecb 1f3d
000000b0: 528e 883d 397c 6b3d 7179 183e 67ae f2bd
000000c0: ccae aa3d 77fc d03d bbf0 aabd 2974 f43d
000000d0: 6906 943d 17a5 863c 48bf 6fbd cc1c fe3d
000000e0: 4440 9bbd e152 8fbd 71e9 3d3e 57c7 e3bd
000000f0: f00b fd3d 2976 4d3d 3918 153d 2c44 a8bd
00000100: 670b 343e b4af 67bd 1bd6 7f3d 7d00 1f3e
00000110: 873b 18be 43ac 89bd 7458 363e 5a14 dabd
-0.07305061 0.15624817 -0.05861353 0.08892457 0.13362552 -0.115021534 -0.063803054 0.14014748
-0.09525189 -0.003411879 -0.00564286 -0.0103648435 0.07636772 -0.15206824 0.31767547 -0.00095147116
-0.0014214568 -0.0011996003 0.034706194 0.19573505 -0.19245721 0.11558598 0.08676329 0.0026602962
0.07987979 0.11141268 -0.080497205 -0.06266557 0.14840084 -0.078482985 0.034241054 0.17056976
-0.16801427 -0.06716117 0.14262533 -0.03874697 0.10328167 0.08400408 -0.042041074 0.06486914
0.1092585 -0.120354235 0.11080119 0.039012246 0.066677704 0.057491515 0.14890076 -0.11849671
0.08334121 0.10204404 -0.08346697 0.11936218 0.07227785 0.016436143 -0.05853203 0.12407836
-0.07580617 -0.0699823 0.18546082 -0.111220054 0.123557925 0.050161514 0.036400054 -0.08216128
0.17582475 -0.056564048 0.062460046 0.1552753 -0.14866458 -0.067223094 0.1780718 -0.10648413

rate_f.0.bias f4 [24]
00000000: 635d b73d 8a7e 15bc 5ced fb3d 8f37 a2bb
00000010: effc ea3d c05a 1cbb 82a3 cabb 06c6 2b3c
00000020: 6f5f afbc 5ca2 dc3d ef93 78bc ba0f aa3d
00000030: 603c abbb 44ae 1ebd 8fea 24bb 8cc9 a6bd
00000040: c245 04bc a4b7 b03b 9c50 e53d 1d35 e23d
00000050: 7784 a3bb 27f3 9b3d 5282 55bd 452b e23d
0.08953359 -0.009124408 0.12301132 -0.0049504708 0.114740245 -0.0023857802 -0.0061840424 0.010484224
-0.021407811 0.10773155 -0.015171989 0.08303781 -0.005225703 -0.03874041 -0.0025164222 -0.08143911
-0.008073272 0.0053929854 0.11197016 0.11045287 -0.0049901563 0.07614737 -0.052126236 0.11043409

rate_f.2.weight f4 [24, 24]
00000000: 4736 afbd 6de2 883d 36e4 a8bd 64b5 f3ba
00000010: 1de5 063d a817 523b 5a15 113d dbcd a83d
00000020: 4625 7d3d 681f c5bd 6020 363d 8322 a7bd
00000030: 0f87 7f3d fccb 6a3d dec2 d33d 3f1f b03d
00000040: cd0f b13d 3286 aa3d d4db a6bd e1d8 a6bd
00000050: 427a bc3d ef81 d0bd a5b5 603d 2311 b9bd
00000060: 6b47 413b 8075 1cbc 6c08 2a38 b849 2ebc
00000070: c454 32bb 5e4a b7bb dadd c5ba 2625 b4bb
00000080: a8e6 4cbb 40cc 9c3a abc1 e23b 311c e7bb
00000090: 9c66 2e3b 4768 14bc adc7 a3ba 1d87 9dbb
000000a0: 9c5a 253b 3713 0cbb b74f c13b d5ad 98b9
000000b0: b957 40bb fa17 bbba fff1 413b 88c8 a5bb
000000c0: 589a 17be 78e1 203c 190c 4bbe a20c 603c
000000d0: 49ee 333e a303 843b cdbc 21be 23d5 9c3d
000000e0: 7267 cd3c f452 32be 9ea5 ebbd 3bdd 0ebe
000000f0: 8c78 693d afb4 c7bb f9fc dd3d dc18 4ebd
00000100: 1483 303c 8e0e dd3d c006 40be 1c87 73be
00000110: 43cf e33d d1b0 30be 9bb9 56bd f3c9 62be
00000120: 8228 35be 8e84 993d fcb0 66be e83a 073c
00000130: 1c50 9a3d d6b2 edbb a1e4 033d 2567 d23d
00000140: 9260 b43d 753a 4cbe 633f f83c 68ed 32be
00000150: 5cf2 be3d 0d9e c93d 771c e13d b545 a33d
00000160: 0904 bf3d 950a d83d 97cc 78be c8e2 6dbe
00000170: 3d29 0b3e 5ffe 29be e990 553d 139a 63be
00000180: 6f0e f23b 656a 5cbc 1981 c13a a6d0 bcba
00000190: a5a6 fc3a 6797 eb3b a2d1 01bc 040b b9bb
000001a0: 9967 6cbb 0481 8c3b 94dd 183c 4730 563a
000001b0: d3f0 71bb e6ab ca3b c5bb cb3b fb19 4c3b
000001c0: 3d97 fdbb 6a3f 86bb cb8b 913b d028 713b
000001d0: 0897 de3a 023e 40bb 7c01 bc3b 2fe9 a1b8
000001e0: c1f1 003a d753 2ebc 4e02 5cbb 536a 713b
000001f0: 66ad 2d3b 6bf2 b23a 980f f83a 31e9 cd3a
00000200: 85a7 76bb 77e8 69bb fa6a 1a3c 8a13 993a
00000210: c197 413a 2e53 03bc 7807 b4bb 8067 b93b
00000220: 532b 6f3b 7567 d0ba 3fd5 823a f482 8ebb
00000230: c1e5 eaba 89b8 c8ba e362 5d3b 9b20 7abb
00000240: 2fa5 4a3b 3ccc c7ba b63d bdbb 0692 2c3c
00000250: 9c9e 8bbb 6973 4cbb 3955 6639 fd62 19bc
00000260: e36c 82ba eb90 bbbb 11de c63a be76 e3bb
00000270: fbba 81bb 580c dcbb 78e7 37bb 6ba7 b53b
00000280: e162 5a3b e41d 7d3b 3260 b7bb 3886 44ba
00000290: c715 d03a b035 d8bb 08bd e43b e846 3cb9
000002a0: 7a8c 06bb ee8d 61bc 620f 5cbb 14d1 95bb
000002b0: caac a93b 74a5 57ba 657f 583a 3ff5 c2ba
000002c0: 1558 b4bb 032f df3b f169 a2bb df47 85bb
000002d0: 4764 393c 9c1e 103c 2e28 723b 4efe cabb
000002e0: dc73 5bbc 8dbc 6fba 8bf5 413c c975 1b3b
000002f0: 0826 8e38 e2a9 433a f86f 24bc 2b73 ddbb
00000300: a8b7 023c 9271 94bb 33c3 31bb 9077 663b
00000310: 8034 ba3b a134 82bb 95c9 05bc 97a2 dabb
00000320: bcc3 6c3a 34ad 17bc 6d0f 303b 945b 81ba
00000330: ecad b2bb 5883 933b 6a44 68bb f104 cabb
00000340: 96bf 983b cb67 8e3b 1c0b de3a 3352 1b3c
00000350: 588e c1bb 9fb5 b1bb 011c 66bb 48b0 7b3b
00000360: 43d7 c93b 534c 813b 8bcf 973b 998d 17bb
00000370: 79e5 1d3b 808d 94bb 2283 a7bb 2396 40bb
00000380: 6574 4cbb 33c0 143c 48be 27bc 359b bc3b
00000390: 565d d239 6db5 10bc 08ec 09bb 7bb4 133c
000003a0: dbc6 7fbb 3203 be3b d41e 88ba 5ca1 2a3b
000003b0: f11b 9bbb e091 d9bb f029 7539 3905 cf3a
000003c0: fedd 9dbd dcf8 373d 5687 91bd 2a52 693b
000003d0: c022 c93d 5f8c fb3b 138f 8cbc 622d ce3d
000003e0: 2ebc b33d 9a98 afbd 1229 7a3c 862e a3bd
000003f0: 3341 a53d 8ba5 093d 1c68 b93d 3995 793d
-0.085552745 0.06683812 -0.08246653 -0.0018593487 0.032933343 0.0032057557 0.035420753 0.08242389
0.061803125 -0.09625131 0.04446447 -0.081608795 0.06238466 0.05732344 0.10339902 0.0859971
0.08645592 0.08326377 -0.08147398 -0.08146835 0.09203006 -0.10181033 0.05486073 -0.09036472
0.0029492031 -0.009549499 4.0539002e-05 -0.010637693 -0.0027211169 -0.005593582 -0.0015096024 -0.0054975925
-0.0031265412 0.0011962727 0.0069200597 -0.007052921 0.0026611453 -0.009058065 -0.0012495421 -0.0048073665
0.002523101 -0.0021373758 0.0058993953 -0.00029121214 -0.0029349162 -0.0014274113 0.0029593704 -0.0050593056
-0.14804971 0.009819381 -0.19828834 0.013674887 0.17571367 0.004028754 -0.15794678 0.0765784
0.02507374 -0.17414457 -0.11506198 -0.1395158 0.056999728 -0.006094537 0.10839266 -0.050316676
0.010773439 0.10793792 -0.18752575 -0.23782009 0.111235164 -0.1725495 -0.0524231 -0.2214735
-0.17691234 0.07495986 -0.22528452 0.00825379 0.07534811 -0.007253985 0.03220046 0.102735795
0.08807482 -0.19944175 0.030303663 -0.17473376 0.0932357 0.09844599 0.10991757 0.0797228
0.093269415 0.10548893 -0.24296795 -0.23231041 0.1358995 -0.16600941 0.05214015 -0.22226743
0.0073869745 -0.013453101 0.0014763206 -0.0014405444 0.0019275738 0.0071896794 -0.0079235155 -0.005647065
-0.0036072491 0.004287841 0.009330172 0.0008170646 -0.0036917224 0.0061850427 0.006217452 0.0031143415
-0.0077389763 -0.004096915 0.0044417134 0.0036798008 0.0016982267 -0.0029333835 0.0057374816 -7.720512e-05
0.00049188366 -0.010640106 -0.003357071 0.0036837056 0.0026501059 0.0013652568 0.0018925546 0.0015709755
-0.003763647 -0.0035691538 0.009424919 0.0011678797 0.0007384979 -0.008015437 -0.0054940544 0.00565809
0.003649433 -0.0015899973 0.0009981765 -0.004349107 -0.0017921255 -0.0015313785 0.0033780865 -0.0038166407
0.003092121 -0.0015243362 -0.005775179 0.010532862 -0.004260851 -0.003119672 0.00021966257 -0.00936198
-0.0009950664 -0.0057240627 0.0015172382 -0.0069416454 -0.0039590574 -0.0067153387 -0.002806155 0.0055436394
0.0033323097 0.0038622553 -0.005596184 -0.0007496807 0.0015875631 -0.006598197 0.006980542 -0.00017955492
-0.0020530508 -0.013766749 -0.0033578505 -0.004572043 0.0051780688 -0.00082262536 0.00082587294 -0.0014874114
-0.0055036643 0.006811024 -0.004956477 -0.0040674056 0.011315412 0.00879636 0.0036950218 -0.0061948663
-0.013394322 -0.0009145223 0.011838327 0.0023721328 6.7781715e-05 0.0007463974 -0.010036461 -0.006758114
0.007978357 -0.00453014 -0.0027124404 0.003516648 0.005682528 -0.003973559 -0.008165737 -0.0066722143
0.0009031852 -0.009257603 0.0026864663 -0.0009869211 -0.005452862 0.0045017414 -0.0035441169 -0.00616514
0.0046615107 0.004345869 0.0016940567 0.009480047 -0.0059068613 -0.0054232622 -0.0035111906 0.0038404632
0.0061596944 0.003945866 0.0046328953 -0.002312517 0.0024093075 -0.0045334697 -0.005112068 -0.0029386363
-0.0031197306 0.009079027 -0.010238238 0.005755807 0.00040123862 -0.008832318 -0.0021045227 0.009015198
-0.003902844 0.0057987208 -0.0010385164 0.002603612 -0.0047335555 -0.006639704 0.00023380644 0.0015794403
-0.07708357 0.044915065 -0.071058914 0.0035601952 0.09821081 0.0076766456 -0.017158067 0.1006725
0.08776127 -0.08574028 0.015268581 -0.07967858 0.080690764 0.03360514 0.090530604 0.060933325

rate_f.2.bias f4 [24]
00000000: ffe0 f93b 0000 0000 1c73 c23c 6bed e7bc
00000010: bea8 4abb 6e56 a2bb 9215 acbb ea57 6dbb
00000020: 46ff bdbb 1805 c6bb f2b2 133d c3c0 cabb
00000030: 7352 cf3b 12df bfbb 1639 523c 07a3 bcbb
00000040: 1562 c7bb 0000 0000 1083 c0bb 5987 98bc
00000050: e353 73bc 4830 073b 82f9 1a3d 44b0 463d
0.0076256986 0.0 0.023736529 -0.028311452 -0.0030923332 -0.004954151 -0.005251595 -0.003621573
-0.005798253 -0.0060430877 0.036059327 -0.00618753 0.0063269674 -0.0058554495 0.012830993 -0.005756739
-0.0060846903 0.0 -0.005874999 -0.018619226 -0.014851543 0.0020628143 0.037835605 0.048507944

rate_f.4.weight f4 [3, 24]
00000000: b277 b6bd 3db5 553b 632b f9bd afd5 36be
00000010: f358 b93b 086b a63b c7df b53b 6a76 6f3a
00000020: 057c 6c3b 04fc 3aba 3878 a2bd 7834 a8bd
00000030: 184f 27be f4d2 6abb fcb1 99bd 8c55 8bbb
00000040: a925 9f3a 02f5 803b 6979 da3b 8794 85bd
00000050: a58c 98bd 5f3b a6bd fc06 cf3d 38fe 9cbd
00000060: a39c 6e3c 36d8 883b a4dd a23d 6153 5c3d
00000070: 91cd c43b 1fe0 6dbb d091 8439 6160 abbb
00000080: 6c8b 3cba 84d0 87ba 0816 e33c 0b29 86bd
00000090: 2f6d b23d e8d0 aab9 55b1 bfbb 0d04 dd3b
000000a0: 565c 1d3b dfc2 61bb 8cc5 1abb e7fa 98bd
000000b0: f367 a9bd f4e3 40bd e1aa c7bd 987f 883d
000000c0: 68b5 033c afc8 a2bb 5fd8 dcbc f334 1cbb
000000d0: 05a8 13ba 2dd3 05bb f1af 82ba fd94 6539
000000e0: 2386 fc3a a726 083c ff11 32bc aaf3 8f3d
000000f0: d588 eabc 52ac 243a 63c7 ae3c 70a1 d0ba
00000100: 1b92 89bb 8e0d f2bb 10e0 c63b 76ee 3c3d
00000110: b12e 843d 7539 303d e277 f83c 73b1 2ebd
-0.08909549 0.0032609247 -0.121664785 -0.17854951 0.0056563555 0.005078677 0.005550358 0.00091347715
0.0036084664 -0.000713289 -0.07933086 -0.082131326 -0.16338766 -0.0035831304 -0.07504651 -0.0042521413
0.0012141961 0.003935457 0.0066673052 -0.0652247 -0.07448701 -0.08116793 0.10108754 -0.07665676
0.014563712 0.004176165 0.07952431 0.053790454 0.0060059507 -0.0036296917 0.0002528564 -0.005229995
-0.00071924063 -0.0010361825 0.027720466 -0.06550797 0.08712231 -0.00032580574 -0.005849997 0.0067448677
0.0024011335 -0.0034448428 -0.0023616282 -0.07469731 -0.0827178 -0.047092393 -0.097493894 0.066649616
0.008038856 -0.004967771 -0.026958643 -0.002383527 -0.0005632642 -0.002042006 -0.0009970648 0.00021894644
0.001926605 0.008309997 -0.010868548 0.07028897 -0.0286297 0.0006281781 0.02133531 -0.0015917253
-0.0041983253 -0.0073868698 0.006069191 0.04612585 0.06454218 0.043023545 0.030330602 -0.042649698

rate_f.4.bias f4 [3]
00000000: 567a 2cbc 0f91 b63c 10b2 1ebc
-0.010527214 0.022285966 -0.009686008

RTD_f.0.weight f4 [100, 1]
00000000: d13b 013d 0c9a 8b3d 4c0b 303d 0481 643d
00000010: 1b06 393d 591d 753d 1cb4 433d 5561 833d
00000020: ecd5 523d 4ff3 8b3d 01bb 623d 72a5 923d
00000030: e220 723d 3b04 993d 5f7d 823d 32e0 9d3d
00000040: dd8c 8c3d 87c5 a23d b1fd 953d 1f20 a53d
00000050: ab06 9e3d 890f a73d f6ca a53d ca4a a83d
00000060: 6540 ab3d 3cf9 a63d 7bbf af3d 6241 a33d
00000070: 9b54 b43d f6b2 9c3d 7679 ba3d 9f77 973d
00000080: 8c4e c13d 5775 923d 2eb0 c33d 9eb4 8f3d
00000090: 03c2 c33d 7a8d 913d d2c6 bf3d 252d 923d
000000a0: 9530 ba3d 1510 a73d c50c cd3d 853e d33d
000000b0: f869 db3d c640 e53d 6a54 d73d 77c7 f43d
000000c0: 0611 e43d 049f 003e 035a ee3d a562 053e
000000d0: a257 ff3d 60e7 083e 526e 033e 887a 053e
000000e0: 0ffb ff3d 45ec f83d 7625 e13d b968 c93d
000000f0: 09c5 9b3d 5eed 853d 3f38 063d d60c 073d
00000100: bb97 1dbc 5c4c 5f3b d50c 2ebd d49a 85bc
00000110: 56d5 4abd 10c8 5ebc e3dc d2bc a4d6 1e3c
00000120: 4f7e f33c b6c9 903d 0b1d c23d f1dc 143e
00000130: 35e7 3e3e 7c68 813e 169b 8a3e 9bf6 9b3e
00000140: 77b3 983e 0870 9b3e 0f72 8b3e 4be6 673e
00000150: fb12 1a3e 0bd0 8a3d 6506 88bc 5c61 bdbd
00000160: 2f30 29be 36c5 6ebe c76a 99be c11d babe
00000170: 2da8 d9be c517 f8be f9df 0abf 7f79 18bf
00000180: 2a0f 23bf 50c9 28bf 794a 4fbf e481 04bf
0.031551186 0.068164915 0.042979524 0.0557871 0.04517184 0.05984244 0.047779188 0.06415049
0.051473543 0.06833517 0.055354122 0.071604624 0.05911339 0.0747151 0.06371569 0.077087775
0.06862805 0.079478316 0.073237784 0.08062767 0.077161156 0.0815726 0.08095352 0.0821739
0.08361892 0.081530064 0.08581444 0.07971455 0.088052 0.076513216 0.09105198 0.07395863
0.0943881 0.07151287 0.09555088 0.07016872 0.09558489 0.07107063 0.09364094 0.07137517
0.090912975 0.08157364 0.10012201 0.10314659 0.10713571 0.11193995 0.105141476 0.119521074
0.111360595 0.1256066 0.11638262 0.13025911 0.124678865 0.13369513 0.12835053 0.13035023
0.124990575 0.1215444 0.10993473 0.098344274 0.07605941 0.06539415 0.032768484 0.032971226
-0.009618695 0.0034072613 -0.042492706 -0.01630918 -0.04951986 -0.013597503 -0.025740093 0.009694729
0.029723315 0.07069723 0.09478196 0.14537407 0.18642886 0.25275028 0.27071446 0.30461583
0.2982442 0.3035891 0.27235457 0.22646444 0.15046303 0.06777962 -0.016604612 -0.092470855
-0.16522287 -0.23317418 -0.29964277 -0.36350825 -0.4251112 -0.48455635 -0.54248005 -0.5956039
-0.63695014 -0.6593218 -0.8097301 -0.517607

RTD_f.0.bias f4 [100]
00000000: d8f7 f3c0 1e67 f1c0 294e f2c0 79b9 edc0
00000010: 694f efc0 609e eac0 7149 ecc0 2290 e7c0
00000020: 8d16 e9c0 7794 e4c0 99d4 e5c0 adc0 e1c0
00000030: f4a8 e2c0 0edc dec0 6252 dfc0 77fe dbc0
00000040: 32f1 dbc0 c0f7 d8c0 1999 d8c0 7c36 d6c0
00000050: 4263 d5c0 5467 d3c0 43fb d1c0 8e6e d0c0
00000060: e08c cec0 407a cdc0 c30f cbc0 7f9a cac0
00000070: e275 c7c0 3db5 c7c0 4f43 c3c0 a302 c4c0
00000080: f4c8 bec0 2919 c0c0 49ea bac0 f31c bcc0
00000090: 8795 b7c0 a867 b8c0 9a22 b5c0 9ca6 b5c0
000000a0: 0fe7 b2c0 035c b1c0 7779 aec0 21cc aac0
000000b0: 46f5 a9c0 66fb a5c0 07ee a6c0 ee30 a1c0
000000c0: 07da a1c0 a394 9bc0 b696 9bc0 4d47 95c0
000000d0: 8912 94c0 f1f1 8ec0 1d52 8dc0 c3d0 89c0
000000e0: e1df 87c0 3390 85c0 4de1 84c0 e78c 84c0
000000f0: f90c 86c0 d944 86c0 2bd4 89c0 5de3 88c0
00000100: 2021 8ec0 92dc 8bc0 432f 91c0 8376 8cc0
00000110: 811f 8fc0 5c79 87c0 f176 87c0 0166 7cc0
00000120: 3325 74c0 f501 5ec0 01a8 58c0 8097 42c0
00000130: f762 38c0 41b0 27c0 bf4e 25c0 61b6 1ec0
00000140: e239 21c0 12a3 1bc0 4077 1fc0 951c 27c0
00000150: 8d0b 36c0 4b57 46c0 62f5 56c0 bf80 65c0
00000160: 2806 73c0 2e1a 7fc0 c043 85c0 5499 8ac0
00000170: 19b1 8fc0 99b6 94c0 f6f6 99c0 a271 9fc0
00000180: 711e a5c0 d853 abc0 6515 b5c0 ed67 bbc0
-7.6240044 -7.5438375 -7.572041 -7.4288907 -7.4784436 -7.331833 -7.383965 -7.2363443
-7.284003 -7.143123 -7.182202 -7.05477 -7.083124 -6.964362 -6.9788065 -6.8748126
-6.873193 -6.780243 -6.7686887 -6.694151 -6.6683664 -6.6063633 -6.5619216 -6.5134954
-6.4546967 -6.421173 -6.345674 -6.3313594 -6.23314 -6.240874 -6.1019664 -6.125322
-5.9620304 -6.0030713 -5.8410993 -5.878534 -5.737003 -5.7626534 -5.660474 -5.676588
-5.5907054 -5.542482 -5.4523273 -5.337418 -5.3111906 -5.1869383 -5.216556 -5.037223
-5.0578647 -4.861894 -4.8621473 -4.6649537 -4.6272626 -4.467034 -4.4162736 -4.3067336
-4.246079 -4.1738524 -4.1525025 -4.1422 -4.1890836 -4.1959043 -4.3071494 -4.2777543
-4.4415436 -4.370675 -4.5370193 -4.389467 -4.4725957 -4.2335644 -4.233269 -3.9437258
-3.8147705 -3.4688694 -3.3852541 -3.0404968 -2.8810403 -2.6201327 -2.5829313 -2.4798815
-2.519158 -2.431828 -2.4916534 -2.6111195 -2.844455 -3.099078 -3.358727 -3.585983
-3.7972507 -3.985973 -4.1645203 -4.331217 -4.4903684 -4.6472898 -4.8113966 -4.982621
-5.159966 -5.353985 -5.6588616 -5.8564363

RTD_f.1.weight f4 [1, 1, 3]
00000000: abaa aa3e abaa aa3e abaa aa3e
0.33333334 0.33333334 0.33333334
