output/A_C2_S5_D10.pth (torch, 7428 bytes, 9 tensors)

rate_f.0.weight f4 [24, 3]
0	0x3e001332	0.12507322
1	0x3e1626f1	0.14663292
2	0xbe1ca9aa	-0.15299097
3	0xbae91b52	-0.0017784631
4	0xbc1adb5f	-0.009451716
5	0xbb0cd343	-0.0021488226
6	0xbb550c1b	-0.0032508436
7	0xbc9a3df0	-0.018828362
8	0x3a180449	0.00057989784
9	0xbdeb3ea6	-0.114865586
10	0xbd846ee9	-0.06466467
11	0x3e73c72f	0.23806451
12	0x3e01787f	0.12643622
13	0x3ded714a	0.11593874
14	0xbdcd2c6a	-0.10018237
15	0x3e060b00	0.13090134
16	0x3d935f9f	0.07195973
17	0xbd2f8c10	-0.042858183
18	0x3e1b7e26	0.1518484
19	0x3b3002e7	0.0026857199
20	0x3da89af1	0.08232678
21	0x3e1d0788	0.15334904
22	0xbaf73166	-0.0018859326
23	0x3d977919	0.073961444
24	0x3e08fb8e	0.1337721
25	0x3dd5acc3	0.10433342
26	0xbdc15e43	-0.09441807
27	0xbe003f2a	-0.12524095
28	0x3e2f3cd6	0.17113051
29	0xbc815fef	-0.015792815
30	0xbab07ea7	-0.001346548
31	0xbbe475e9	-0.006972064
32	0xbc33b510	-0.010968462
33	0xbddf29e0	-0.10896659
34	0x3e5fdb9f	0.21861123
35	0xbde3146c	-0.110878795
36	0xbb72c98f	-0.0037046408
37	0x3bb7d053	0.005609551
38	0xbca0a011	-0.019607576
39	0x3e242816	0.16030917
40	0x3d9f70ee	0.077852115
41	0xbc6b2625	-0.014352356
42	0xbb4fd34c	-0.0031711636
43	0xbc4aca55	-0.012377341
44	0xbb6d61fb	-0.003622173
45	0xb9871b33	-0.00025769472
46	0x3b35e3fb	0.0027754295
47	0xbb8895ec	-0.0041682627
48	0x3def1b21	0.11675096
49	0x3e001ff1	0.12512185
50	0xbe028a0c	-0.12747973
51	0xbde8925c	-0.11356041
52	0x3e6ef7e9	0.23336758
53	0xbdeb37ab	-0.11485227
54	0xbb3580ca	-0.0027695172
55	0xba75539d	-0.00093584677
56	0xbbf7f02c	-0.0075664725
57	0xbde15244	-0.11002019
58	0x3e8459d3	0.2584978
59	0xbe24e026	-0.16101131
60	0x3df3081b	0.1186678
61	0xbcd5d69f	-0.026103316
62	0x3dcd9be9	0.10039503
63	0xbe104ae2	-0.14091066
64	0x3da460c0	0.08026266
65	0x3da8a58f	0.08234703
66	0x3e0cfa3a	0.13767329
67	0x3de51cec	0.11187157
68	0xbdce98b4	-0.100877196
69	0x3e12d54e	0.14339182
70	0x3be49109	0.0069752974
71	0x3da95fb7	0.08270209

rate_f.0.bias f4 [24]
0	0xbd877439	-0.066139646
1	0xbafa925c	-0.0019117105
2	0xbbdcb770	-0.0067357346
3	0x3e31be31	0.17357709
4	0xbd4d00d0	-0.050049603
5	0xbd01c6ef	-0.03168386
6	0x3b5164e0	0.0031950995
7	0x39ddaa84	0.0004227945
8	0xbd3e4274	-0.046450093
9	0x3dc8b18d	0.0979949
10	0xba917f18	-0.0011100499
11	0x3ddbe2ee	0.10736643
12	0xbba7499a	-0.0051052095
13	0xbb6ff710	-0.0036615767
14	0xbba76d25	-0.0051094466
15	0xbb826a34	-0.0039799456
16	0xbd85c03c	-0.065308064
17	0x3de4a009	0.11163337
18	0xbbebcfc6	-0.0071963994
19	0x3dec22fb	0.115301095
20	0xbb7153a1	-0.0036823528
21	0x3dd30c99	0.10305137
22	0xbd10b16b	-0.03532545
23	0x3a977e7b	0.001155808

rate_f.2.weight f4 [24, 24]
0	0x3d7a626d	0.061129022
1	0xbb3818df	-0.0028090996
2	0x3bd9b0b8	0.006643381
3	0xbd948388	-0.0725165
4	0x3d563f33	0.052306365
5	0x3d9af2a0	0.07565808
6	0x3dd39133	0.10330429
7	0x3db1f2fe	0.08688925
8	0x3d5d1e3e	0.05398392
9	0xbe199d11	-0.15001322
10	0xbbb9fe73	-0.0056760847
11	0xbe475650	-0.1946652
12	0xbb71013b	-0.0036774415
13	0x3d9b8b15	0.07594887
14	0xbb5898d3	-0.0033050075
15	0xbae4655a	-0.0017425225
16	0x3d631436	0.055439197
17	0xbe62e132	-0.22156218
18	0xb9da0541	-0.00041584115
19	0xbe822ef9	-0.25426462
20	0x3dd1e6a5	0.1024907
21	0xbe15589d	-0.14584585
22	0x3d39cc05	0.045360584
23	0x3dc48e4e	0.09597455
24	0x3ba04258	0.0048907213
25	0xbb29f905	-0.002593578
26	0xbb7e0f07	-0.0038766281
27	0xbb737392	-0.0037147743
28	0xba26d69d	-0.00063643773
29	0xbb745caa	-0.0037286677
30	0xbb37ea3d	-0.00280632
31	0x3bd31f89	0.0064429683
32	0xbbc1ad34	-0.00591054
33	0xbb0bb2c6	-0.0021316274
34	0xbc1e5e06	-0.009665972
35	0x3b5c8660	0.003364943
36	0xbaa2a14f	-0.0012407693
37	0x3aa91d26	0.0012902364
38	0x39bf83bf	0.00036528517
39	0x3abe8d1b	0.0014537902
40	0x3a6c84b4	0.000902246
41	0x3a9a2226	0.0011759445
42	0xbbffcf45	-0.007806691
43	0x3ab2f786	0.001365409
44	0x3c100dfb	0.008792396
45	0x3a85727a	0.0010181211
46	0x39a6bff3	0.00031805
47	0xbb203ed7	-0.0024451518
48	0xbbc5b95c	-0.0060340595
49	0xb9f6820a	-0.00047017663
50	0x3b7827c9	0.003786551
51	0x3b27daf2	0.002561268
52	0x3b747e1d	0.0037306615
53	0xbbbc7274	-0.0057509486
54	0xbb6217b6	-0.0034498996
55	0xbbc65e97	-0.0060537565
56	0xbc2491d5	-0.010044535
57	0xba7bbf55	-0.0009603401
58	0xbb2820b0	-0.002565425
59	0x3badff2c	0.00530996
60	0x3c36016e	0.011108739
61	0xba34f351	-0.0006902712
62	0x3b3e6f3c	0.0029058
63	0xba3c3345	-0.00071792706
64	0xbb4dd463	-0.003140711
65	0xbc7a3f98	-0.015273951
66	0x380340b8	3.1293108e-05
67	0xbc29ec4e	-0.010371281
68	0x3a7f2178	0.0009732465
69	0x3c6ae492	0.014336722
70	0xbba51700	-0.005038142
71	0xbbe4ab66	-0.00697844
72	0x3bc02263	0.005863474
73	0x3b2ca000	0.0026340485
74	0x3b25455d	0.0025218346
75	0xbbd16233	-0.00638988
76	0xba9d5193	-0.001200246
77	0xbbb4c265	-0.0055163377
78	0xbb8d29e7	-0.0043079737
79	0xbbdaabcf	-0.006673313
80	0x3b4a60bf	0.003088042
81	0xbb0b2551	-0.002123196
82	0xbc1138cc	-0.008863639
83	0xbb28ca95	-0.0025755514
84	0xbaefe4ed	-0.0018302478
85	0x3ac3aca1	0.0014928767
86	0xbb810f3c	-0.0039385837
87	0x39ac8c2c	0.00032910833
88	0xbb861494	-0.0040918086
89	0x3a8d320c	0.0010772361
90	0x39c46f2d	0.00037466866
91	0xbb1a0575	-0.0023501788
92	0x3bc8f5c5	0.0061328136
93	0xbb72ef66	-0.0037068962
94	0xbb86aa17	-0.0041096318
95	0x398d9c66	0.00027010142
96	0xbd2a38ee	-0.0415582
97	0x3a7e5c42	0.00097030785
98	0xba704073	-0.0009164877
99	0x3cd9c3bd	0.026582593
100	0x3d4353b0	0.047687232
101	0x3db4c78e	0.088271245
102	0x3e133b4e	0.14378092
103	0x3e2f4fc4	0.17120272
104	0x3d912734	0.070875555
105	0xbdeeda21	-0.116626985
106	0x3a45f81b	0.0007551924
107	0xbe24647e	-0.1605396
108	0x3b2cb04e	0.0026350203
109	0x3dd40ed8	0.10354394
110	0xbb4ff2d2	-0.0031730426
111	0xbb4985ab	-0.0030749838
112	0x3bba0ec1	0.0056780283
113	0xbe2cb276	-0.16864952
114	0x3b0fa44d	0.0021918
115	0xbe469228	-0.19391692
116	0x3e360a44	0.17777354
117	0xbd96082e	-0.07325779
118	0x3d4f086e	0.05054515
119	0x3e0b04f3	0.13576107
120	0x3b2f74e6	0.0026772558
121	0x3bbdf031	0.0057964553
122	0x3a9122ea	0.0011073027
123	0xba8b8ac6	-0.0010646216
124	0xbb0483cd	-0.002022016
125	0x3b4c7420	0.0031197146
126	0xbc19a7a7	-0.00937835
127	0xbb0fa938	-0.002192093
128	0xbbe29035	-0.0069141635
129	0xb91c9e3b	-0.00014936265
130	0x3bb3d9e3	0.0054886206
131	0xbb0e5e7b	-0.0021723795
132	0xbb32a8e5	-0.0027261314
133	0x3b2d3097	0.0026426667
134	0xbb6ab6b9	-0.0035814478
135	0x3bc1e1f7	0.0059168297
136	0xb905dd57	-0.00012766324
137	0xba0b6a00	-0.00053182244
138	0xbbb901c5	-0.005645963
139	0xbc1d2af5	-0.009592761
140	0xba85b5fc	-0.001020133
141	0x3c1d5bf9	0.0096044475
142	0x3c05e7a0	0.0081728995
143	0xbc5b6533	-0.013390827
144	0xbb9795c7	-0.004626009
145	0xbbf837b8	-0.0075750016
146	0xb988ffbd	-0.0002613048
147	0xbbb35ac5	-0.005473467
148	0xbc19b26b	-0.009380917
149	0xbafdccdc	-0.0019363421
150	0x3922910b	0.00015503557
151	0xbc4af9ab	-0.012388627
152	0xbbf8905e	-0.0075855693
153	0x3bbe82c2	0.0058139274
154	0x38e14fe0	0.00010743714
155	0x3b1f0545	0.0024264615
156	0x3bc64906	0.0060511855
157	0xbbdba607	-0.0067031416
158	0xbc1bbdfd	-0.009505746
159	0xbad7b3aa	-0.0016456742
160	0x3a099cd8	0.0005249507
161	0x3b84b5d9	0.0040499982
162	0xbb9b733a	-0.0047439607
163	0x3bbe62fd	0.00581014
164	0x3bb3fe89	0.0054929894
165	0x3b8313ba	0.0040001543
166	0xbb61a87c	-0.00344327
167	0xbb9bab1a	-0.0047506215
168	0x3a3cf91d	0.00072087516
169	0xbb947ca5	-0.0045314603
170	0xbc059872	-0.008154022
171	0x3b5a2b3b	0.0033289928
172	0x3b0d20d8	0.002153447
173	0xbbafa230	-0.0053599104
174	0xbbe1cea0	-0.0068910867
175	0xbb65faa4	-0.003509202
176	0xbbf7843b	-0.007553605
177	0xbb917fa5	-0.0044402652
178	0x3a936d8b	0.0011247856
179	0xbbf9cf58	-0.0076235943
180	0xbc3836f9	-0.011243575
181	0xbafc6ac4	-0.0019257893
182	0xbb803ef1	-0.003913753
183	0x3c1ae476	0.009453883
184	0xbadc008c	-0.0016784831
185	0x3ba61b7f	0.0050691958
186	0xbb726009	-0.003698351
187	0xbac25ada	-0.0014828101
188	0x39dd98b7	0.00042266186
189	0x3c26cf54	0.010181267
190	0x398b847f	0.00026610863
191	0xbac3365f	-0.0014893523
192	0x3cf0e46e	0.029405799
193	0xbbc58995	-0.006028364
194	0xbbd29ac9	-0.0064271432
195	0xbcee71f9	-0.02910708
196	0x3d812e90	0.06307709
197	0x3dbd4c24	0.09243038
198	0x3dd846e8	0.10560399
199	0x3e00b7e4	0.12570149
200	0x3db0fec3	0.08642342
201	0xbdf26729	-0.118360825
202	0x3b1786a7	0.002312103
203	0xbe11635e	-0.14198062
204	0x3bc78227	0.0060885134
205	0x3dbb2c81	0.09139348
206	0xbc0b4a1f	-0.008501559
207	0xbba2c99f	-0.0049678828
208	0x3d4ba616	0.04971894
209	0xbe1924a7	-0.14955388
210	0xbb17a049	-0.002313631
211	0xbe52eb4f	-0.20597576
212	0x3e0609e7	0.13089715
213	0xbdb9a773	-0.090651415
214	0x3d9231bf	0.071383946
215	0x3de3656d	0.1110333
216	0x3e89b8ec	0.26898897
217	0x3b1c022c	0.0023805005
218	0xba674575	-0.00088223006
219	0xbe83d55e	-0.25748724
220	0x3e5610c0	0.20904827
221	0x3df92bf4	0.121665865
222	0x3d2030a4	0.039108887
223	0x3d6eb6f5	0.05827995
224	0x3e312a73	0.1730135
225	0xbd8cfa51	-0.068836816
226	0x3c4e240a	0.012581835
227	0x3ccde607	0.0251341
228	0x3c0896e7	0.008336759
229	0x3dce4ff2	0.10073842
230	0x3b2cea8a	0.0026384913
231	0x3bf3b6f2	0.0074375803
232	0x3e6e0dd7	0.23247467
233	0x3d53fa2e	0.05175226
234	0x3b438576	0.0029834188
235	0x3dc74154	0.09729257
236	0x3cc2b7b5	0.023769239
237	0xbe2c5e79	-0.16832913
238	0x3e27c4ac	0.16383618
239	0x3d3fe2cf	0.04684716
240	0xbb743309	-0.0037261865
241	0xbbf590be	-0.0074940613
242	0xbc0f3a02	-0.0087418575
243	0xba7c148f	-0.00096161006
244	0xbbc3eb61	-0.005978987
245	0xbbf3d240	-0.0074408352
246	0xbae5b185	-0.0017524218
247	0xb8c01c82	-9.1605834e-05
248	0x3bcfc346	0.006340417
249	0xbac0239b	-0.0014659049
250	0xbbcd607a	-0.0062676044
251	0x3c4dcdef	0.012561305
252	0x3b719283	0.003686101
253	0x399d88d3	0.00030047316
254	0xb9fffcf7	-0.00048825864
255	0xbc2a0f7e	-0.01037967

rate_f.2.bias f4 [24]
0	0xbd4c16fc	-0.049826607
1	0xbb928e83	-0.004472555
2	0xbbc4fe39	-0.006011751
3	0x00000000	0.0
4	0x3d12c1e7	0.03582945
5	0xbbb67ca8	-0.0055690594
6	0xbbc30790	-0.0059518293
7	0xbbd14a04	-0.006386997
8	0x3c567d2f	0.0130913695
9	0xbd26ca50	-0.040720284
10	0xbbc65205	-0.006052258
11	0xbbc56223	-0.0060236617
12	0x3b10d655	0.0022100408
13	0xbbc33060	-0.0059566945
14	0xbbc6ef34	-0.0060709957
15	0xbbbb6993	-0.0057193725
16	0xbbc701e6	-0.0060732244
17	0xbbbb3ee0	-0.0057142824
18	0xbd49b9d2	-0.049249478
19	0x3d7fcf87	0.062453773
20	0xbba0b1ff	-0.0049040313
21	0xbd5cae39	-0.05387709
22	0xbbcef24b	-0.0063155047
23	0xbd9ea1f0	-0.07745731

rate_f.4.weight f4 [3, 24]
0	0xbddc4573	-0.10755434
1	0x3b82b955	0.0039893785
2	0x3baae93e	0.005215793
3	0x3be1baf3	0.006888741
4	0xbdcc0f45	-0.0996385
5	0x3bd5ad0b	0.0065208725
6	0xbbb65051	-0.0055637737
7	0x3b8780ac	0.004135212
8	0xbdd7655a	-0.10517378
9	0xbdc14662	-0.094372526
10	0x3a9453d6	0.0011316489
11	0x3b1cae6c	0.0023907674
12	0xbddd8fa4	-0.10818413
13	0x3ae2155a	0.0017248795
14	0x3b82e1fa	0.0039942237
15	0xbb1d1606	-0.0023969426
16	0x3be327ed	0.0069322498
17	0xbbed7657	-0.007246773
18	0xbde444fd	-0.11145971
19	0xbdc39a21	-0.09550882
20	0x39ac63bd	0.00032880707
21	0xbddfb6d8	-0.109235466
22	0xb98b5e1d	-0.00026582266
23	0xbda96d9c	-0.082728595
24	0x3dc17c8f	0.09447586
25	0x3a0136f9	0.0004929151
26	0x393314f2	0.00017078573
27	0x3bae31e2	0.005316005
28	0x3d926153	0.07147469
29	0x3b754d98	0.0037430283
30	0x3a8f5f87	0.0010938504
31	0xbb569c05	-0.0032746803
32	0x3d016807	0.03159335
33	0xbdc4718f	-0.09591972
34	0xbc922f71	-0.017844887
35	0x365de5e6	3.3065385e-06
36	0x3c62b360	0.013836712
37	0x3ba0acff	0.0049034352
38	0x3ab49f9c	0.0013780477
39	0xba036315	-0.0005012018
40	0xbc45a538	-0.012063317
41	0xbad76941	-0.0016434566
42	0x3e1ba982	0.15201381
43	0x3d82ba93	0.063832425
44	0xbad27a15	-0.0016058112
45	0x3df6a985	0.12044052
46	0x398360f2	0.00025058497
47	0xbe81d462	-0.25357348
48	0xbd22da01	-0.039758686
49	0xbac1eb1e	-0.0014794802
50	0x3b78ffd7	0.003799429
51	0x3bbca822	0.0057573477
52	0xbc889015	-0.016670266
53	0xbbdece82	-0.00679952
54	0xbb3c4072	-0.0028724936
55	0xbbb8c176	-0.0056382967
56	0x3b0487cb	0.002022254
57	0x3d8ddf15	0.06927315
58	0xbc047a0e	-0.008085741
59	0xbac7e66d	-0.0015251167
60	0xbc10c38f	-0.008835687
61	0x3b2dec06	0.0026538386
62	0xbc0f60b0	-0.008751079
63	0x3bad5f7d	0.005290924
64	0xbbe31cdb	-0.00693093
65	0xbb853bd6	-0.004065971
66	0xbda65233	-0.08121147
67	0xbd05947f	-0.03261232
68	0x3b9b7324	0.0047439504
69	0xbd58b49f	-0.05290663
70	0x3bb0d4db	0.005396468
71	0x3e34e6c5	0.17666157

rate_f.4.bias f4 [3]
0	0x3b1d3566	0.0023988127
1	0xbb38d6a9	-0.002820412
2	0x3abe5b7c	0.0014523114

RTD_f.0.weight f4 [100, 1]
0	0x3d7d2771	0.061805192
1	0x3df1296f	0.11775481
2	0x3db941dd	0.090457655
3	0x3dc05781	0.0939169
4	0x3dc34c88	0.095360816
5	0x3dc3e136	0.0956444
6	0x3dccc65d	0.09998772
7	0x3dc30dfc	0.09524152
8	0x3dd463d3	0.103706025
9	0x3dbde65b	0.092724524
10	0x3dd9e5da	0.10639544
11	0x3db67709	0.08909423
12	0x3ddc3fc3	0.10754349
13	0x3dadd833	0.08488502
14	0x3dd85f7f	0.105650894
15	0x3da356db	0.07975551
16	0x3dce4e2d	0.100735046
17	0x3d990b3f	0.07472848
18	0x3dbb6b34	0.09151307
19	0x3d8dd767	0.0692585
20	0x3da192d1	0.07889331
21	0x3d82ac87	0.06380563
22	0x3d820580	0.06348705
23	0x3d691504	0.056904808
24	0x3d48437b	0.04889248
25	0x3d3b1995	0.045678694
26	0x3d038d19	0.032116983
27	0x3cfbf36a	0.030755717
28	0x3cadf93b	0.021237006
29	0x3c850192	0.0162361
30	0x3c35db73	0.011099684
31	0x3b5410e6	0.0032358705
32	0x3b33d4b8	0.0027440023
33	0xbbf0bba3	-0.007346587
34	0xbbaf4782	-0.0053491006
35	0xbc43b00f	-0.011943831
36	0xbc51a894	-0.01279654
37	0xbc90cd43	-0.017676001
38	0xbca2aa3a	-0.019856561
39	0xbc90fc03	-0.017698294
40	0xbcab078c	-0.020877622
41	0xbc47aece	-0.012187673
42	0xbc976d6f	-0.0184848
43	0xbc1d7ba7	-0.009612001
44	0xbc6ed270	-0.014576539
45	0xbc15479d	-0.009111312
46	0xbb98fbf9	-0.0046687094
47	0xbc3c4bb6	-0.01149266
48	0x3c425b6a	0.011862615
49	0xbb9525b0	-0.004551612
50	0x3d14a107	0.03628638
51	0xbb7b37e4	-0.0038332874
52	0x3ce748fe	0.028233048
53	0xbcf10f36	-0.029426198
54	0x3b97bfd7	0.0046310234
55	0xbcc9e612	-0.024645839
56	0x3b9d14b9	0.00479373
57	0xbbb06c4b	-0.0053840033
58	0x3cb6c89d	0.022312457
59	0x3d16d08f	0.03681999
60	0x3d0ca7a2	0.034339555
61	0x3d0a2e2e	0.033735447
62	0x3cbbe8a2	0.022938076
63	0x3c98a34d	0.018632555
64	0x3c3796f4	0.011205424
65	0xbb784494	-0.0037882673
66	0x3d19453f	0.037419554
67	0x3cdf5d81	0.027266266
68	0x3d5fd244	0.054643884
69	0x3ca97346	0.02068485
70	0x3c1e558d	0.009663952
71	0x3ca53475	0.020166615
72	0xbb58d4b1	-0.0033085758
73	0x3d23dfd6	0.04000839
74	0x3b62144a	0.0034496957
75	0x3cc99283	0.024605995
76	0x3bd49ae0	0.006488189
77	0xbd09f4b1	-0.03368062
78	0x39db318c	0.0004180785
79	0xbd8d495c	-0.06898758
80	0xbbe155da	-0.0068766894
81	0xbd9a4165	-0.07532004
82	0xbcd4f04e	-0.025993492
83	0xbd2daa07	-0.04239848
84	0xbd21a5f6	-0.039464913
85	0xbb9795c4	-0.0046260078
86	0xbd364c49	-0.044506345
87	0x3b9e8aa2	0.0048383037
88	0xbd721923	-0.059106003
89	0x3b6193ed	0.0034420446
90	0xbd597fb7	-0.053100314
91	0x3c1e541f	0.009663611
92	0xbcb99d53	-0.022658026
93	0xbaaa6c57	-0.0013002258
94	0xbd85001a	-0.0649416
95	0xbe02dee8	-0.12780344
96	0xbe65d6d3	-0.2244523
97	0xbeab8276	-0.3349797
98	0xbf1706a5	-0.58994514
99	0xbec9204c	-0.39282453

RTD_f.0.bias f4 [100]
0	0xc0e9b66e	-7.3035192
1	0xc0e403c7	-7.125461
2	0xc0e4f082	-7.154359
3	0xc0e2c72c	-7.086813
4	0xc0e1d58f	-7.057319
5	0xc0e06c5f	-7.013229
6	0xc0dedb31	-6.964257
7	0xc0de8403	-6.9536147
8	0xc0dc211c	-6.8790417
9	0xc0dcf392	-6.9047327
10	0xc0d99f8e	-6.800727
11	0xc0db5dab	-6.855184
12	0xc0d75739	-6.7293973
13	0xc0d9b3a7	-6.80318
14	0xc0d588a3	-6.6729293
15	0xc0d8057f	-6.750671
16	0xc0d41f37	-6.6288104
17	0xc0d63295	-6.6936746
18	0xc0d3306b	-6.5996604
19	0xc0d4554d	-6.6354127
20	0xc0d27b6c	-6.577566
21	0xc0d22848	-6.567417
22	0xc0d1d9d7	-6.557842
23	0xc0d00c21	-6.5014806
24	0xc0d0c96a	-6.5245867
25	0xc0cea96f	-6.458183
26	0xc0cfc2b3	-6.492517
27	0xc0cdd222	-6.431901
28	0xc0cdfb64	-6.4369373
29	0xc0ccf3eb	-6.404775
30	0xc0cc0ad3	-6.3763213
31	0xc0cba4cf	-6.363868
32	0xc0c9f55b	-6.3112006
33	0xc0c9b6d8	-6.30357
34	0xc0c79f21	-6.238175
35	0xc0c6bc8c	-6.210516
36	0xc0c51671	-6.1589894
37	0xc0c42094	-6.128977
38	0xc0c26d95	-6.0758767
39	0xc0c0dbfc	-6.0268536
40	0xc0bed4e4	-5.9634876
41	0xc0bccab3	-5.8997436
42	0xc0bb0890	-5.844795
43	0xc0b8b83d	-5.77249
44	0xc0b74652	-5.727334
45	0xc0b4834b	-5.641027
46	0xc0b2adde	-5.583724
47	0xc0b0a966	-5.5206785
48	0xc0ad1c4a	-5.4097033
49	0xc0ab6d56	-5.3570967
50	0xc0a68b70	-5.204521
51	0xc0a730f6	-5.2247267
52	0xc0a3562b	-5.1042686
53	0xc0a5e522	-5.1842203
54	0xc0a1fa69	-5.0618176
55	0xc0a1581c	-5.0420055
56	0xc09d2f94	-4.912058
57	0xc09b20f3	-4.847772
58	0xc09702f3	-4.71911
59	0xc092ad7d	-4.583678
60	0xc091b524	-4.553362
61	0xc090c3f9	-4.5239224
62	0xc08f5c9f	-4.4800563
63	0xc08eff25	-4.4686456
64	0xc08cb79e	-4.397414
65	0xc08d13a1	-4.408646
66	0xc0864db6	-4.196986
67	0xc0857a6d	-4.1711946
68	0xc082511d	-4.0724015
69	0xc08251b1	-4.072472
70	0xc083f7b7	-4.1239886
71	0xc07d393d	-3.9566185
72	0xc080d3a6	-4.025836
73	0xc0715ecd	-3.7714112
74	0xc076b5d6	-3.8548484
75	0xc06c61e9	-3.693476
76	0xc06d8626	-3.7113128
77	0xc06fa237	-3.7442758
78	0xc066cd60	-3.606285
79	0xc06f40ac	-3.7383223
80	0xc0613ae1	-3.5192187
81	0xc06a4337	-3.6603525
82	0xc05f38c9	-3.487841
83	0xc05f5703	-3.4896858
84	0xc05dddab	-3.4666545
85	0xc056925b	-3.3526828
86	0xc05f2e3e	-3.4871974
87	0xc057e2a6	-3.3732085
88	0xc065441e	-3.5822825
89	0xc05c9150	-3.4463692
90	0xc0694d69	-3.6453497
91	0xc06156fb	-3.5209339
92	0xc06b3a32	-3.675427
93	0xc06a7cb8	-3.6638622
94	0xc078738d	-3.8820527
95	0xc081f9cc	-4.061743
96	0xc08aba06	-4.335208
97	0xc095f09c	-4.6856213
98	0xc0a7cd50	-5.2438126
99	0xc0b09a55	-5.5188394

RTD_f.1.weight f4 [1, 1, 3]
0	0x3eaaaaab	0.33333334
1	0x3eaaaaab	0.33333334
2	0x3eaaaaab	0.33333334
