output/A_C_S10_D10.pth (torch, 7428 bytes, 9 tensors)

rate_f.0.weight f4 [24, 3]
-0.0013582915 -0.0049501765 -0.015454114 -0.13464682 -0.10241562 0.25592998 0.09541782 0.15256041
-0.0651 0.12148653 0.033495843 0.044910092 -0.0007596022 -0.0022073593 -0.00060205767 -0.13798957
0.1766814 -0.056429427 -0.13606894 0.20018929 -0.08220211 0.12469135 0.021554425 0.054842483
-0.000612999 -0.0060820226 -0.010512807 0.11423628 0.112997904 -0.012517267 0.14144415 -0.2018324
0.22070861 0.12588347 0.13108654 -0.03922499 0.117255434 0.12382528 -0.039409377 -0.0042925104
-0.00034579865 -0.007890791 -0.1409436 0.13000241 0.0026607313 0.1204835 0.1960717 -0.097605266
-0.0011201681 -0.0020368744 -0.007626317 0.13667123 -0.15529098 0.17814304 0.1258231 0.114458784
-0.029658938 0.14459513 0.03523746 0.04588099 0.004920551 -0.012140445 -0.0043330574 -0.12730354
0.088422984 0.035648115 0.0026992671 -0.018939722 -0.013545969 0.116670944 0.15214665 -0.073193386
00000000: b308 b2ba 1735 a2bb 4133 7dbc dbe0 09be
00000010: 48bf d1bd 4109 833e 6b6a c33d cc38 1c3e
00000020: 2653 85bd eecd f83d f032 093d a5f3 373d
00000030: 0a20 47ba 58a9 10bb 68d3 1dba 234d 0dbe
00000040: f8eb 343e 8b22 67bd a855 0bbe 6cfe 4c3e
00000050: 9459 a8bd 2e5e ff3d e892 b03c 83a2 603d
00000060: abb1 20ba b44b c7bb e93d 2cbc b6f4 e93d
00000070: 726b e73d 3915 4dbc bcd6 103e 27ad 4ebe
00000080: 7001 623e 99e7 003e 8d3b 063e 62aa 20bd
00000090: 9e23 f03d 1c98 fd3d ba6b 21bd 30a8 8cbb
000000a0: 4f4c b5b9 6048 01bc 8553 10be 5a1f 053e
000000b0: aa5f 2e3b 0ec0 f63d 05c7 483e 45e5 c7bd
000000c0: 9bd2 92ba 157d 05bb 2fe6 f9bb 8bf3 0b3e
000000d0: 9904 1fbe 216b 363e c5d7 003e 5e69 ea3d
000000e0: 4df7 f2bc bf10 143e 2855 103d b4ed 3b3d
000000f0: 933c a13b b8e8 46bc 52fc 8dbb dc5b 02be
00000100: 1c17 b53d c203 123d 30e6 303b 7a27 9bbc
00000110: e9ef 5dbc 2df1 ee3d 55cc 1b3e 6ae6 95bd

rate_f.0.bias f4 [24]
-0.0063860775 0.07085707 -0.025199553 -0.02259758 -0.0033454106 0.10163596 0.097134486 -0.0057968968
-0.0074014366 -0.033628024 0.0072699124 -0.021695035 -0.041512832 -0.009576834 0.098940015 -0.03431012
-0.0024117215 -0.0024363666 -0.037977256 -0.006299014 -0.0055644726 0.107758135 -0.008074945 -0.049933262
00000000: 4d42 d1bb 831d 913d 4b6f cebc 8f1e b9bc
00000010: ad3e 5bbb 8426 d03d 72ee c63d e5f3 bdbb
00000020: c087 f2bb 8abd 09bd 7238 ee3b c9b9 b1bc
00000030: 5c09 2abd 27e8 1cbc 10a1 ca3d c588 0cbd
00000040: f90d 1ebb 73ab 1fbb 0a8e 1bbd f667 cebb
00000050: 2e56 b6bb 4cb0 dc3d c64c 04bc d286 4cbd

rate_f.2.weight f4 [24, 24]
-0.0029092731 -0.00032621506 -0.010394121 -0.0069195973 0.0025395015 -0.008003221 0.00886986 -0.0053551127
0.0031615263 -0.0029880365 -0.0048173787 0.008631996 0.005055548 -0.0071095517 0.0017127153 -0.010610803
-0.00010250404 -0.0036530097 -0.010452396 0.0030465105 0.0021905382 0.0030143915 -0.0045165415 -0.008500154
-0.0016837018 -0.26926583 0.16611677 0.0742003 -0.0076449886 -0.027227215 -0.0010318097 0.071115494
-0.0054615326 0.12845469 -0.11552613 0.11618594 0.14690895 -0.0018125849 -0.05203505 0.19758672
-0.0024892876 -0.076501526 0.11481761 0.08267193 0.013434894 -0.077186346 -0.0061706547 0.1669343
-0.0021136773 -0.0052473512 0.003434611 0.0010352638 -0.008127909 -0.004462832 -0.0015206598 -0.013040539
0.0043314327 0.00028582697 -0.0012762592 0.0056460686 0.0007404991 0.0020396223 -0.005011281 -0.011656335
0.007418718 -0.0015195318 -0.0016249089 0.0006131863 -0.0075001745 0.006711623 -0.0064684884 -0.008298347
-0.0043647983 -0.0044603664 0.004837597 -0.003320618 -0.0060329223 -0.0055267923 -0.0014324253 0.0040454464
0.001526638 -0.00013432768 0.005268225 -0.00968215 -0.0044168415 0.0055658934 0.0014895338 -0.0014704609
0.006593534 -0.008094974 0.008290669 0.0036043318 0.009340116 0.004343907 -0.004446024 -0.0015050606
-0.004825044 -0.27337053 0.051989127 0.07923223 0.004544281 -0.25337353 -0.2526971 0.07335139
0.011215176 0.06172093 0.0700965 0.07132323 0.060775764 0.0091466885 -0.2515325 0.07548893
0.004004368 0.06838365 0.0808777 0.06562349 0.008237003 -0.2662358 -0.0033238463 0.090006724
0.0036739716 -0.31362405 0.14642724 0.074709564 0.002503273 0.005091175 0.052974116 0.057036154
-0.0051196744 0.10532065 -0.16606139 0.1548061 0.16542359 0.0038760079 -0.056598984 0.21395917
-0.002738815 -0.12189317 0.14627853 0.0727512 -0.0012502684 -0.0776504 0.0026992843 0.22040185
0.01576783 -0.2855779 0.20343508 0.08276325 0.0066706017 0.1120438 0.12863934 0.07179855
0.0052119014 0.14919782 -0.18021685 0.17631379 0.18217279 0.005838172 0.053637836 0.25224683
0.0025628912 -0.13260327 0.16744706 0.10148435 0.00020615253 -0.009178161 8.815843e-05 0.20450236
0.0013713213 0.006473937 0.003741363 -0.0020049894 0.00023279169 -0.0043985303 -0.005217284 -0.003011537
0.0016265123 -0.0025531482 -0.0018427989 -0.004628125 0.0047747516 0.005629571 0.0031713273 -0.0072955117
-0.005411443 -0.0022680548 -0.0060914485 -0.00987956 -0.0027676714 -0.0020979347 0.009142339 0.004875777
0.010702075 -0.06907198 0.11904901 0.09579158 0.0043600383 -0.044072315 -0.06409511 0.11055987
0.004083027 0.11373945 0.038110394 0.10553985 0.11957425 -0.003778391 -0.061019756 0.13458423
0.0052069435 0.02948648 0.13421069 0.11853416 0.0053039407 -0.05879769 0.0038209066 0.13160498
0.0014992167 0.2697511 -0.07593728 0.130799 -0.009383432 -0.34697288 -0.3972648 0.14905933
0.004267262 0.025814654 0.41129935 -0.008966213 0.0011481697 0.004580354 -0.24256489 -0.10086336
0.0046282876 0.35245022 0.015473409 0.13841212 -0.00019823812 -0.14195153 -0.0025515202 -0.07265972
-0.004459449 -0.0032531954 0.0023877262 -0.016027143 -0.003535229 0.0010172633 0.0032718573 -0.0009142542
0.0010837886 -0.004385538 -0.01336533 -0.001017859 -0.0036599124 0.00030527532 0.00011846462 -0.0061927508
00000000: 81a9 3ebb d807 abb9 1a4c 2abc cabd e2bb
00000010: c46d 263b f11f 03bc e452 113c f179 afbb
00000020: 9c31 4f3b efd2 43bb 1adb 9dbb 376d 0d3c
00000030: 03a9 a53b 3ef7 e8bb 307d e03a efd8 2dbc
00000040: 70f7 d6b8 5567 6fbb 8740 2bbc f7a7 473b
00000050: 228f 0f3b 198d 453b 7fff 93bb 3b44 0bbc
00000060: a8af dcba 36dd 89be 841a 2a3e 54f6 973d
00000070: d082 fabb 9c0b dfbc ca3d 87ba 00a5 913d
00000080: a8f6 b2bb a089 033e f798 ecbd e5f2 ed3d
00000090: 4d6f 163e 4294 edba b422 55bd 2c54 4a3e
000000a0: 5123 23bb d5ac 9cbd 7f25 eb3d e74f a93d
000000b0: 081e 5c3c e013 9ebd 3433 cabb d3f0 2a3e
000000c0: 9f85 0abb f9f1 abbb 3617 613b b0b1 873a
000000d0: ec2a 05bc f33c 92bb e050 c7ba fca7 55bc
000000e0: b1ee 8d3b 0cdb 9539 2748 a7ba a802 b93b
000000f0: 0e1e 423a 2fab 053b ac35 a4bb 36fa 3ebc
00000100: b818 f33b 072b c7ba e5fa d4ba 3cbe 203a
00000110: 06c4 f5bb 2ded db3b 9df5 d3bb caf5 07bc
00000120: 9506 8fbb 4428 92bb b484 9e3b ba9e 59bb
00000130: d2af c5bb 181a b5bb 38c0 bbba aa8f 843b
00000140: 7919 c83a 50da 0cb9 13a1 ac3b e1a1 1ebc
00000150: 27bb 90bb 1962 b63b 763c c33a 7bbc c0ba
00000160: 920e d83b c8a0 04bc 96d5 073c a736 6c3b
00000170: 4907 193c 5557 8e3b f4af 91bb 7445 c5ba
00000180: 671b 9ebb 39f7 8bbe 8df2 543d 8244 a23d
00000190: 31e8 943b 2dba 81be 8461 81be 4139 963d
000001a0: dcbf 373c 16cf 7c3d c18e 8f3d ea11 923d
000001b0: 02f0 783d fedb 153c dec8 80be f199 9a3d
000001c0: 1337 833b ba0c 8c3d 35a3 a53d 9c65 863d
000001d0: 7ff4 063c 0f50 88be e3d4 59bb 7255 b83d
000001e0: 04c7 703b 5593 a0be 06f1 153e 5401 993d
000001f0: f40d 243b dfd3 a63b 63fb 583d be9e 693d
00000200: f1c2 a7bb 5ab2 d73d ff0b 2abe 7e85 1e3e
00000210: cd64 293e 9f04 7e3b 56d4 67bd 1d18 5b3e
00000220: b17d 33bb 20a3 f9bd 0aca 153e 95fe 943d
00000230: 0ce0 a3ba 2c07 9fbd 7ae6 303b 06b1 613e
00000240: 892b 813c 4437 92be 4951 503e c77f a93d
00000250: 1095 da3b 3877 e53d 08ba 033e 1e0b 933d
00000260: 99c8 aa3b 50c7 183e c48a 38be 9a8b 343e
00000270: 818b 3a3e 234e bf3b 59b3 5b3d 7f26 813e
00000280: 2ef6 273b 27c9 07be 3e77 2b3e 07d7 cf3d
00000290: a62a 5839 ff5f 16bc b2e1 b838 1169 513e
000002a0: e8bd b33a 5223 d43b a831 753b 2466 03bb
000002b0: 8b19 7439 8c21 90bb c0f5 aabb 355d 45bb
000002c0: b230 d53a b852 27bb 128a f1ba 87a7 97bb
000002d0: 8575 9c3b 4478 b83b 0bd6 4f3b 300f efbb
000002e0: 7952 b1bb a5a3 14bb c69a c7bb e1dd 21bc
000002f0: d261 35bb 817d 09bb c0c9 153c fbc4 9f3b
00000300: c257 2f3c 9c75 8dbd f8cf f33d 602e c43d
00000310: a7de 8e3b 2c85 34bd 4c44 83bd 376d e23d
00000320: eaca 853b 3bf0 e83d a519 1c3d 4725 d83d
00000330: 58e3 f43d e29e 77bb daef 79bd 73d0 093e
00000340: 029f aa3b a18d f13c 876e 093e 0ac2 f23d
00000350: aecc ad3b d9d5 70bd 2d68 7a3b 75c3 063e
00000360: 5d81 c43a d11c 8a3e 0185 9bbd 2cf0 053e
00000370: f7bc 19bc 6ea6 b1be 4b66 cbbe 02a3 183e
00000380: 63d4 8b3b 4179 d33c d495 d23e 06e7 12bc
00000390: 2f7e 963a cb16 963b ee62 78be 7391 cebd
000003a0: e4a8 973b 5b74 b43e 2e84 7d3c e8bb 0d3e
000003b0: 24de 4fb9 be5b 11be 6837 27bb 9fce 94bd
000003c0: 9220 92bb 9033 55bb 667b 1c3b 5b4b 83bc
000003d0: 4daf 67bb b155 853a a86c 563b 90aa 6fba
000003e0: e90d 8e3a 8fb4 8fbb 42fa 5abc ae69 85ba
000003f0: 24db 6fbb 5c0d a039 3570 f838 8fec cabb

rate_f.2.bias f4 [24]
-0.0055118958 -0.035630602 -0.0059037786 -0.003811196 -0.06380664 -0.00337712 0.039283197 -0.0014155502
0.012251626 0.027383953 -0.004823464 -0.013338794 0.0 -0.0061798054 -0.0055837366 -0.029968712
-0.0037378233 -0.0061447257 -0.005892394 -0.006461014 -0.0057373364 0.022350412 0.05540777 -0.0052302205
00000000: 229d b4bb 65f1 11bd 7c74 c1bb 42c5 79bb
00000010: 0ead 82bd ac52 5dbb 6be7 203d fc89 b9ba
00000020: 0bbb 483c 5054 e03c 260e 9ebb f58a 5abc
00000030: 0000 0000 f77f cabb c7f7 b6bb f280 f5bc
00000040: 45f6 74bb b259 c9bb fc14 c1bb eab6 d3bb
00000050: 4400 bcbb 3618 b73c 42f3 623d 4562 abbb

rate_f.4.weight f4 [3, 24]
0.002431739 -0.076823875 -0.00096813386 -0.00025933253 -0.22555032 -0.08015415 -0.07434993 0.008978535
-0.082324974 -0.058534164 -0.0040819463 -0.07331752 0.00090331695 0.0072947512 0.001705693 -0.1619831
-0.0011022096 0.0018489937 -0.0069724093 0.0107786385 0.0046530156 -0.061856296 0.10178809 0.010984733
-0.0036283445 -0.0565543 0.0022386853 0.0076733925 0.0038101065 -0.089083195 -0.0905302 -0.0021538585
-0.04071538 0.25005144 -0.0038885311 -0.04727892 0.0046302336 -0.0033687376 0.0056888345 0.10308993
0.0016857563 0.0014258489 -0.0023143592 -0.0005510741 -9.00298e-06 0.069779046 -0.05216404 -0.0034343912
0.005803959 0.0629432 0.0005358861 0.0048914882 0.021606833 0.11678923 0.07776258 -0.0010736387
0.009130207 -0.13062581 0.0009053152 0.035242006 0.0053334003 0.0110907685 0.00698162 -0.030846672
0.008484754 -0.008089852 -0.0030965067 0.00405886 -0.011834775 -0.041063126 -0.015950197 -0.0014629916
00000000: cf5d 1f3b d655 9dbd 5dca 7dba 06f7 87b9
00000010: aaf6 66be dc27 a4bd c744 98bd b51a 133c
00000020: ff99 a8bd 85c1 6fbd d9c1 85bb 7f27 96bd
00000030: 93cc 6c3a cf08 ef3b 8f91 df3a e6de 25be
00000040: 0478 90ba ef59 f23a cf78 e4bb e398 303c
00000050: 5378 983b 075d 7dbd 4676 d03d 4ff9 333c
00000060: 85c9 6dbb 7ba5 67bd e8b6 123b 1571 fb3b
00000070: fbb2 793b 4071 b6bd e667 b9bd c027 0dbb
00000080: 2cc5 26bd be06 803e bad6 7ebb 8aa7 41bd
00000090: 37b9 973b 0ac6 5cbb 6769 ba3b d020 d33d
000000a0: 98f4 dc3a 8de3 ba3a 81ac 17bb f575 10ba
000000b0: 810b 17b7 51e8 8e3d f6a9 55bd 8613 61bb
000000c0: 232f be3b 5de8 803d b57a 0c3a c748 a03b
000000d0: d000 b13c 312f ef3d fd41 9f3d 56b9 8cba
000000e0: dd96 153c c6c2 05be ad52 6d3a ec59 103d
000000f0: cec3 ae3b 0eb6 353c 13c6 e43b 29b2 fcbc
00000100: a303 0b3c 4c8b 04bc c3ee 4abb 2f00 853b
00000110: a5e6 41bc cf31 28bd fda9 82bc dac1 bfba

rate_f.4.bias f4 [3]
-0.0067856046 0.0125147225 -0.0036860039
00000000: c759 debb 8d0a 4d3c e290 71bb

RTD_f.0.weight f4 [100, 1]
0.09889713 0.1838431 0.14524467 0.1392715 0.14181367 0.13556914 0.1371275 0.13150424
0.13315056 0.12881738 0.12847315 0.1227984 0.12215146 0.11757685 0.11825658 0.109907925
0.10958026 0.09872539 0.10066731 0.08717788 0.09030309 0.07754389 0.085235074 0.06752364
0.07652448 0.056485873 0.067815915 0.042947087 0.056560464 0.034969352 0.055369 0.031975783
0.052591186 0.028859524 0.046026934 0.020833049 0.030756172 0.010811356 0.019631874 0.011150338
0.020726426 0.021589808 0.027425857 0.02820648 0.02796186 0.022791177 0.014975963 0.0063458555
0.0243766 0.014821666 0.014188797 -0.026578415 0.0042921477 -0.023754675 0.0033956682 -0.051740177
-0.016672263 -0.05694393 -0.023426289 -0.05794697 -0.030383153 -0.06022898 -0.053800028 -0.07266616
-0.06776302 -0.07680805 -0.08263544 -0.08030154 -0.085856475 -0.0770759 -0.09167161 -0.078781195
-0.08836563 -0.070754655 -0.075105645 -0.07209937 -0.093438335 -0.11331263 -0.14260872 -0.16893491
-0.19535527 -0.22660504 -0.22771826 -0.25253224 -0.20703018 -0.21410254 -0.124525554 -0.110396154
0.011996772 0.073443405 0.17728768 0.2083283 0.21622702 0.18270783 0.12597793 0.054109152
-0.029778998 -0.11406025 -0.25174227 -0.18587352
00000000: 948a ca3d 5e41 3c3e 05bb 143e 309d 0e3e
00000010: 9a37 113e a3d2 0a3e 276b 0c3e 0ca9 063e
00000020: 9f58 083e b4e8 033e 778e 033e ba7d fb3d
00000030: 8b2a fa3d 22cc f03d 8130 f23d 6817 e13d
00000040: 9e6b e03d 8a30 ca3d aa2a ce3d 518a b23d
00000050: d4f0 b83d 55cf 9e3d ba8f ae3d d649 8a3d
00000060: deb8 9c3d bb5d 673d 12e3 8a3d 49e9 2f3d
00000070: f2ab 673d 063c 0f3d 9bca 623d 0af9 023d
00000080: db69 573d cf6a ec3c bd86 3c3d 12aa aa3c
00000090: 5ef4 fb3c 1d22 313c 06d3 a03c e8af 363c
000000a0: 77ca a93c 1cdd b03c 31ac e03c 4711 e73c
000000b0: 4510 e53c 90b4 ba3c be5d 753c e5f0 cf3b
000000c0: 6fb1 c73c 93d6 723c 2178 683c faba d9bc
000000d0: 25a5 8c3b 2a99 c2bc dc89 5e3b 82ed 53bd
000000e0: 4594 88bc 0a3e 69bd 7de8 bfbc cd59 6dbd
000000f0: 17e6 f8bc aab2 76bd 6b5d 5cbd ffd1 94bd
00000100: 57c7 8abd 8a4d 9dbd c53c a9bd 2275 a4bd
00000110: 85d5 afbd f8d9 9dbd 53be bbbd 0958 a1bd
00000120: 0af9 b4bd d1e7 90bd fdd0 99bd d6a8 93bd
00000130: 995c bfbd 7410 e8bd 0508 12be 46fd 2cbe
00000140: 360b 48be 270b 68be fa2e 69be e84b 81be
00000150: b8ff 53be b23d 5bbe 4107 ffbd 6117 e2bd
00000160: 1c8e 443c 7f69 963d e78a 353e 0454 553e
00000170: 9e6a 5d3e c317 3b3e 5c00 013e 8fa1 5d3d
00000180: 16f3 f3bc 6c98 e9bd 5de4 80be a155 3ebe

RTD_f.0.bias f4 [100]
-6.738125 -6.4120517 -6.43807 -6.5098624 -6.4329605 -6.5012803 -6.436914 -6.487144
-6.424546 -6.4577646 -6.411133 -6.4464364 -6.4029617 -6.424403 -6.3707733 -6.4197965
-6.366665 -6.4288044 -6.3546634 -6.426456 -6.3464465 -6.4003344 -6.3025813 -6.3770285
-6.276882 -6.343297 -6.2382283 -6.342385 -6.2383347 -6.3083005 -6.1409206 -6.225355
-6.0421286 -6.140661 -5.958151 -6.064217 -5.911822 -5.98829 -5.8314257 -5.8502784
-5.6895056 -5.659915 -5.517871 -5.487962 -5.386733 -5.3711786 -5.3311563 -5.3079314
-5.1575284 -5.1149344 -5.095158 -5.1864843 -5.056002 -5.040422 -4.966934 -5.0454373
-4.9714284 -5.0108447 -4.945827 -5.052202 -4.9226413 -5.020068 -4.92646 -4.9287143
-4.8383584 -4.7752643 -4.7409854 -4.6209483 -4.585306 -4.434692 -4.4393 -4.2848043
-4.276703 -4.1266313 -4.092045 -4.000183 -4.0089855 -4.0052576 -4.041489 -4.0891366
-4.132776 -4.2369833 -4.2085686 -4.3240995 -4.136782 -4.2031846 -3.8225236 -3.8170679
-3.3582718 -3.2827222 -3.0536897 -3.0364075 -3.045808 -3.1625094 -3.3230948 -3.5202608
-3.7520983 -4.0159464 -4.384412 -4.686483
00000000: b89e d7c0 872f cdc0 ab04 cec0 cb50 d0c0
00000010: d0da cdc0 7d0a d0c0 33fb cdc0 af96 cfc0
00000020: e195 cdc0 02a6 cec0 0028 cdc0 3549 cec0
00000030: 10e5 ccc0 b694 cdc0 60dd cbc0 f96e cdc0
00000040: b8bb cbc0 c4b8 cdc0 6759 cbc0 87a5 cdc0
00000050: 1716 cbc0 8acf ccc0 bfae c9c0 9e10 ccc0
00000060: 38dc c8c0 4afc cac0 919f c7c0 d1f4 cac0
00000070: 70a0 c7c0 99dd c9c0 6c82 c4c0 1c36 c7c0
00000080: 1e59 c1c0 4b80 c4c0 2ca9 bec0 110e c2c0
00000090: a52d bdc0 12a0 bfc0 0a9b bac0 7b35 bbc0
000000a0: 6e10 b6c0 061e b5c0 6692 b0c0 629d afc0
000000b0: 1e60 acc0 b2e0 abc0 d598 aac0 93da a9c0
000000c0: 790a a5c0 8bad a3c0 890b a3c0 aef7 a5c0
000000d0: c5ca a1c0 234b a1c0 20f1 9ec0 3974 a1c0
000000e0: f115 9fc0 d758 a0c0 3744 9ec0 a4ab a1c0
000000f0: 4786 9dc0 66a4 a0c0 8fa5 9dc0 07b8 9dc0
00000100: d5d3 9ac0 f7ce 98c0 27b6 97c0 cfde 93c0
00000110: d4ba 92c0 ffe8 8dc0 bf0e 8ec0 1e1d 89c0
00000120: c0da 88c0 5d0d 84c0 08f2 82c0 8001 80c0
00000130: 9c49 80c0 122b 80c0 e153 81c0 35da 82c0
00000140: b33f 84c0 5e95 87c0 98ac 86c0 065f 8ac0
00000150: 8560 84c0 7d80 86c0 3aa4 74c0 d74a 74c0
00000160: eded 56c0 1f18 52c0 a76f 43c0 8054 42c0
00000170: 85ee 42c0 8e66 4ac0 96ad 54c0 f44b 61c0
00000180: 6122 70c0 a282 80c0 1a4d 8cc0 abf7 95c0

RTD_f.1.weight f4 [1, 1, 3]
0.33333334 0.33333334 0.33333334
00000000: abaa aa3e abaa aa3e abaa aa3e
