output/A_C_S10_D15.pth (torch, 7428 bytes, 9 tensors)

rate_f.0.weight f4 [24, 3]
-0.13106751 0.19040906 -0.042739328 0.11232394 0.18256386 -0.102111615 0.12874965 -0.10576192
0.15722993 0.12181054 0.15209375 -0.09229038 0.002609282 -0.010877601 -0.017168472 0.00093127205
-0.020449381 -0.014886103 0.005800643 -0.010418317 -0.014177772 -0.12779965 0.14802726 -0.026007198
0.12976314 -0.005990221 0.085237324 -0.06297991 0.2607003 -0.23336771 0.113939054 0.105306365
-0.06467902 0.14040305 0.076320544 0.0038024795 0.09707699 0.2092378 -0.15564167 0.11840085
-0.0651196 0.10193542 0.10369394 0.10477543 -0.03934983 0.109913 -0.050456837 0.08859451
-2.9301464e-05 -0.0065286392 -0.007858282 -0.12769237 0.15703872 -0.00095308566 0.081626736 0.2215326
-0.17520554 -0.0020583228 -0.003421655 -0.00038373424 0.12175946 -0.15516348 0.17937502 0.12577944
0.14924909 -0.09826368 0.022054873 -0.16307342 0.17574279 -0.1233083 0.03737933 0.09793457
00000000: 9036 06be 98fa 423e 6f0f 2fbd 180a e63d
00000010: 05f2 3a3e e51f d1bd f3d6 033e b599 d8bd
00000020: e200 213e ce77 f93d 77be 1b3e bd02 bdbd
00000030: 7d00 2b3b f737 32bc e5a4 8cbc 9c20 743a
00000040: 7685 a7bc d7e4 73bc 5213 be3b 97b1 2abc
00000050: e349 68bc e9dd 02be 7594 173e 0c0d d5bc
00000060: a1e0 043e 9e49 c4bb e890 ae3d 9cfb 80bd
00000070: 827a 853e f2f7 6ebe e158 e93d ddaa d73d
00000080: 6f76 84bd d1c5 0f3e f24d 9c3d 0533 793b
00000090: 4dd0 c63d 6f42 563e 8860 1fbe 257c f23d
000000a0: 6d5d 85bd 84c3 d03d 7d5d d43d 8094 d63d
000000b0: 4a2d 21bd 111a e13d d4ab 4ebd 0a71 b53d
000000c0: 6acc f5b7 32ee d5bb 06c0 00bc cac1 02be
000000d0: c2ce 203e 7fd8 79ba eb2b a73d 71d9 623e
000000e0: 1569 33be ede4 06bb d83d 60bb f02f c9b9
000000f0: 065d f93d 2de3 1ebe 16ae 373e 53cc 003e
00000100: c1d4 183e 783e c9bd 6cac b43c b8fc 26be
00000110: ebf5 333e 1089 fcbd 111b 193d eb91 c83d

rate_f.0.bias f4 [24]
0.08635328 -0.030593498 0.009333176 -0.042470723 -0.0043057194 -0.0039719976 -0.0041725454 0.09572051
-0.003972028 0.07847226 -0.021292083 -0.01673374 -0.025569059 0.004430283 -0.0222871 -0.011014038
-0.0044557187 0.073568486 -0.033086725 -0.0059694415 0.019424817 -0.02355388 0.036117103 0.0933299
00000000: fdd9 b03d 379f fabc 2dea 183c c8f5 2dbd
00000010: fe16 8dbb 8827 82bb d9b9 88bb 1d09 c43d
00000020: c927 82bb 10b6 a03d bc6c aebc 3215 89bc
00000030: 3476 d1bc e82b 913b 7093 b6bc 3974 34bc
00000040: 4701 92bb 13ab 963d f285 07bd 4e9b c3bb
00000050: cb20 9f3c 11f4 c0bc 87ef 133d bf23 bf3d

rate_f.2.weight f4 [24, 24]
-0.10998445 0.05727256 0.13074672 0.08049216 -0.010691718 -0.0016637888 0.0036191042 -0.110337555
0.10612099 -0.1547913 0.089139394 0.07855755 0.055300754 0.09086582 0.10203338 0.10698166
0.0048519727 -0.08327638 0.033814386 -0.0066298703 0.11198695 0.06848919 0.056864157 -0.05234679
0.019306451 0.1615858 -0.025705678 0.15532811 -0.01343333 -0.023294276 -0.009862662 -0.0048046997
0.05541949 0.18285668 0.13534015 0.10462513 0.18807714 0.00042386737 0.12264571 0.010190868
-0.0006981363 -0.008226742 0.22263516 0.0036253936 -0.07451009 0.15214582 -0.121749744 -0.10061175
-0.04785233 0.12981942 0.05432284 0.10383915 -0.012529462 -0.01144084 -0.007119621 -0.057027023
0.080668025 0.032547314 0.10809327 0.09943341 0.10919933 0.03570612 0.110617936 0.06591069
-0.004101164 -0.05728384 0.13750474 -0.0006471787 0.024888122 0.10558465 -0.060295355 -0.07077119
-0.003500317 0.008332742 0.0003605027 0.0034175606 0.0069214017 0.003133658 -0.00053884316 -0.0027537476
-0.005980518 -0.0010993095 -0.012587844 -0.0048035528 -0.0004895668 0.0074163144 0.0004579402 -0.007033451
0.0015480788 -0.006625707 0.0018473663 0.0064733145 -0.0056171454 -0.011702523 0.00598712 -0.000389512
0.0019073203 -0.007614378 -0.015868632 -0.006312706 -0.0013826468 -0.008706215 -0.0059147547 0.0040632375
-0.007196486 -0.002196716 0.004816135 -0.010552202 -0.0071161645 -0.012969205 0.0042394865 -0.009665623
-0.0015682846 0.0004059645 -0.0064213476 0.0001586287 -0.01101145 -0.0010716604 -0.013659407 -0.00996502
-0.25862038 -0.012477067 0.1457527 0.017081244 0.0017879914 -0.007662202 -0.02044981 -0.21793349
0.091953896 -0.2470803 0.04749186 0.05414128 -0.029522276 0.11200571 0.034498814 0.1164116
-0.011190428 -0.23278162 -0.06398451 -0.0027065056 0.18434145 0.02317509 0.07738017 -0.17229833
0.0015051279 -0.007993371 -0.003256262 0.0094368765 0.0069688093 0.0025385707 0.0015131573 0.0068985126
0.0012439066 0.002602682 0.002507374 -0.0019024533 -0.00013002753 0.0064576804 -0.014132115 0.008745409
-0.012917684 0.0014378808 0.0068962295 -0.0023380269 -0.013286808 0.0065265507 -0.006376572 -0.0050021205
0.1765152 0.098822616 -0.18830165 0.07172126 -0.0055698156 0.006201681 -0.0043449244 0.13729694
-0.117479876 0.22516784 0.052448288 -0.02542146 0.15482299 -0.15673792 0.030170126 -0.13705106
0.006031917 0.13291804 0.17561895 0.006458225 -0.20579487 0.087622926 -0.15491909 0.023355806
0.0050171292 -0.0070610056 0.0031877204 -0.00017747903 0.0059994725 0.0011006434 0.0042630797 -0.0017204836
-0.0019465977 -0.0026574272 0.0038914892 -0.0020754724 -0.0057699643 -0.0062813866 0.0027552834 -0.005478593
-0.0006272702 -0.0034811923 -0.0046018832 -0.0049487837 -0.0061341957 0.0021576262 -0.0019444444 -0.0035073915
0.0013770062 0.0028704924 -0.0016389634 -0.0003653484 -0.00077085564 0.010463568 -0.011798403 0.0010922948
0.0005798729 0.0027987396 -0.0077168588 -0.010876391 -0.0007377184 -0.0012424799 -0.005108588 -0.0023294478
-0.0017862037 -0.00022022564 0.006482832 0.0015497992 0.00025041815 0.001787149 0.0013208911 0.0009443422
0.004738341 -0.00025947645 -0.0022715493 -0.0023770363 -0.003881383 0.006213923 0.00907351 0.008245735
-0.002082465 -0.0029878835 -0.001633457 -0.0016911079 -0.006567437 0.0059832106 -0.0026345777 0.0030844547
00000000: 873f e1bd a296 6a3d 78e2 053e 13d9 a43d
00000010: 512c 2fbc 7d13 daba 7e2e 6d3b a8f8 e1bd
00000020: f655 d93d 9c81 1ebe b78e b63d c8e2 a03d
00000030: 0b83 623d dc17 ba3d e0f6 d03d 3319 db3d
00000040: 4cfd 9e3b cf8c aabd f480 0a3d 623f d9bb
00000050: 6a59 e53d 0f44 8c3d 64ea 683d 9669 56bd
00000060: 9028 9e3c bf76 253e b794 d2bc 550e 1f3e
00000070: 7817 5cbc a3d3 bebc 0197 21bc be70 9dbb
00000080: 8cff 623d c83e 3b3e 9c96 0a3e b345 d63d
00000090: 4b97 403e 843a de39 ad2d fb3d 99f7 263c
000000a0: 2203 37ba 75c9 06bc 79fa 633e 0398 6d3b
000000b0: bf98 98bd 1dcc 1b3e ee57 f9bd 880d cebd
000000c0: ce00 44bd 62ef 043e a081 5e3d 9fa9 d43d
000000d0: 5f48 4dbc 5c72 3bbc b64b e9bb 2b95 69bd
000000e0: 4735 a53d 5550 053d 0160 dd3d bea3 cb3d
000000f0: e6a3 df3d 9540 123d a88b e23d 2ffc 863d
00000100: 0f63 86bb 76a2 6abd 0bce 0c3e 6da7 29ba
00000110: 2de2 cb3c c43c d83d 43f8 76bd 7cf0 90bd
00000120: 9365 65bb 0e86 083c da01 bd39 27f9 5f3b
00000130: edcc e23b 0f5e 4d3b 2741 0dba 3878 34bb
00000140: 39f8 c3bb b516 90ba 3f3d 4ebc 1f67 9dbb
00000150: 4656 00ba 8e04 f33b b117 f039 dd78 e6bb
00000160: e8e8 ca3a 751c d9bb 5423 f23a 191e d43b
00000170: 0810 b8bb f0bb 3fbc 9a2f c43b 6a37 ccb9
00000180: 0dff f93a 0882 f9bb effe 81bc d1da cebb
00000190: ee39 b5ba 83a4 0ebc 8fd0 c1bb e824 853b
000001a0: 80d0 ebbb c7f6 0fbb abd0 9d3b 25e3 2cbc
000001b0: b72e e9bb ca7c 54bc 64eb 8a3b 905c 1ebc
000001c0: e68e cdba a2d7 d439 2b6a d2bb 9155 2639
000001d0: 5e69 34bc f576 8cba b5cb 5fbc 5344 23bc
000001e0: e469 84be 9d6c 4cbc 3240 153e f7ed 8b3c
000001f0: 095b ea3a 3613 fbbb 5c86 a7bc f529 5fbe
00000200: 5352 bc3d 9e02 7dbe d386 423d 3fc3 5d3d
00000210: b3d8 f1bc 4063 e53d a14e 0d3d 3469 ee3d
00000220: 0f58 37bc 4e5e 6ebe 500a 83bd a15f 31bb
00000230: 01c4 3c3e b0d9 bd3c 7f79 9e3d f96e 30be
00000240: b647 c53a a1f6 02bc 0367 55bb 219d 1a3c
00000250: 9c5a e43b 265e 263b 2255 c63a eb0c e23b
00000260: 940a a33a c291 2a3b c152 243b bd5b f9ba
00000270: 0058 08b9 f39a d33b 638a 67bc e748 0f3c
00000280: b2a4 53bc 4677 bc3a c4f9 e13b 9539 19bb
00000290: e9b0 59bc addc d53b 90f2 d0bb d4e8 a3bb
000002a0: 67c0 343e 8363 ca3d 26d2 40be 99e2 923d
000002b0: 0083 b6bb 7937 cb3b de5f 8ebb 9297 0c3e
000002c0: 4a99 f0bd 6692 663e 04d4 563d aa40 d0bc
000002d0: eb89 1e3e e87f 20be 5727 f73c 1d57 0cbe
000002e0: 63a7 c53b ab1b 083e 74d5 333e 859f d33b
000002f0: e4bb 52be a673 b33d 1ca3 1ebe ad54 bf3c
00000300: bb66 a43b 0260 e7bb 13e9 503b aa19 3ab9
00000310: 3997 c43b 7743 903a 4eb1 8b3b da81 e1ba
00000320: fb24 ffba 3b28 2ebb 5b08 7f3b a604 08bb
00000330: f811 bdbb 17d4 cdbb fc91 343b c585 b3bb
00000340: 646f 24ba b724 64bb 65cb 96bb 6829 a2bb
00000350: 5d01 c9bb f666 0d3b badc feba 44dc 65bb
00000360: a97c b43a df1e 3c3b 7cd2 d6ba 3b8c bfb9
00000370: 3f13 4aba 636f 2b3c 174e 41bc 552b 8f3a
00000380: 9d02 183a 0f6b 373b b4dd fcbb e432 32bc
00000390: 7263 41ba b5da a2ba f165 a7bb a6a9 18bb
000003a0: 0d1f eaba 5fec 66b9 f06d d43b a222 cb3a
000003b0: 8e4a 8339 c53e ea3a c021 ad3a bb8d 773a
000003c0: 1644 9b3b 570a 88b9 46de 14bb 0dc8 1bbb
000003d0: cd5e 7ebb 2a9e cb3b 0fa9 143c 1f19 073c
000003e0: f779 08bb 5ed0 43bb b919 d6ba 2aa8 ddba
000003f0: a833 d7bb cf0e c43b e1a8 2cbb 9024 4a3b

rate_f.2.bias f4 [24]
0.013120507 -0.0065971026 -0.004380443 -0.004292933 -0.008021757 -0.009059067 -0.006421341 0.053154748
-0.005554323 -0.0016863082 -0.0052956715 -0.003083782 -0.005539766 0.0026452616 -0.005228385 -0.00637722
-0.005949567 -0.07888558 0.010118521 -0.017055409 0.029094564 0.00069201866 0.0 -0.0052466975
00000000: 65f7 563c 822c d8bb d289 8fbb bbab 8cbb
00000010: b06d 03bc 7b6c 14bc 1d6a d2bb cbb8 593d
00000020: 0a01 b6bb 1d07 ddba 5087 adbb 4719 4abb
00000030: ed86 b5bb 205c 2d3b df52 abbb 00f8 d0bb
00000040: 96f4 c2bb c38e a1bd 27c8 253c c9b7 8bbc
00000050: b957 ee3c 9668 353a 0000 0000 7dec abbb

rate_f.4.weight f4 [3, 24]
-0.08394775 -0.075945966 -0.07354472 0.0018552477 -0.0020631535 -0.12678781 0.002496803 0.11697994
-0.0037472963 -0.00065998634 0.0055212136 0.0019795066 -0.0026221075 -0.06903447 -0.0047453674 -0.0041143415
-0.0012293091 -0.21556653 -0.084197484 -0.094980456 -0.07329716 -0.07648408 -0.0036840758 0.0013298359
0.035125323 -0.060473155 -0.021450408 0.0014078703 -0.016957864 0.12189666 -0.010944606 -0.09418033
0.0042492086 0.0016864573 -0.010429252 -0.0023836151 0.0076176687 -0.0068949633 -0.0008406682 0.0018987075
-0.0007641465 0.016188826 -0.025655719 -0.13646428 0.1705827 -0.036941882 -0.0019015891 -0.0011587121
-0.014541794 0.050570097 0.018260496 0.0062094443 0.019036641 -0.024200503 0.0045173643 0.07712488
-0.0051933266 0.0039714533 -0.0059337537 0.0024040807 0.009467743 0.017716281 0.01222021 -0.0017542834
-0.0030474516 0.0070369276 0.05430077 0.11209098 -0.048751656 0.043836173 0.0034085456 -0.0044281636
00000000: ccec abbd 8f89 9bbd 9d9e 96bd c82b f33a
00000010: f935 07bb aad4 01be 67a1 233b 2e93 ef3d
00000020: 3395 75bb ef02 2dba 4ceb b43b 9cba 013b
00000030: aad7 2bbb f261 8dbd 077f 9bbb 99d1 86bb
00000040: c520 a1ba 79bd 5cbe bb6f acbd 1d85 c2bd
00000050: d21c 96bd afa3 9cbd 8970 71bb e34d ae3a
00000060: 92df 0f3d b3b2 77bd c4b8 afbc 4a88 b83a
00000070: 38eb 8abc f5a4 f93d 0151 33bc 9ee1 c0bd
00000080: f23c 8b3b 1e0c dd3a 74df 2abc 6d36 1cbb
00000090: a39d f93b 25ef e1bb 4a60 5cba 0dde f83a
000000a0: 0151 48ba 6e9e 843c f12b d2bc 4bbd 0bbe
000000b0: 3bad 2e3e 5f50 17bd be3e f9ba eddf 97ba
000000c0: b440 6ebc 9722 4f3d 0997 953c 9878 cb3b
000000d0: bbf2 9b3c 2240 c6bc 6606 943b a6f3 9d3d
000000e0: c82c aabb f722 823b ef6f c2bb c88d 1d3b
000000f0: 981e 1b3c bc21 913c 4737 483c fcef e5ba
00000100: c1b7 47bb 0796 e63b 7c6a 5e3d f58f e53d
00000110: d1af 47bd 8f8d 333d e861 5f3b 211a 91bb

rate_f.4.bias f4 [3]
-0.00034187897 0.016801074 -0.014906902
00000000: 383e b3b9 68a2 893c 143c 74bc

RTD_f.0.weight f4 [100, 1]
0.08407339 0.15330158 0.12807012 0.11796432 0.13008304 0.11528985 0.12930466 0.11119446
0.12613542 0.10824925 0.122596115 0.10766627 0.11773078 0.10598421 0.109321736 0.10152039
0.100790426 0.09859258 0.09336992 0.09258526 0.08143177 0.08372907 0.0715555 0.077989
0.06237639 0.068069816 0.051149078 0.060035177 0.04633214 0.054296266 0.04156508 0.04410637
0.03708455 0.033248074 0.030030046 0.017829396 0.019100724 0.005278224 0.01216832 -0.0029239885
0.0032627038 -0.01147185 -0.0070170714 -0.0151935015 -0.015589622 -0.020724552 -0.019971889 -0.022934899
-0.025579948 -0.020177554 -0.027711827 -0.02005777 -0.03789301 -0.02313732 -0.039564848 -0.028203767
-0.04064986 -0.028852778 -0.036597926 -0.029239846 -0.033429816 -0.03330987 -0.03322278 -0.043788545
-0.036099993 -0.061752643 -0.03830754 -0.076300636 -0.03679118 -0.08609819 -0.04154278 -0.09333784
-0.056182984 -0.10102531 -0.081310354 -0.11569547 -0.11048889 -0.13525236 -0.15014341 -0.17558005
-0.19488896 -0.21436335 -0.21930051 -0.22304268 -0.20096703 -0.16393499 -0.102137774 -0.022590589
0.024973823 0.08604782 0.1070051 0.14723016 0.15142278 0.14925446 0.11454669 0.06288671
-0.000695552 -0.07074371 -0.21460281 -0.14346944
00000000: ab2e ac3d 17fb 1c3e d024 033e 4797 f13d
00000010: 7d34 053e 161d ec3d 7168 043e ecb9 e33d
00000020: a529 013e c8b1 dd3d ac13 fb3d 2280 dc3d
00000030: d61c f13d 400e d93d 13e4 df3d ece9 cf3d
00000040: 366b ce3d e8ea c93d bb38 bf3d 579d bd3d
00000050: b3c5 a63d 267a ab3d b18b 923d b2b8 9f3d
00000060: 637e 7f3d 3068 8b3d b281 513d 72e7 753d
00000070: c5c6 3d3d c365 5e3d 2540 2a3d e2a8 343d
00000080: f8e5 173d 222f 083d 9201 f63c f40e 923c
00000090: 1f79 9c3c f4f4 ac3b a25d 473c 63a0 3fbb
000000a0: 16d3 553b 6df4 3bbc 76ef e5bb 2aee 78bc
000000b0: 9d6b 7fbc 89c6 a9bc 169c a3bc f8e1 bbbc
000000c0: 0a8d d1bc 664b a5bc ea03 e3bc 3150 a4bc
000000d0: b335 1bbd 7a8a bdbc c00e 22bd 960b e7bc
000000e0: 7880 26bd a95c ecbc b5e7 15bd 6788 efbc
000000f0: b4ed 08bd ee6f 08bd 9c14 08bd 9e5b 33bd
00000100: 96dd 13bd 57f0 7cbd 5ee8 1cbd 8243 9cbd
00000110: 59b2 16bd 3f54 b0bd c328 2abd e927 bfbd
00000120: 2120 66bd 5ce6 cebd 0b86 a6bd bff1 ecbd
00000130: 0048 e2bd 987f 0abe 32bf 19be 42cb 33be
00000140: f990 47be 1182 5bbe 5090 60be 4d65 64be
00000150: 4dca 4dbe 93de 27be 9c2d d1bd e60f b9bc
00000160: e795 cc3c d739 b03d 7d25 db3d 81c3 163e
00000170: 930e 1b3e 29d6 183e 7497 ea3d bfca 803d
00000180: b455 36ba 14e2 90bd d7c0 5bbe a7e9 12be

RTD_f.0.bias f4 [100]
-6.77213 -6.4291635 -6.378913 -6.499436 -6.3185735 -6.471811 -6.283009 -6.459449
-6.269992 -6.4330263 -6.2530103 -6.3779726 -6.245077 -6.334254 -6.2683816 -6.310793
-6.284548 -6.264658 -6.2793684 -6.233803 -6.3040185 -6.2218766 -6.3008423 -6.183465
-6.287704 -6.1765513 -6.284535 -6.1566486 -6.227942 -6.1181374 -6.158606 -6.104259
-6.0792713 -6.0746956 -6.0134983 -6.0673513 -5.96523 -6.023484 -5.8849907 -5.949998
-5.8114223 -5.8601937 -5.741686 -5.735252 -5.6593947 -5.6241875 -5.5498385 -5.4968266
-5.4542565 -5.339712 -5.3466344 -5.207944 -5.299258 -5.104575 -5.2147503 -5.0337725
-5.1404443 -4.9807153 -5.0537624 -4.983136 -4.988445 -4.965172 -4.905376 -4.888663
-4.789897 -4.805059 -4.6616592 -4.6889105 -4.511973 -4.55907 -4.3915267 -4.440357
-4.30728 -4.343369 -4.260146 -4.285396 -4.235181 -4.252293 -4.265408 -4.31208
-4.342376 -4.3934317 -4.3750567 -4.3959866 -4.269561 -4.135621 -3.803991 -3.475452
-3.3988426 -3.2334456 -3.1909103 -3.0973487 -3.1433313 -3.2088447 -3.3603354 -3.5521486
-3.7835188 -4.058422 -4.49392 -4.7758417
00000000: 4ab5 d8c0 b5bb cdc0 0e20 ccc0 61fb cfc0
00000010: c131 cac0 1319 cfc0 690e c9c0 ceb3 cec0
00000020: c6a3 c8c0 5adb cdc0 a918 c8c0 5a18 ccc0
00000030: acd7 c7c0 35b2 cac0 9596 c8c0 04f2 c9c0
00000040: 041b c9c0 1478 c8c0 96f0 c8c0 507b c7c0
00000050: 85ba c9c0 9d19 c7c0 80a0 c9c0 f2de c5c0
00000060: df34 c9c0 4fa6 c5c0 e91a c9c0 4403 c5c0
00000070: 4d4b c7c0 c8c7 c3c0 4d13 c5c0 1756 c3c0
00000080: 6489 c2c0 e863 c2c0 946e c0c0 be27 c2c0
00000090: 2ae3 bec0 62c0 c0c0 d851 bcc0 6266 bec0
000000a0: 2cf7 b9c0 b586 bbc0 e4bb b7c0 2f87 b7c0
000000b0: c319 b5c0 58f9 b3c0 4798 b1c0 01e6 afc0
000000c0: 4589 aec0 ecde aac0 a117 abc0 7aa7 a6c0
000000d0: 8693 a9c0 ae58 a3c0 3cdf a6c0 aa14 a1c0
000000e0: 857e a4c0 0562 9fc0 6cb8 a1c0 da75 9fc0
000000f0: 57a1 9fc0 b0e2 9ec0 d7f8 9cc0 ed6f 9cc0
00000100: d646 99c0 0bc3 99c0 502c 95c0 8e0b 96c0
00000110: 1562 90c0 e7e3 91c0 6387 8cc0 6817 8ec0
00000120: 3dd5 89c0 e1fc 8ac0 1e53 88c0 f721 89c0
00000130: 9a86 87c0 c912 88c0 397e 88c0 8ffc 89c0
00000140: bff4 8ac0 fe96 8cc0 7700 8cc0 ecab 8cc0
00000150: 3ea0 88c0 0257 84c0 9774 73c0 ce6d 5ec0
00000160: a386 59c0 c6f0 4ec0 e037 4cc0 f63a 46c0
00000170: 572c 49c0 b65d 4dc0 bc0f 57c0 6756 63c0
00000180: 2c25 72c0 98de 81c0 31ce 8fc0 b2d3 98c0

RTD_f.1.weight f4 [1, 1, 3]
0.33333334 0.33333334 0.33333334
00000000: abaa aa3e abaa aa3e abaa aa3e
