output/A_P2_S20_D20.pth (torch, 7428 bytes, 9 tensors)

rate_f.0.weight f4 [24, 3]
00000000: d5e8 373e af04 42bd 57f9 893d c3e4 113e
00000010: 7334 333e 92b8 42be 09f7 dd3d 31bf 3e3e
00000020: 6ad9 5ebe 7540 133e d0b6 293e 7375 3ebe
00000030: 8bb6 073e 2140 8ebe 1679 ae3e 28fb 0cbe
00000040: b4cc b93e b8ac ccbd e7a9 dd3c 4cae e43d
00000050: 0b11 1abe a615 27bb b222 46bc 9631 cebb
00000060: f866 083e 12ad c23d d5bb 06be b2f1 0b3e
00000070: ff51 533e bf94 67be cbcb 3a3e daa6 8bbd
00000080: 77b0 a13d 7065 293e c9fd 083e 6946 1ebe
00000090: f62a d83d f4b8 4dbd 9d8d 993d a471 1c3e
000000a0: da3d d23d cec8 0ebe 8325 073e 4bc4 513e
000000b0: 91cc 61be 2083 86bb 3a78 35bc 2793 ebbb
000000c0: c8db 463e c5cd d4bd a181 173e 68bf afbb
000000d0: 4142 1ebc baa8 debb d19c ce3d 18c1 b63d
000000e0: c30d 7cbd 1d3d 1e3e d01f 953d 4a46 8dbd
000000f0: 5f6c d7bd 12de 863e 04e4 41bc 80c8 2d3e
00000100: fdda d7bb 97bf 6b3c 0b3b a7bb bcd0 59bc
00000110: fb90 cabb d0e6 44ba b804 8dba 69b4 9eba
0.17959912 -0.047367748 0.06737011 0.14247422 0.17500477 -0.1901572 0.10838134 0.18627621
-0.21762624 0.14380057 0.16573644 -0.18599491 0.13253228 -0.277833 0.34076756 -0.13767684
0.3628899 -0.09993881 0.027058555 0.11166057 -0.15045564 -0.0025495081 -0.012093233 -0.006292532
0.1332053 0.09505667 -0.1315759 0.13666418 0.20636748 -0.22615336 0.18241803 -0.06818934
0.07894986 0.16542602 0.13378061 -0.15456547 0.10555069 -0.050225213 0.07497714 0.15277725
0.102657035 -0.13943788 0.13197903 0.20485036 -0.22050692 -0.004104987 -0.0110760275 -0.007189173
0.19419777 -0.1039081 0.14795543 -0.0053633936 -0.009659351 -0.006795016 0.10088504 0.089235485
-0.06153656 0.15453 0.072814584 -0.06898172 -0.10518717 0.263413 -0.011834148 0.16971016
-0.0065873847 0.01438894 -0.005103474 -0.013294395 -0.006181834 -0.00075112004 -0.0010758853 -0.001210821

rate_f.0.bias f4 [24]
00000000: 73ba 9ebc aeab 45bd e3ea b2bd f487 4bbd
00000010: 3955 3a3d 3084 293e 8054 083d eb53 35bc
00000020: d51f 86bd 6176 9bbd 81a8 1ebd c1af 34bd
00000030: 9371 0ebe 0eb1 76bd e404 5fbd ea1d 0bbc
00000040: dc8e 51bd e179 3cbc 4c8c 14be 0553 4dbd
00000050: 5072 013e 9d90 8bbc de47 12bc 6ce6 3fbb
-0.019376015 -0.04825943 -0.08736207 -0.049690202 0.04549143 0.16554332 0.03328371 -0.011067371
-0.0654904 -0.07590938 -0.038734917 -0.044112924 -0.13910513 -0.060227446 -0.054448023 -0.008491019
-0.051161632 -0.011503668 -0.14506644 -0.050128 0.12641263 -0.01703673 -0.008928267 -0.002928163

rate_f.2.weight f4 [24, 24]
00000000: 41ef 903d da4e 843e 6be3 953e 39d9 6d3e
00000010: 58e6 74be f49e 903d e643 0f3e 347f fb38
00000020: a1d2 513e 8857 8b3e 4d87 833d 43ac 5b3e
00000030: c3ed 943d a1f1 353e a5e5 8a3e 01bc 873a
00000040: 5bb4 bb3c 995b 663b bb8c 473e 307e 1c3e
00000050: 415c 05bb 7f68 e23d 8e5e 76ba 6b12 03ba
00000060: 4287 d6ba 0154 c5ba b697 4a3b f76a 3abb
00000070: d863 a6ba 4da5 113a 3381 24bb e68a e9ba
00000080: d9a9 133b 312b efba 89d2 e5b9 9e81 293b
00000090: 31a5 3aba c4aa 16bb 50cd eeb8 1993 47bb
000000a0: c274 25bb efbf 12bb 817b 973a c091 46bb
000000b0: f900 fcba c9c7 83bb a509 31ba a109 85ba
000000c0: b589 ed3d d3e0 af3c e038 3b3c 6ba4 033d
000000d0: 08b4 4d3e ab92 4abe 5099 23bd 8bbb 203c
000000e0: 6238 673d 46c6 253c c78b 0b3e 9078 533d
000000f0: 1246 1d3e c892 2b3d 6a72 403c d702 803b
00000100: 7be3 023e 504d 6c3c 8eef e23d 8f15 a03d
00000110: 8e10 5cbe 3699 c93d 50b0 c1ba 50dc e33a
00000120: e0bc b63d fdf0 043e 3054 263e 6e0a 0e3e
00000130: 8c23 87bd 9508 a6bd c126 293d 5fb9 7cbb
00000140: 099c 083e 5286 203e d0fe c53d 7ff1 0e3e
00000150: 273f dd3d 9e9b 1b3e eb5a 0b3e 0cfa 15b8
00000160: 966b 9b3d b298 ccba 8632 1f3e 3ce9 f63d
00000170: 5bc7 f0bd dc0c c83d 632a 79ba ec75 173b
00000180: 901d e6bb 6586 76bb 981c 423b 16c4 82ba
00000190: c88d 72bb 8014 d3b9 53c8 813b dd1b 94bb
000001a0: 8f44 beba 9680 8dbb f3e5 c3bb 0b41 54bb
000001b0: 09e2 e63b d5e7 033a b4ba 5dbc 6654 bebb
000001c0: 6035 f9b9 70ab e2bb 1359 66bb a464 fbbb
000001d0: 1089 7d3a c9c5 71ba d676 bfb9 5839 213b
000001e0: 266e 4339 e246 a739 0c33 53bb f696 afbb
000001f0: 85e5 5dbb 93ed d139 59b9 9fbb 0b5e cb3a
00000200: bfa6 a3b9 8ef3 d2b8 f5b6 2abb 0fab 943a
00000210: 70f6 d43a 5466 713a 5128 8c3a 765b 1dba
00000220: 0f30 5aba c896 0bba 630e 46ba 196c 443b
00000230: 6e5b 1bbb 54a7 07ba 31e6 8ab9 e4ab 7bba
00000240: 2f5e 7c3e b338 aebd c844 08be f17d 69bd
00000250: a940 ea3e 4f09 c6be e6cf 5ebe 4681 9a39
00000260: db5b d63c 2487 05be 3dda 963e 7207 853b
00000270: 8f72 b33e 0a60 853c 8c9d eebd 59e4 e8ba
00000280: e6dc a63e 5184 9b37 ae2c 093e 1061 f23d
00000290: 00ca 95be 6e39 5d3e 929a 0fbb c1ad 37bb
000002a0: 6cb5 ff37 bcc1 1ebb f3ec 12b8 dc43 ddba
000002b0: adb7 86bb 4343 9cba a779 6aba 98d3 603a
000002c0: f17a 3fba feda 1f3b c5af 92bb 59bc 543b
000002d0: b006 2eba fe2e 2aba a12a 70ba 8ffc 2fbb
000002e0: 7692 c4bb 3033 653a 642e f5ba 25ae d039
000002f0: 382a 37bb a85a 88bb 84a9 903a b245 a839
00000300: 780b 64bc e73c bbbb 1fc8 0cbc f5d0 2abb
00000310: 171c 08bb 0703 283b a11b 3c3b 681c f23a
00000320: aa89 18bb 729e eebb ebd2 c43a 6983 613b
00000330: e1d0 80ba a252 38bb c03d fbbb 5757 d339
00000340: 09c2 0dbc 1864 d9b8 961a f5bb ecbf edba
00000350: fc95 2abb 8ede 88bb e96d d63a 03d6 11bb
00000360: e2bb 323d 8d1a 6e3e c790 9f3e e035 773e
00000370: 1614 a1be c2de 8d3d 7598 803d c342 05bb
00000380: f0a8 3b3e bd8e 8f3e 482f 363d 863b 453e
00000390: 0a3e 963d 24ff 333e 9877 933e febe 07ba
000003a0: 45a4 b53a 427b 5d3b c634 443e 7122 1b3e
000003b0: ba73 13bd 0985 913d 3a2b c03b 6455 25ba
000003c0: 05b1 2d38 b4a2 15bb 1608 183b 5f6b aeba
000003d0: aed2 b1ba 03b1 e6b9 bb9e 98b9 b3b6 283b
000003e0: 026b 88bb e12e 88bb a778 06bb 3a77 f639
000003f0: 90c4 b83a 2e14 c73a 8eb0 d7b8 95df 243a
0.07076884 0.2584141 0.2927507 0.23227395 -0.23915994 0.07061568 0.13990745 0.00011992306
0.20490505 0.2721522 0.06422291 0.21452431 0.07271912 0.17767955 0.2712833 0.0010355712
0.022913149 0.0035149811 0.19487278 0.15282512 -0.0020349177 0.11055087 -0.0009398245 -0.0004999998
-0.0016367214 -0.0015054942 0.003091318 -0.0028445104 -0.0012694551 0.0005555943 -0.0025101423 -0.0017817884
0.0022531657 -0.0018247125 -0.00043835145 0.0025864611 -0.00071199524 -0.0022989968 -0.00011386967 -0.0030452667
-0.0025246595 -0.0022392233 0.0011557193 -0.0030299276 -0.0019226364 -0.004021619 -0.00067534513 -0.0010149964
0.11598531 0.02146951 0.011427134 0.032139223 0.20088208 -0.19782512 -0.039941132 0.009810339
0.056450255 0.010118073 0.1362754 0.05162865 0.15358761 0.04188803 0.011746028 0.0039065885
0.1278209 0.01442273 0.11080848 0.07816612 -0.2149069 0.09843676 -0.0014777277 0.0017384384
0.08922744 0.12982555 0.16243052 0.13871166 -0.06598577 -0.08107106 0.041296724 -0.0038562638
0.13340773 0.15676239 0.09667742 0.13959311 0.10803061 0.15196082 0.13608901 -3.5757243e-05
0.0758888 -0.0015609472 0.15546617 0.12056205 -0.11756774 0.09768078 -0.00095049123 0.0023111058
-0.007022567 -0.0037616726 0.0029619094 -0.0009976651 -0.0037010778 -0.0004026033 0.003960648 -0.004519923
-0.0014516282 -0.004318307 -0.00597834 -0.0032387401 0.0070459885 0.0005031799 -0.013533283 -0.005808401
-0.00047532748 -0.0069174096 -0.0035148307 -0.0076719094 0.0009671608 -0.00092228927 -0.000365189 0.002460083
0.00018637683 0.00031905534 -0.0032226471 -0.005358572 -0.0033858728 0.00040040593 -0.00487439 0.0015515698
-0.00031214018 -0.00010058946 -0.0026048992 0.0011342483 0.001624776 0.00092086685 0.0010693168 -0.00060027034
-0.00083232013 -0.00053248974 -0.00075552444 0.0029971658 -0.002370562 -0.0005174775 -0.00026492917 -0.0009600504
0.24645303 -0.08506908 -0.13307488 -0.057004873 0.45752457 -0.38678977 -0.21758994 0.00029469485
0.026166847 -0.13039833 0.29463378 0.0040597254 0.3504834 0.016281147 -0.116511434 -0.0017768248
0.32590407 1.8539055e-05 0.1339595 0.118349195 -0.29255676 0.21603939 -0.00219122 -0.002802715
3.048285e-05 -0.0024224361 -3.502979e-05 -0.0016881186 -0.0041112513 -0.0011921901 -0.0008944519 0.0008576452
-0.00073043915 0.0024392004 -0.00447652 0.0032460897 -0.000663857 -0.0006491988 -0.00091616256 -0.0026853418
-0.005998905 0.0008743284 -0.0018705842 0.000398026 -0.0027948748 -0.0041611977 0.0011036848 0.00032095384
-0.01391875 -0.0057140472 -0.008592634 -0.002606449 -0.0020768696 0.002563657 0.0028702992 0.00184716
-0.0023275414 -0.0072820717 0.0015016472 0.0034410602 -0.0009827876 -0.0028125425 -0.0076672733 0.0004031013
-0.008652219 -0.0001036601 -0.007479976 -0.0018138862 -0.002602934 -0.004176921 0.001635966 -0.0022252805
0.04363621 0.23252316 0.31165144 0.24141645 -0.31460637 0.06927253 0.06279079 -0.0020333983
0.18326163 0.28038588 0.044478685 0.19260988 0.07336052 0.17577797 0.2880218 -0.00051783014
0.001385816 0.0033795391 0.19160756 0.15149857 -0.035999037 0.071054526 0.005864528 -0.00063069747
4.1411276e-05 -0.0022832574 0.002319818 -0.0013307146 -0.0013566816 -0.00044000903 -0.00029109963 0.0025743663
-0.004163147 -0.004155979 -0.0020518692 0.00047009607 0.0014096666 0.0015188509 -0.00010284885 0.000628942

rate_f.2.bias f4 [24]
00000000: aea4 e53c be54 2fbb dba4 25bc b370 c83b
00000010: 747f 3cbc 2d58 e1bb 166c c73c 0000 0000
00000020: 9b17 60bc 45da 49bd 0000 0000 afbe b1bd
00000030: 47f8 b1bb ae0a 4fbc 5122 3cbc e590 11bc
00000040: d4dc 43bc f003 3ebc 405a 02bc b53d 38bc
00000050: df14 19bc 4ab0 2bbc 0000 0000 4546 49bb
0.028032627 -0.002675339 -0.010110105 0.0061169504 -0.011504997 -0.0068769665 0.024343532 0.0
-0.013677503 -0.049280424 0.0 -0.08678948 -0.0054312083 -0.012636824 -0.011482791 -0.008884643
-0.011954505 -0.011597618 -0.007956088 -0.011245181 -0.009343355 -0.010479042 0.0 -0.003071205

rate_f.4.weight f4 [3, 24]
00000000: 60a1 aebd 5d9c 48bb 2ec0 d0bd 0351 c0bd
00000010: 65aa 98bb c751 0bbb 8fe7 1bbe 0818 de39
00000020: c409 80bc ca3f fdbd 0d0a c1bb c34f 2cbe
00000030: 26c6 18bb 3cff 4cbc acaf 88b8 d9d5 b3ba
00000040: afc7 34b9 1ef9 d5bb f81f 48bb 68ba 0eba
00000050: 27d1 183b bef2 873b 8346 90ba e71c ed3a
00000060: eb88 cbbd 5be7 fc3a 1c32 173d c426 39bd
00000070: 49eb 083b 8c65 c53b 1ef1 0a3e d0bb e4b9
00000080: 8f6b 0c3c 5a58 8abd 922a 263b 4881 d73d
00000090: 17ad a3ba a8bb 453c e3b6 8c3b 7ec1 34bb
000000a0: c2df 5f3b ff69 943b 2370 b13b ddfd b8ba
000000b0: f648 5d3a 92be 0e3b 5a4f b8ba 320a afba
000000c0: 9ed6 623d 06b3 b6b9 2779 38bc 1e56 963c
000000d0: ef3e 843a 2fa8 8539 5507 84bd 17a1 85ba
000000e0: 43c5 dbba d4bc 9e3d fd6a 44bb 80ec 02bd
000000f0: da2b 9fb9 8039 9d3b 1d17 bb3b 0be6 2cbb
00000100: 9d6f c4ba e06c c3ba 8caa 9b3b 3903 0a3c
00000110: e3b0 8a3b ff8d 673a ccd9 013a 077d 0d3b
-0.085268736 -0.0030610778 -0.10192905 -0.09390452 -0.0046589845 -0.002125846 -0.15225051 0.00042361044
-0.015629657 -0.123656824 -0.0058910907 -0.16827302 -0.0023311465 -0.0125120245 -6.517707e-05 -0.0013720348
-0.00017240526 -0.006529941 -0.0030536633 -0.0005444647 0.0023318024 0.00414881 -0.0011007342 0.0018090279
-0.099382244 0.0019295024 0.036913022 -0.045202985 0.0020892194 0.006024068 0.13568541 -0.0004362748
0.008570566 -0.06755133 0.0025354964 0.10522705 -0.0012487498 0.0120686665 0.0042942627 -0.002758115
0.003416047 0.0045292373 0.005414979 -0.0014113743 0.0008441353 0.002178107 -0.0014061735 -0.0013354479
0.055380456 -0.00034847128 -0.011259354 0.01835161 0.0010089556 0.00025493043 -0.06446711 -0.0010195103
-0.0016767163 0.0775086 -0.0029970997 -0.031963825 -0.00030359515 0.0047981143 0.0057095424 -0.0026382233
-0.0014986877 -0.0014909767 0.0047505554 0.00842362 0.0042325123 0.000883311 0.0004953414 0.0021589415

rate_f.4.bias f4 [3]
00000000: b6b0 513c 35ca 433b d2b3 feba
0.012798479 0.0029875163 -0.0019432253

RTD_f.0.weight f4 [100, 1]
00000000: 8075 d93c a2fa 353d bb3d 263d 6775 193d
00000010: 6a7c 273d 5f52 1e3d a16a 293d 851f 223d
00000020: b45a 2a3d dc47 253d dcb9 2b3d 5745 273d
00000030: 3e59 2a3d 5834 263d f9a0 243d 33c4 213d
00000040: 7f15 1e3d 5b72 1f3d 75d0 1c3d 9a6a 1a3d
00000050: 6550 123d 3390 0d3d 5b21 003d d5d2 e53c
00000060: e9c7 c33c 5db8 a73c 6b7e 743c aa6f 1f3c
00000070: 9492 d63a 4865 35bb eeec 2ebc 7f3d 47bc
00000080: 5d7d c4bc f85e dabc 4587 2ebd 464c 33bd
00000090: 3c9c 6fbd 2038 62bd 26bf 8abd fa9a 8dbd
000000a0: dacf a0bd 26c7 97bd c4e2 97bd e13b acbd
000000b0: e033 abbd 47fb bcbd ae8b 9abd 140e 8bbd
000000c0: 95ec 38bd d3ff 15bd e756 a1bc 4738 82bc
000000d0: 8487 22bb a0f0 203b 61ae b73c 92c3 1a3d
000000e0: 1e70 5e3d 7d79 9c3d f986 b83d 1b19 ec3d
000000f0: e84b 133e 2447 303e 26a7 583e c0cb 663e
00000100: a857 753e c832 803e 60dd 7e3e b6f2 ac3e
00000110: 6331 ab3e c642 f23e 56a2 d53e cb32 193f
00000120: f99c 0c3f b0f3 3c3f 65c5 343f 9c7f 563f
00000130: 316a 4e3f f96b 533f 6734 3d3f 1dc2 263f
00000140: be18 093f 3a3b d63e e5f4 963e 6a6a 323e
00000150: b6d0 763d ed6c 32bd cb8c 0bbe 5532 60be
00000160: a661 96be 3eb3 b9be abc1 dabe e1e0 f9be
00000170: f5a4 0bbf 4991 19bf 5482 26bf b7fe 31bf
00000180: 9443 3bbf 7b40 42bf fe25 72bf 67c6 27bf
0.026545286 0.044428475 0.040586215 0.03746548 0.040890135 0.038652774 0.041361455 0.03958084
0.041590407 0.040351734 0.041925296 0.040837612 0.041589014 0.040577263 0.040192578 0.03949375
0.03859472 0.038927417 0.038284738 0.03769932 0.0357212 0.034561347 0.03128181 0.028054634
0.023899036 0.020473653 0.0149227185 0.009731213 0.0016370588 -0.0027678777 -0.010676606 -0.012160658
-0.02398556 -0.026656613 -0.04260947 -0.043773912 -0.058498606 -0.055229306 -0.0677474 -0.06914325
-0.078521445 -0.074110314 -0.07416299 -0.084098585 -0.08359504 -0.09227615 -0.07546173 -0.067897946
-0.045147497 -0.036620926 -0.019694759 -0.015895976 -0.0024800012 0.0024557486 0.022422018 0.037784167
0.054306142 0.076403596 0.09010119 0.11528226 0.14384425 0.17214638 0.21157512 0.22538662
0.2395922 0.25038743 0.24889135 0.33778924 0.33436117 0.4731657 0.41725415 0.5984313
0.5492702 0.7380934 0.706137 0.83788466 0.80630785 0.8258663 0.73908085 0.65139943
0.5355338 0.4184206 0.29483715 0.17423406 0.060257636 -0.04356091 -0.13627927 -0.218942
-0.29371375 -0.36269563 -0.42725882 -0.4880438 -0.5454858 -0.5998731 -0.65042615 -0.6952929
-0.7314999 -0.7587964 -0.9458922 -0.6553711

RTD_f.0.bias f4 [100]
00000000: 9171 f5c0 6396 f6c0 1659 f3c0 4082 f2c0
00000010: 6b0c f1c0 480a f0c0 94b7 eec0 54a7 edc0
00000020: 5770 ecc0 c256 ebc0 a128 eac0 6a05 e9c0
00000030: 7ef2 e7c0 57d1 e6c0 a3cd e5c0 45aa e4c0
00000040: 2d99 e3c0 202d e2c0 5801 e1c0 76a8 dfc0
00000050: 6f9c dec0 7c5d ddc0 d37a dcc0 be98 dbc0
00000060: 7edf dac0 9522 dac0 0c98 d9c0 df3f d9c0
00000070: 2c18 d9c0 b17e d8c0 8d12 d8c0 22a1 d6c0
00000080: 83c0 d6c0 a33b d5c0 955a d5c0 8f50 d3c0
00000090: c398 d2c0 4e42 d0c0 7e36 cfc0 9960 cdc0
000000a0: 6c70 ccc0 325b cac0 febb c8c0 a9a8 c9c0
000000b0: 4c93 c6c0 5639 c8c0 ab35 c3c0 d7bb c2c0
000000c0: bad8 bcc0 afe0 bac0 7414 b6c0 5e32 b4c0
000000d0: 0003 b0c0 7ccc acc0 a0c4 a7c0 2ca1 a3c0
000000e0: 8b86 9ec0 538c 98c0 5c3a 94c0 b111 8ec0
000000f0: 56c2 86c0 fa43 7fc0 9e76 6fc0 ed9b 68c0
00000100: 920b 60c0 0e94 57c0 8c77 54c0 0f45 2dc0
00000110: d247 29c0 acf8 f6bf 169c 0dc0 fc49 bebf
00000120: 8882 d7bf 9798 85bf fd10 94bf 29cb 41bf
00000130: 59bf 63bf 86d0 55bf b547 8bbf 7ac1 abbf
00000140: 0ae6 d4bf 7453 ffbf d5fb 16c0 4f47 2fc0
00000150: 3b84 47c0 1034 5ec0 c2c5 71c0 e7cc 80c0
00000160: fb02 87c0 90f1 8bc0 19f3 8fc0 2952 93c0
00000170: 095a 96c0 c856 99c0 0075 9cc0 7bd8 9fc0
00000180: 20d7 a3c0 0b81 a9c0 9520 b6c0 acda bcc0
-7.670113 -7.7058578 -7.6046247 -7.5783997 -7.532766 -7.501255 -7.4599094 -7.426676
-7.3887134 -7.3543406 -7.3174596 -7.281911 -7.248351 -7.213054 -7.181352 -7.145785
-7.112448 -7.0680084 -7.031414 -6.989314 -6.956596 -6.9176617 -6.889993 -6.8623953
-6.8397818 -6.8167214 -6.7998104 -6.789047 -6.7842007 -6.7654653 -6.7522645 -6.7071695
-6.711 -6.66353 -6.6673074 -6.603584 -6.5811477 -6.508094 -6.475402 -6.4180417
-6.3887234 -6.3236322 -6.2729483 -6.3018384 -6.2054806 -6.256999 -6.1003013 -6.0854297
-5.901456 -5.839927 -5.6899967 -5.6311483 -5.500366 -5.3999615 -5.242752 -5.1134243
-4.9539237 -4.7671294 -4.632124 -4.4396596 -4.2112226 -3.988524 -3.7416148 -3.634517
-3.5007062 -3.3684115 -3.3197966 -2.70734 -2.6450086 -1.9294639 -2.2126517 -1.4866328
-1.683671 -1.0437192 -1.1567684 -0.7570062 -0.8896385 -0.83521307 -1.0881258 -1.3418419
-1.6632702 -1.9947343 -2.3591206 -2.7387273 -3.1174457 -3.4719276 -3.7776952 -4.0250125
-4.219114 -4.3732376 -4.498425 -4.6037793 -4.6984906 -4.7918434 -4.889282 -4.995176
-5.1200104 -5.2970023 -5.6914773 -5.9016933

RTD_f.1.weight f4 [1, 1, 3]
00000000: abaa aa3e abaa aa3e abaa aa3e
0.33333334 0.33333334 0.33333334
