output/A_P2_S20_D15.pth (torch, 7428 bytes, 9 tensors)

rate_f.0.weight f4 [24, 3]
000000 5b 6a d7 3d 34 5c 07 3e 4e b1 f7 bd 27 4b f0 3d
       0.105183326 0.13218766 -0.12094365 0.11733084
000010 c8 13 ff 3d 04 1a 02 be 0b 88 f6 bd 90 13 40 3e
       0.12454945 -0.12705237 -0.12037667 0.18757463
000020 a3 32 50 bc 27 b6 2c 3e 41 69 d0 bd 22 4f 12 3e
       -0.012707385 0.1686636 -0.101763256 0.14288
000030 7e db 01 3e 6e bb 05 3d 29 6a 38 bd 2b a1 80 b9
       0.12681386 0.03264945 -0.045023117 -0.00024534142
000040 77 60 31 bb c7 70 2c bb 3e e9 02 be 5b f8 69 3e
       -0.0027065554 -0.0026312338 -0.12784287 0.22848646
000050 85 62 7c bd 18 e0 0a 3a 9c 2e 3a 39 70 14 43 bb
       -0.061617393 0.0005297675 0.00017755706 -0.002976682
000060 03 65 0b 3e e9 0b d7 bc 50 49 2e 3d 21 3a f1 3d
       0.13612752 -0.026250796 0.042550385 0.11778665
000070 63 2a 9f bd 22 7f a8 3d fa bd cd 3d 98 55 4f 3e
       -0.077717565 0.08227374 0.10046001 0.20247495
000080 45 00 66 be ce 8a 11 3e bb bf 63 bd 7a ca cc 3d
       -0.2246104 0.14213106 -0.05560277 0.09999557
000090 a6 17 f1 bd 73 2d 6c 3e 93 89 6d bd c1 30 ea 3d
       -0.11772089 0.23064213 -0.05799253 0.1143508
0000a0 ff db 0c 3e be bc 20 be af 1b bd 3c a2 a9 69 3e
       0.13755797 -0.15697 0.02308449 0.22818616
0000b0 c1 21 7f be 62 0f f2 3d b7 58 b8 3d 26 b9 c6 bd
       -0.2491522 0.1181934 0.09001296 -0.09703283
0000c0 9c 71 a3 3d 48 45 81 bd c4 9e 80 3d de 00 f2 3d
       0.07980654 -0.063120425 0.06280282 0.11816572
0000d0 5f 46 ce 3d 24 77 ca bd b3 3b de 3d d0 e8 26 bc
       0.10072016 -0.098860055 0.108512305 -0.010187343
0000e0 a8 eb d4 3c 01 1f 1a 3b c8 bf 9e bb 38 ba f4 bb
       0.025991276 0.0023517015 -0.0048446395 -0.007468488
0000f0 03 0a 2a 3c 53 28 de bc 4e be 8b bc 68 65 00 3e
       0.010378364 -0.027118837 -0.017058518 0.12538683
000100 1b 2a 21 3c b9 85 42 3c 8e ac f7 3d 01 be 91 3d
       0.009836699 0.011872702 0.12093459 0.071163185
000110 e6 64 bb bd a1 33 c8 3d 8d dd 20 3e fa ba 2d be
       -0.09150104 0.097754724 0.15709515 -0.16965857

rate_f.0.bias f4 [24]
000000 a0 df 02 be 38 ae 2d bc 35 2e e6 3d 55 f4 a3 bd
       -0.12780619 -0.010600619 0.11239282 -0.08005587
000010 d7 6e 0a be 7c fb 3d bb 88 06 0b 3e 6c 51 8d bb
       -0.13518845 -0.0028989008 0.1357671 -0.0043126848
000020 2f b4 3b bd d8 09 61 bd a6 eb aa bd 5f c7 f8 bc
       -0.045826133 -0.05494103 -0.083457276 -0.030368505
000030 c6 f4 fe 3d 19 7c 0b bd f3 84 54 3c bc ef b4 bb
       0.124490306 -0.034053896 0.012971151 -0.0055217426
000040 0d 7f 27 bd d9 d7 07 be cf 02 c5 bc 08 de 18 bc
       -0.04089265 -0.13265933 -0.02404919 -0.00933028
000050 27 8a 10 bc a2 ac 9e bc c8 09 c2 bc 36 ed 89 bc
       -0.008822001 -0.019369427 -0.023686305 -0.016836744

rate_f.2.weight f4 [24, 24]
000000 5c 6b 24 bd 30 0e 54 3b 8e 6a 30 be 95 0e 93 3e
       -0.04014145 0.003235709 -0.17228147 0.28722063
000010 08 25 db 3d d9 ce 27 3b a8 c8 57 be bc 0d c0 ba
       0.107004225 0.0025605469 -0.21072638 -0.0014652531
000020 f2 87 02 3e 4b 2f 33 3e 24 a9 e6 bd db b3 0f 3e
       0.12747172 0.1749851 -0.1126273 0.14033453
000030 18 e2 4a be b2 ea f9 3b 76 93 82 be 8f d0 db 3c
       -0.1981281 0.007626855 -0.2550313 0.026832847
000040 43 bd 10 3e 2c 19 d1 3c a7 fe f8 3d 82 2f ca b9
       0.14134698 0.025524698 0.12157946 -0.00038563838
000050 ee 09 7e bc 98 97 c9 3d 6f 8a 1b 3d 00 aa 8b bc
       -0.015505297 0.09843367 0.037973817 -0.017048836
000060 dd 13 41 3a 05 a3 a8 3a 09 7e ca b9 8d 6e 44 3a
       0.00073653256 0.0012865966 -0.00038622346 0.000749328
000070 4e 58 07 bb 1c b9 91 3b 39 a3 d8 ba 81 47 3e b9
       -0.0020652 0.0044471156 -0.0016528136 -0.0001814645
000080 e6 c8 19 bb 81 33 13 ba 8d 78 f2 ba 71 55 ce ba
       -0.0023465692 -0.00056152797 -0.0018499062 -0.0015742016
000090 83 21 eb 3a 1e b5 35 bb 16 83 a6 bb 1e 76 e1 ba
       0.0017939064 -0.0027726362 -0.0050815446 -0.0017201339
0000a0 b5 0d 95 b7 ee 29 c9 3a 1a 24 b9 3b 13 5f 0f 3b
       -1.7768567e-05 0.0015347579 0.0056500556 0.0021876737
0000b0 c4 04 29 b8 37 ee 24 3b 9f 27 33 3b 71 03 93 bb
       -4.029718e-05 0.0025166401 0.0027336848 -0.004486494
0000c0 10 74 91 bd 5b 75 14 3d b3 b1 0e be 44 f5 90 3e
       -0.07102215 0.03624473 -0.13934974 0.28312123
0000d0 ea 4a 87 3d ac 67 76 ba 15 14 2e be 74 00 5d bb
       0.066060856 -0.00093996036 -0.16999848 -0.0033722194
0000e0 52 88 23 3e a5 94 3c 3e 2b c5 05 be 66 fa 34 3e
       0.15969971 0.18416078 -0.13063495 0.17673644
0000f0 55 b4 34 be ec 54 91 ba c2 2b 78 be a5 73 99 3d
       -0.17646916 -0.0011087931 -0.24235442 0.074927606
000100 bb 19 0a 3e 06 53 f0 bb 69 d2 d1 3d 4e e8 7e bb
       0.13486378 -0.007334116 0.10245211 -0.0038895789
000110 e1 b6 56 3b ba 6f db 3d 4b a8 90 3d 3d 59 57 bc
       0.0032762813 0.107146695 0.07063349 -0.013143835
000120 f2 02 c8 bc 57 c7 2b 3d 8c 63 14 be 16 ae 75 3e
       -0.024415467 0.041938152 -0.14491099 0.2399219
000130 d1 32 cb 3d a6 75 4b 3a df bb 42 be 99 52 7a 3b
       0.09921802 0.00077613664 -0.1901698 0.0038196205
000140 a4 a2 07 3e c6 68 15 3e 98 6c 41 bd b4 61 e9 3d
       0.13245636 0.14590749 -0.047222704 0.113955885
000150 63 00 3b be 81 02 30 3d d3 90 43 be 61 9a 82 3d
       -0.18261866 0.042971138 -0.19098215 0.06377102
000160 9a 1f d7 3d a4 e6 a0 3b bc 83 ad 3d c0 a9 0d 3b
       0.105040744 0.004910307 0.08472392 0.0021616071
000170 4b da c6 bc bc 56 c4 3d 54 96 a6 3d ff e7 69 bc
       -0.024274012 0.09586856 0.081341416 -0.014276504
000180 60 7c 8b 3e fc c9 17 3e 84 10 83 bd 28 92 81 bc
       0.27243328 0.14823145 -0.063996345 -0.015816763
000190 95 6a 21 3e 41 de 39 bb 5c 79 ff bc 29 c8 93 3a
       0.15763314 -0.0028361233 -0.031185798 0.0011274862
0001a0 d6 52 71 3d 75 dd 29 3c f1 9e 8b 3e 0b d0 12 3d
       0.05891689 0.010367741 0.272697 0.035842936
0001b0 25 d3 08 bd f7 dc 22 3e ac 55 7f 3e e1 78 0d 3e
       -0.033404488 0.15904604 0.24935025 0.13815643
0001c0 73 d3 38 bb ea fe 58 3e 93 3a 48 3d d7 9e 9f 3b
       -0.0028202205 0.21190992 0.048883986 0.00487123
0001d0 e1 6e 83 bc 2b 52 94 3d 65 76 00 3e cf 82 1f 3e
       -0.016044082 0.07242235 0.12545164 0.15577243
0001e0 5c 17 83 3e 81 67 98 3d b4 55 00 be 67 a3 81 3d
       0.2560376 0.07441617 -0.12532693 0.06329995
0001f0 8f 8b 3c 3e c5 30 c6 ba 9b 17 da bd 1d 42 2e bb
       0.18412612 -0.0015120736 -0.10649034 -0.00265897
000200 74 a0 90 3d e6 d5 38 3d b5 c7 65 3e 28 f6 32 3d
       0.07061854 0.045125864 0.22439463 0.043691784
000210 33 99 a8 bd b3 bf 02 3e 71 df 10 3e 38 45 a4 3d
       -0.082323454 0.1276844 0.14147736 0.08021015
000220 55 27 21 3d 8b 96 59 3e fb 3b a1 3d 4f 80 3d 3b
       0.03934415 0.21248834 0.078727685 0.002891559
000230 fd 53 84 bc ad c8 83 3d f7 03 cd 3d 60 2d 02 3e
       -0.01615333 0.0643476 0.10010522 0.12712622
000240 8b 9d 9a 3e d1 26 25 3e 90 c4 c6 3c 82 88 9b bd
       0.3019832 0.16128089 0.02426365 -0.07594396
000250 74 e8 28 3e f6 ab 21 3b 84 57 8a 3d 6a 3f 7d ba
       0.16494924 0.0024669147 0.067549735 -0.00096606335
000260 f6 aa cd 3c 21 1d 8b bd 30 8a b1 3e 22 5c bd bc
       0.025105935 -0.06792665 0.3467574 -0.023115221
000270 74 87 89 3d 91 99 61 3e ba db af 3e a2 02 21 3e
       0.06715289 0.22031237 0.34347326 0.1572366
000280 0d 30 ae bd 9c 68 81 3e f9 c6 99 3a 92 6e 3d ba
       -0.08505259 0.25275123 0.0011732272 -0.0007226254
000290 d1 6d a4 bc 46 a3 5b 3d 28 f0 19 3e 1b be 6a 3e
       -0.020071896 0.053622507 0.15033019 0.22924082
0002a0 01 1e d1 ba a3 c8 62 3b 03 35 cb 38 8e d2 0e bb
       -0.0015954376 0.0034604452 9.6896685e-05 -0.002179298
0002b0 fe 42 27 3b 53 14 41 bb 29 81 13 3b 3a 0c d8 39
       0.0025522108 -0.0029461577 0.0022507405 0.0004120784
0002c0 6c a5 bf ba 9b 33 06 bb 45 28 33 ba 88 96 e1 bb
       -0.0014621443 -0.0020477537 -0.0006834309 -0.0068844
0002d0 35 5a 54 bb a1 70 1c bb 6c dc d7 3a 41 0c 94 ba
       -0.00324024 -0.0023870843 0.0016468889 -0.0011295156
0002e0 50 d9 01 b9 c2 41 b2 3a 27 00 47 bb f5 3d 62 b8
       -0.00012383354 0.001359992 -0.003036508 -5.39403e-05
0002f0 bd 01 13 bb 4a f4 87 3b dc 15 0f 3b b6 40 fb bb
       -0.0022431456 0.0041489946 0.0021833098 -0.0076676263
000300 67 82 61 3e 13 86 df 3d c6 b1 9e bd c2 10 b1 3c
       0.22022401 0.109142445 -0.07748751 0.021614436
000310 c9 a9 21 3e 65 25 85 3a 10 f0 6b bd 15 75 24 bb
       0.15787424 0.0010158239 -0.05760199 -0.00250942
000320 be a0 39 3d 34 1b 00 3d f8 d7 71 3e d4 73 45 3d
       0.04531931 0.031275943 0.23617542 0.048206165
000330 7d ca 6b bd c3 86 16 3e d0 fd 2c 3e 2f 30 09 3e
       -0.057566155 0.14699845 0.16893697 0.13397287
000340 3a 0b cf 3c a5 3a 45 3e ea 89 78 3d 89 13 48 3b
       0.025273908 0.19260652 0.0606784 0.0030529222
000350 96 e9 d9 bb d9 fd 84 3d a6 c9 f9 3d e5 a0 06 3e
       -0.00665016 0.0649373 0.121966645 0.13147314
000360 ad 87 6f 3b 7c db f9 bb 58 50 e0 3a fb f1 48 bb
       0.0036549375 -0.0076250415 0.0017113788 -0.003066181
000370 3b 89 9b 38 9b cb 76 3b d4 b6 c5 ba 6b f3 10 3b
       7.416537e-05 0.003765798 -0.0015084394 0.0022117745
000380 24 1e 21 3a eb 26 1e bb 07 36 12 3b 6f a3 2b 3a
       0.0006146154 -0.0024132084 0.0022310035 0.0006547486
000390 e4 5f 42 bb d8 39 29 bb 33 fe f4 ba 0e 2f 40 bb
       -0.0029659206 -0.002582183 -0.001869148 -0.0029324922
0003a0 43 6a 0c bb 25 9d 5d 3b 69 9e ae b9 cf 37 3c ba
       -0.0021425642 0.003381559 -0.0003330589 -0.0007179947
0003b0 17 7b b2 38 b6 66 95 ba 31 6d b2 ba e4 5d 9f 39
       8.510629e-05 -0.0011398408 -0.0013612864 0.00030396797
0003c0 36 f3 24 bb b2 35 19 bb 2c 1c ab 3a 9c d5 dd 3a
       -0.002516938 -0.0023377952 0.001305466 0.0016924622
0003d0 fe 97 aa bb 40 32 a2 3b 59 84 43 ba 53 63 b1 ba
       -0.005206107 0.004949838 -0.0007458381 -0.0013533629
0003e0 3f 3c c1 3a aa 40 79 bb b0 44 03 ba 98 01 33 bb
       0.0014742686 -0.0038032928 -0.00050074887 -0.0027314182
0003f0 59 40 da ba d2 05 46 3b b6 3f fa 3a 14 54 ff b9
       -0.0016651257 0.0030215872 0.0019092474 -0.00048700033

rate_f.2.bias f4 [24]
000000 8d 02 13 bd 6c 21 92 bb f0 9c d0 3c d0 94 36 bd
       -0.035891104 -0.0044595506 0.025465459 -0.044575512
000010 91 09 3f 3b ed bd 90 bd d4 6b 5a 3c eb f6 27 bc
       0.002914999 -0.070674755 0.013331372 -0.010251741
000020 2e 75 0c 3c 49 14 2f bc 00 00 00 00 10 37 2a bc
       0.00857286 -0.010685989 0.0 -0.0103891045
000030 6b e5 2f 3c 5f 8a 07 bc e1 3c 44 bc cf 8b 26 bc
       0.01073585 -0.008272736 -0.011977405 -0.010165169
000040 44 19 b0 ba 59 3d 21 bd 1c a1 d9 bb d0 cf 12 bc
       -0.0013435264 -0.039365146 -0.00664152 -0.008960679
000050 a8 51 39 bc b1 ae 3c bc 67 63 ca 3b cc 99 64 bc
       -0.011310972 -0.011516259 0.0061764005 -0.013952684

rate_f.4.weight f4 [3, 24]
000000 59 2f db bd 42 86 c8 3a 2b aa 84 bd e7 7d fb bd
       -0.1070239 0.0015298801 -0.064777695 -0.12279873
000010 36 12 b3 bd 0c 70 db bd a3 61 b2 bd c0 ed 0a bc
       -0.08743708 -0.107147306 -0.08710029 -0.008479536
000020 a3 eb b6 bd 51 4f 14 3b be 09 de 3a 28 46 0c bc
       -0.08931663 0.0022630284 0.0016940159 -0.008561648
000030 ac 00 4e bd 7a 70 04 ba 1c 19 5d bb 0d 1b 19 bc
       -0.05029361 -0.00050521607 -0.003373689 -0.009344828
000040 98 6c 03 bb bb 93 38 be 88 17 9e bd 14 cf 04 bc
       -0.002005374 -0.18025105 -0.07719332 -0.008106012
000050 22 f5 c3 3a 44 80 77 bb dd 8b b5 bd aa d0 e8 bd
       0.0014950375 -0.0037765661 -0.088645674 -0.113679245
000060 f0 35 85 3d 6d aa e7 ba c6 6c c0 3d 89 4f 80 3d
       0.065044284 -0.0017674692 0.09395747 0.0626517
000070 2f bb 8a bd eb 33 cb bc 28 4e 7e bd 36 cc 03 3c
       -0.06773984 -0.02480503 -0.062086254 0.008044293
000080 65 9d 7e bd 40 be 95 b9 e4 a5 00 3b e3 06 2f 3b
       -0.062161822 -0.00028561242 0.0019630129 0.0026706986
000090 69 78 3d 3d 6f 05 56 bb 30 30 1d bb 97 6b 1d 3b
       0.04625741 -0.0032657047 -0.002398502 0.0024020427
0000a0 c0 7a 84 b9 9c f8 0a 3e c5 55 84 bd 53 13 ca 3b
       -0.00025268458 0.135714 -0.06461672 0.0061668544
0000b0 d8 fd 04 ba a1 fc eb 3b e6 93 84 bd 6e 07 db 3d
       -0.0005073226 0.0072017466 -0.06473522 0.106947765
0000c0 56 08 2c bd 17 cb 27 ba de e1 69 bd a9 3f bf bc
       -0.042000137 -0.0006400807 -0.05710017 -0.023345785
0000d0 bc b8 2c 3d 82 01 b7 3c e2 06 58 3d e0 d6 ac 3b
       0.042168364 0.022339586 0.05274094 0.0052746385
0000e0 e1 de f9 3c 48 5f 86 bb 7a f5 7f 3a b7 0f 8c 3b
       0.030501785 -0.004100714 0.0009764057 0.0042743343
0000f0 41 fd 2c bd 0f f7 7e b9 0c d7 a1 bb 9d 60 2e bb
       -0.04223371 -0.00024315364 -0.0049389657 -0.002660788
000100 bc 55 39 bb bd 23 64 bc 16 4d 02 3d 96 f4 a0 3b
       -0.0028279861 -0.013924536 0.031811796 0.0049119694
000110 63 45 41 3c ea 60 81 3b 86 88 82 3d 11 7e 30 bd
       0.011796328 0.0039483206 0.06373696 -0.043088976

rate_f.4.bias f4 [3]
000000 10 57 45 3c 15 58 65 3c ef c5 2f bc
       0.012044683 0.013998051 -0.010728343

RTD_f.0.weight f4 [100, 1]
000000 cd 71 cc 3c 91 ba 38 3d fa be 17 3d 33 2e 18 3d
       0.024956608 0.0450998 0.037047364 0.037153434
000010 9a ac 1b 3d 7b c7 1e 3d fe b9 1f 3d dd 3b 25 3d
       0.038006403 0.03876446 0.038995735 0.040340293
000020 59 bd 23 3d 94 a2 2a 3d db 2f 26 3d 49 5e 2e 3d
       0.039975498 0.041658953 0.040572982 0.042570386
000030 28 e1 26 3d 02 15 2e 3d bc 18 23 3d 01 eb 27 3d
       0.04074207 0.042500503 0.03981851 0.0409956
000040 bf 29 1d 3d 58 d3 20 3d 4a bc 12 3d 03 58 0e 3d
       0.03836989 0.039264053 0.035824098 0.034751903
000050 78 8b f4 3c 5c de db 3c 7e 90 aa 3c da dc 85 3c
       0.02985166 0.026839428 0.020820852 0.016340662
000060 70 4b 20 3c 42 76 85 3b f9 61 46 bb 47 22 1a bc
       0.009783611 0.0040729353 -0.0030270799 -0.009407586
000070 6d 57 89 bc c0 3e cd bc b4 34 04 bd 0e 12 2c bd
       -0.01676532 -0.025054336 -0.032276824 -0.042009406
000080 b0 ae 49 bd 63 3d 7a bd c9 cf 8a bd 90 ef a0 bd
       -0.04923886 -0.0610937 -0.06777913 -0.07858193
000090 46 c2 ae bd ce a2 c4 bd ca c5 d8 bd 82 eb e1 bd
       -0.085331485 -0.09601365 -0.105846 -0.11031248
0000a0 d1 1a f9 bd 84 86 e9 bd a7 3b 02 be e0 f3 dd bd
       -0.12163318 -0.1140261 -0.12718068 -0.10837531
0000b0 98 dc f5 bd 5f 9d cf bd 78 e4 e5 bd 67 20 bb bd
       -0.120049655 -0.10137438 -0.112252176 -0.0913704
0000c0 47 f3 bb bd 16 1c 8a bd f0 c1 71 bd 4f d8 1a bd
       -0.09177261 -0.06743638 -0.059022844 -0.037803944
0000d0 0b aa ce bc 72 ff d0 bb 4f 3b 44 3c e6 a5 06 3d
       -0.025227567 -0.0063781077 0.011977031 0.032873057
0000e0 58 3a 6f 3d 76 de b0 3d a5 66 ee 3d 4a 66 0a 3e
       0.05840525 0.08636181 0.11640672 0.13515583
0000f0 43 1d 30 3e 49 1f 40 3e c6 60 71 3e c4 b8 6b 3e
       0.17198662 0.18761934 0.23572072 0.23019701
000100 d1 c0 92 3e b1 41 85 3e 0e 6a ba 3e 51 b4 af 3e
       0.28662732 0.2602668 0.36409038 0.34317258
000110 26 b0 f2 3e db 50 fb 3e 17 dc 23 3f 23 b1 2e 3f
       0.47400016 0.49085125 0.64007705 0.6823904
000120 a5 ee 3e 3f da 2e 42 3f ab 40 46 3f a4 34 4b 3f
       0.7458289 0.7585274 0.77442425 0.793772
000130 7b 45 48 3f fb 5d 43 3f ba 8a 35 3f 72 94 21 3f
       0.7823102 0.7631528 0.70914805 0.63117135
000140 69 56 06 3f e5 7f cd 3e 83 ea 8f 3e c6 c8 2a 3e
       0.524756 0.40136638 0.28108606 0.16678151
000150 e7 e1 81 3d ca d9 f8 bc a4 71 eb bd b6 97 43 be
       0.063419156 -0.030377287 -0.114962846 -0.19100842
000160 7c 8a 85 be 93 8e a6 be 2a ea c4 be 26 32 e1 be
       -0.26082218 -0.3253065 -0.38459903 -0.43983573
000170 3d 62 fc be 75 96 0b bf 45 43 19 bf ba d3 27 bf
       -0.492937 -0.54526454 -0.5986827 -0.65557444
000180 13 f8 36 bf 64 48 45 bf 89 ec 79 bf f6 e0 34 bf
       -0.7147228 -0.77063584 -0.9762655 -0.70655763

RTD_f.0.bias f4 [100]
000000 e4 43 f5 c0 ca 20 f5 c0 50 2c f3 c0 9f 81 f1 c0
       -7.6645374 -7.6602526 -7.5991592 -7.547073
000010 8c 8d f0 c0 b9 da ee c0 63 02 ee c0 36 40 ec c0
       -7.5172787 -7.4641995 -7.4377913 -7.3828382
000020 8c 78 eb c0 73 b2 e9 c0 cc 0e e9 c0 2c 57 e7 c0
       -7.358465 -7.3030334 -7.2830563 -7.229391
000030 9d ca e6 c0 5b 2d e5 c0 92 be e4 c0 8c 45 e3 c0
       -7.212233 -7.1617866 -7.148263 -7.1022396
000040 6e b7 e2 c0 82 32 e1 c0 5d 96 e0 c0 07 6b df c0
       -7.0848913 -7.0374155 -7.018355 -6.981815
000050 dd 12 df c0 d4 5b de c0 f2 4c de c0 06 eb dd c0
       -6.9710526 -6.9487095 -6.9468927 -6.9349394
000060 c9 04 de c0 3c bd dd c0 fa df dd c0 4a 8d dd c0
       -6.938084 -6.92935 -6.933591 -6.923497
000070 dc c3 dd c0 83 6c dd c0 6b 94 dd c0 f2 0e dd c0
       -6.9301586 -6.919496 -6.9243674 -6.9080744
000080 94 09 dd c0 90 4e dc c0 bb df db c0 d5 a0 da c0
       -6.907419 -6.88459 -6.871061 -6.832133
000090 87 e3 d9 c0 5f 51 d8 c0 ff 90 d7 c0 9e 2b d5 c0
       -6.8090243 -6.759933 -6.7364497 -6.6615744
0000a0 db be d4 c0 44 c6 d0 c0 91 1b d1 c0 5c ad cb c0
       -6.648298 -6.5242023 -6.534615 -6.364912
0000b0 c6 75 cc c0 6e 39 c7 c0 49 87 c7 c0 32 62 c2 c0
       -6.3893766 -6.2257605 -6.2352643 -6.0744867
0000c0 90 0a c1 c0 3e 30 bc c0 0b b9 b9 c0 35 a6 b5 c0
       -6.0325394 -5.880889 -5.8038383 -5.676539
0000d0 fd 0e b2 c0 bf a1 ad c0 5e 51 a8 c0 5a 3f a3 c0
       -5.5643296 -5.4259944 -5.2599325 -5.1014833
0000e0 07 55 9d c0 44 73 97 c0 ff 16 91 c0 99 91 8c c0
       -4.9166293 -4.7328205 -4.534057 -4.392773
0000f0 2d 9b 85 c0 e7 99 81 c0 38 98 72 c0 63 d9 70 c0
       -4.1751924 -4.050037 -3.7905407 -3.7632682
000100 48 c7 5f c0 b4 13 62 c0 5e f0 46 c0 58 6f 45 c0
       -3.4965382 -3.5324526 -3.1084208 -3.084921
000110 d4 16 29 c0 54 72 1b c0 a0 ea fb bf 0c 74 dc bf
       -2.6420183 -2.428853 -1.9680977 -1.7222915
000120 8e 56 c8 bf 49 5e be bf 6e 3b b8 bf 04 4b a9 bf
       -1.5651414 -1.4872524 -1.4393137 -1.3226018
000130 b6 ea a6 bf 14 2b 9d bf 5c 25 a8 bf 92 a1 b9 bf
       -1.3040378 -1.2278771 -1.3136401 -1.4502432
000140 2d 57 dd bf 04 d9 06 c0 41 61 20 c0 df 62 39 c0
       -1.7292229 -2.1069956 -2.505936 -2.8966596
000150 19 90 4f c0 00 bc 62 c0 25 84 72 c0 3f 09 7f c0
       -3.24317 -3.5427246 -3.7893155 -3.9849393
000160 be 66 84 c0 46 2d 88 c0 76 03 8b c0 00 49 8d c0
       -4.137542 -4.2555265 -4.3441725 -4.415161
000170 19 70 8f c0 09 cd 91 c0 95 bf 94 c0 c7 bb 98 c0
       -4.482434 -4.5562787 -4.6483865 -4.772922
000180 05 0a 9e c0 00 0a a5 c0 3d d6 b0 c0 2f 18 b9 c0
       -4.938723 -5.1574707 -5.526152 -5.784202

RTD_f.1.weight f4 [1, 1, 3]
000000 ab aa aa 3e ab aa aa 3e ab aa aa 3e
       0.33333334 0.33333334 0.33333334
