output/A_P2_S5_D15.pth (torch, 7428 bytes, 9 tensors)

rate_f.0.weight f4 [24, 3]
0	0x3e0d49b3	0.13797645
1	0x3ccc2e24	0.024924345
2	0xbcae790b	-0.021297952
3	0x3da81260	0.0820663
4	0x3e2b60ce	0.16736147
5	0xbe2b2f5e	-0.16717288
6	0x3dc3d08f	0.09561264
7	0x3e6f4b31	0.23368527
8	0xbe686792	-0.22695759
9	0x3e0184ff	0.1264839
10	0x3db73917	0.08946436
11	0xbdf01378	-0.11722463
12	0xbd9b4ef1	-0.07583416
13	0x3e8336d1	0.2562776
14	0xbe01b109	-0.1266519
15	0x3dbe2ec2	0.09286262
16	0x3d8b158b	0.06791218
17	0xbe0fc928	-0.14041579
18	0x3dd01ee8	0.10162145
19	0x3e31c196	0.17359003
20	0xbe5facd4	-0.21843272
21	0xb9b34889	-0.00034195583
22	0xba9f0988	-0.0012133578
23	0xba00b696	-0.000491002
24	0x3ddce9d0	0.10786784
25	0xbd787c63	-0.0606655
26	0x3e0ef7e1	0.13961746
27	0xbd5483ac	-0.051883385
28	0x3e85bd6c	0.2612108
29	0xbe0ff85d	-0.14059587
30	0x3bf73d6d	0.0075451643
31	0xbcb2aa70	-0.021809787
32	0xbc6039c3	-0.0136856465
33	0x3c0f05c4	0.008729402
34	0xbd2538f1	-0.040337507
35	0xbd06e06f	-0.03292888
36	0xbd76da33	-0.060266685
37	0x3e8920e1	0.26782897
38	0xbdfe5ac3	-0.12419655
39	0xbb6bb141	-0.0035963806
40	0xbc041bb0	-0.008063242
41	0xbc1199fa	-0.0088868085
42	0xbdfd8cf3	-0.123803996
43	0x3dc1359c	0.09434053
44	0xbcbffdd7	-0.02343647
45	0x377ce7a3	1.5074303e-05
46	0xbb223a9b	-0.002475417
47	0xbb3795dd	-0.002801291
48	0x3de37bad	0.11107574
49	0xbe045998	-0.12924802
50	0x3e58e60f	0.2118151
51	0x3d99ac02	0.07503511
52	0x3d56cc57	0.052440967
53	0xbd960e04	-0.07326892
54	0x3df30f3e	0.118681416
55	0x3e15a8b8	0.14615142
56	0xbe38a2a8	-0.18030798
57	0x3dcf3e5c	0.10119316
58	0x3e1cc789	0.15310492
59	0xbe0a8ce0	-0.13530302
60	0x3dff5afd	0.124685265
61	0x3d5972d3	0.05308802
62	0xbda47140	-0.08029413
63	0x3dfab8cd	0.12242279
64	0x3d543691	0.05180985
65	0xbdb2dc72	-0.08733453
66	0xb92cf9c2	-0.0001649624
67	0xbb2b3524	-0.0026124204
68	0xbb21fbb1	-0.002471667
69	0x3db1ddd8	0.086848915
70	0xbdcfb844	-0.10142568
71	0x3e3c8514	0.1841014

rate_f.0.bias f4 [24]
0	0x3c42ec84	0.01189721
1	0xbdb6a8ca	-0.08918913
2	0xbde16707	-0.11005979
3	0x3c15b17e	0.009136556
4	0x3dc0c4bb	0.09412523
5	0xbbcda8bb	-0.0062762178
6	0xbd699d27	-0.057034638
7	0xbb071ee5	-0.002061778
8	0x3a9ae368	0.001181704
9	0x3dcd333c	0.10019538
10	0xbcaf235f	-0.021379171
11	0xbc9c23c0	-0.019060016
12	0x3da74382	0.08167173
13	0xbbf867f5	-0.007580752
14	0x3dc0f5b7	0.094218664
15	0xbb5a25e3	-0.0033286742
16	0x3b3b61a1	0.0028592127
17	0xbca77278	-0.020440325
18	0xbbd86fc5	-0.006605121
19	0xbe05d966	-0.13071212
20	0x3c586e01	0.013209821
21	0x3c2c1e09	0.010505208
22	0xbb460336	-0.0030214316
23	0xbc65975a	-0.014013136

rate_f.2.weight f4 [24, 24]
0	0x3db641d3	0.08899274
1	0x3e479126	0.19488963
2	0x3ea006f7	0.31255314
3	0x3e0ed49d	0.13948293
4	0x3c55528b	0.013020168
5	0x3e014431	0.12623669
6	0x3e67cb19	0.2263607
7	0x3ad29a25	0.0016067667
8	0x3cb781d6	0.022400778
9	0x3d2ff04b	0.04295377
10	0xbc011e9b	-0.007880832
11	0xbc52e040	-0.012870848
12	0x3d05fff9	0.032714818
13	0x3b33051e	0.0027316283
14	0xbd2daa4b	-0.042398732
15	0xbb656719	-0.0035004078
16	0xbd54c2c0	-0.05194354
17	0x3e074492	0.13209751
18	0x3e2e3607	0.17012797
19	0x3e6e29a6	0.23258075
20	0x3e05cd19	0.1306652
21	0x3dece643	0.115673564
22	0x3aeca451	0.0018054341
23	0xbd35a695	-0.044348318
24	0xbcbef276	-0.023308974
25	0x3e0c254e	0.13686106
26	0x3e51cc4e	0.20488092
27	0x3c980728	0.0185581
28	0x3e84fbb0	0.25973272
29	0x3d6dc9ff	0.058053967
30	0x3e130eb7	0.14361082
31	0x3a2cd2fb	0.0006592718
32	0xbe136187	-0.14392672
33	0x3e9b4e46	0.30333155
34	0xba20a77d	-0.00061284733
35	0xba795ebe	-0.0009512714
36	0x3e8f5aa0	0.2799883
37	0x39a160a9	0.0003078033
38	0x3dc516cd	0.096234895
39	0xbb1a0b89	-0.002350541
40	0xbe793443	-0.24336343
41	0x3cb921ba	0.02259909
42	0x3dbaa1c3	0.09112885
43	0x3dc2bfb7	0.09509223
44	0x3c11fc6f	0.0089102825
45	0x3b98af93	0.004659602
46	0xb9985480	-0.00029054657
47	0xbe86c241	-0.2632008
48	0x3af9023d	0.001899786
49	0x3a925412	0.0011163971
50	0xbbcaa84c	-0.0061846133
51	0x3a269b7a	0.0006355565
52	0xbb0d5b10	-0.002156917
53	0x3b77adce	0.0037792805
54	0xbac5a3e7	-0.0015078754
55	0x3b2d305d	0.0026426532
56	0x3b77662a	0.0037750104
57	0xbb1330e5	-0.0022459563
58	0x3baa0761	0.005188868
59	0x3abac859	0.0014250382
60	0xb767a405	-1.3806862e-05
61	0x3b4e57cd	0.0031485439
62	0xbb9500f7	-0.004547234
63	0xbb45c0a6	-0.0030174642
64	0xba273c8c	-0.00063795666
65	0xbad982ed	-0.0016594805
66	0xbbba4f99	-0.0056857583
67	0xbba8939f	-0.005144551
68	0x3bbe2c7d	0.0058036433
69	0xbbc5eb71	-0.0060400297
70	0xba93ee31	-0.0011286197
71	0x3b549dde	0.003244273
72	0x3b39969e	0.0028318535
73	0xbb8e9acb	-0.004351949
74	0xba2107f3	-0.0006142847
75	0x3aab9f03	0.0013093654
76	0xbace6b40	-0.0015748516
77	0x39a0d049	0.00030672763
78	0xbbb6dee0	-0.005580768
79	0xbaa2846a	-0.0012399082
80	0xbb10b914	-0.0022082971
81	0x39b3df4a	0.00034307904
82	0xbacec4a6	-0.0015775159
83	0xba166fc5	-0.0005738701
84	0xbaeb0feb	-0.0017933821
85	0xbb0967b0	-0.0020966344
86	0x3aa0b5c0	0.0012261197
87	0x39154a3c	0.00014237402
88	0xb9f090d8	-0.00045884284
89	0xba9c6b63	-0.0011933859
90	0xbb85793b	-0.0040732897
91	0xbb08bda5	-0.002086499
92	0xba90cd6d	-0.001104755
93	0xba7a47d7	-0.0009547448
94	0x3af224f5	0.0018474149
95	0x3ab8f818	0.0014112024
96	0xbae65253	-0.0017572142
97	0xbadb370b	-0.0016724778
98	0xbb6717bc	-0.003526195
99	0xbacbf3e5	-0.0015560357
100	0xbaa0b0c0	-0.0012259707
101	0xbb3453ef	-0.0027515849
102	0x3a6faceb	0.0009142893
103	0xbb591f7f	-0.0033130345
104	0x3a5d31db	0.000843791
105	0xbb66c0e3	-0.0035210184
106	0xbaca7e56	-0.0015449028
107	0x3a6c451c	0.00090129836
108	0xb95a0d26	-0.00020794998
109	0xbb808353	-0.003921905
110	0xba9de3e0	-0.0012046061
111	0x39f547c6	0.00046783517
112	0xb951691f	-0.00019970954
113	0x3a971f2d	0.0011529677
114	0xbb41ce81	-0.0029572549
115	0xbbbc6ecf	-0.005750514
116	0xba848194	-0.0010109418
117	0xbae8abb7	-0.001775137
118	0x3b4d2d82	0.0031307642
119	0x3b5b6de6	0.0033482253
120	0x3dbac133	0.09118881
121	0x3e2c4162	0.16821817
122	0x3e70358b	0.23457925
123	0x3e00fc70	0.12596297
124	0x3c1d3f95	0.009597679
125	0x3e0f47ca	0.13992229
126	0x3e371759	0.1788
127	0xbaa2d194	-0.0012422078
128	0x3d5eb814	0.05437477
129	0xbc82880b	-0.015934011
130	0xbbd6253e	-0.0065352013
131	0xbc286f53	-0.010280448
132	0xbbb81656	-0.005617897
133	0x3b4fe933	0.003172469
134	0xbd84758a	-0.06467731
135	0x3acd727a	0.0015674375
136	0xbc968170	-0.018372267
137	0x3dd0fc26	0.102043435
138	0x3df79bf9	0.12090296
139	0x3e403d2c	0.18773335
140	0x3dc648ce	0.09681855
141	0x3ddabd78	0.106806695
142	0x3affcfe1	0.0019516909
143	0x3c1c2c77	0.009532086
144	0x38b0bf4b	8.427965e-05
145	0xb7713c0a	-1.4378698e-05
146	0xb995bf4e	-0.00028562028
147	0x3ab67a6c	0.0013921983
148	0xbba2b35f	-0.0049652304
149	0xbb75fb4c	-0.0037533818
150	0x3b32f711	0.0027307908
151	0xbb3a8128	-0.002845833
152	0x3bdb0745	0.006684216
153	0xbbaa38d3	-0.0051947623
154	0xba92ea10	-0.0011208672
155	0xbb81e2f3	-0.003963822
156	0xb988f12a	-0.00026119623
157	0x3afb62bc	0.0019179205
158	0x3a0b108f	0.00053048966
159	0xbb375b8a	-0.0027978146
160	0xbb5d829e	-0.0033799778
161	0xb94abaca	-0.00019333806
162	0xbba78154	-0.0051118527
163	0xb9c93fbe	-0.000383852
164	0xbb4fb9fa	-0.0031696544
165	0xbb3a9e2e	-0.002847563
166	0xbb9076db	-0.0044087
167	0x3a1b49b5	0.0005923764
168	0x3de03cdb	0.10949107
169	0x3e07ee49	0.13274492
170	0x3e24ac31	0.16081311
171	0x3df74e7e	0.12075518
172	0xbd67aabe	-0.056559317
173	0x3e02241f	0.12709092
174	0x3e10a10c	0.14123935
175	0xb89774d5	-7.222003e-05
176	0x3d88fd5a	0.06688948
177	0xbd33814a	-0.04382447
178	0xbc0aa065	-0.008461093
179	0xbcca1ca7	-0.024671866
180	0xbd9824f4	-0.07428923
181	0xbaa429af	-0.001252463
182	0xbd861c10	-0.06548321
183	0x3b232254	0.0024892287
184	0x3d833d90	0.064082265
185	0x3db584e2	0.08863236
186	0x3e03ccba	0.12871066
187	0x3e169456	0.14705023
188	0x3de85c52	0.11345734
189	0x3dfdad01	0.123865135
190	0x3b4276f0	0.0029672943
191	0x3d305dfd	0.043058384
192	0x3da0d65b	0.07853385
193	0x3e45c6f7	0.1931418
194	0x3e9100fc	0.28321064
195	0x3e0c4617	0.13698612
196	0x3dcd6b9e	0.10030292
197	0x3dfe6726	0.12422018
198	0x3e45fd35	0.19334872
199	0xba8aa7a5	-0.0010578526
200	0x3c888556	0.016665142
201	0x3df98d8d	0.12185202
202	0xbc7ecb56	-0.015551409
203	0xbc056d82	-0.0081437845
204	0x3dd4ffa1	0.1040032
205	0x3be66d85	0.0070320987
206	0x3d0e38f7	0.034722295
207	0x3b80d953	0.003932157
208	0xbd97adfc	-0.07406232
209	0x3dbe23b9	0.09284157
210	0x3e272f65	0.16326673
211	0x3e807686	0.25090426
212	0x3de67458	0.112526596
213	0x3df4a4e9	0.119455166
214	0x3b884ea5	0.004159766
215	0xbd928da8	-0.07155925
216	0xbc07450e	-0.00825621
217	0x3a7370ea	0.000928654
218	0x3a468c10	0.00075739715
219	0xbbd47e12	-0.0064847553
220	0xbaf2d0d9	-0.0018525376
221	0x39a70995	0.0003185986
222	0xbb9d7a27	-0.0048058215
223	0x3b09dd5f	0.0021036488
224	0xbb53eb77	-0.0032336393
225	0x39fd453e	0.0004830751
226	0x3b79ed71	0.003813591
227	0x3a8f23d4	0.0010920712
228	0xba9c8f26	-0.0011944517
229	0xba213275	-0.0006149181
230	0xba8ae9ce	-0.0010598244
231	0xb9dcb822	-0.0004209886
232	0x3b366fb4	0.0027837576
233	0x3af688f3	0.0018809125
234	0xbbeaae54	-0.007161895
235	0xba035378	-0.0005009691
236	0xbb7064ad	-0.0036681101
237	0x3b3285f9	0.0027240498
238	0x39969d75	0.00028727544
239	0xbb4cb189	-0.003123375
240	0xbc477e83	-0.012176159
241	0x3cb9d891	0.022686275
242	0x3d4663cd	0.04843502
243	0x3b9df288	0.0048201717
244	0x3e612af3	0.2198904
245	0x3caf0ddb	0.021368911
246	0x3d41609f	0.047211286
247	0x3a46364f	0.0007561193
248	0xbda64d86	-0.08120255
249	0x3e65ec6a	0.22453466
250	0x3af3ae41	0.001859136
251	0x3c8276a2	0.01592571
252	0x3e634e17	0.22197758
253	0x36073cc2	2.0151933e-06
254	0x3e28fa58	0.16501749
255	0x3ab87ae7	0.0014074714

rate_f.2.bias f4 [24]
0	0xbcf7e4b3	-0.03026042
1	0x3d6764fa	0.056492783
2	0xbc29ca98	-0.0103632435
3	0x00000000	0.0
4	0xbc3eff8b	-0.011657606
5	0xbce97ba1	-0.028501334
6	0xb9d55efc	-0.00040697295
7	0x3d1778d9	0.036980484
8	0x3d098996	0.033578478
9	0xbc423e93	-0.011855739
10	0x3e019fad	0.12658568
11	0xbc3358f9	-0.010946506
12	0x3d171529	0.036885414
13	0xbcd916dc	-0.026500158
14	0x3cee4f26	0.029090475
15	0xbc196751	-0.009363011
16	0x3cd844e0	0.02640003
17	0xbc4a2bd3	-0.01233955
18	0xba99ea51	-0.0011742805
19	0x00000000	0.0
20	0x00000000	0.0
21	0xbc3f6a34	-0.011683036
22	0x3d1c0852	0.038093872
23	0xbd2924e5	-0.04129495

rate_f.4.weight f4 [3, 24]
0	0xbdc5405a	-0.09631415
1	0x3e1b2670	0.15151381
2	0xbc1f4424	-0.009720836
3	0x3ab96273	0.001414372
4	0xbb88ff7d	-0.004180847
5	0xbdc92a62	-0.09822537
6	0xbb1c2e73	-0.0023831397
7	0xbddc0125	-0.10742406
8	0xbe0ee98e	-0.13956282
9	0x39a593bb	0.0003158132
10	0x3e102fb9	0.14080705
11	0xbb63c6c9	-0.0034755936
12	0xbdc34bf7	-0.095359735
13	0xbdb3cc4f	-0.08779203
14	0xbdc4849e	-0.09595607
15	0xbbd418d7	-0.0064726877
16	0xbdc488d4	-0.095964104
17	0xbb781445	-0.0037853878
18	0xbace7b1b	-0.0015753241
19	0xbb03809a	-0.0020065666
20	0x3a2a3cb7	0.00064940326
21	0xbdbdc52e	-0.09266125
22	0xbd76ec91	-0.0602842
23	0xbdbde3fa	-0.09271999
24	0xbd2c87fa	-0.042121865
25	0xbde005a9	-0.109385796
26	0x3c25d86c	0.0101224
27	0x3b59cd9d	0.0033234127
28	0x3badf470	0.0053086802
29	0xbd004cf4	-0.03132339
30	0x3b9185c9	0.0044409973
31	0xbbcd79b6	-0.0062706126
32	0xbd692597	-0.056920614
33	0x39b0d846	0.00033730472
34	0xbd16a87d	-0.036781777
35	0x3bcc3035	0.0062313327
36	0x3d1c15d0	0.03810674
37	0x3c085511	0.008321063
38	0x3b88c0c9	0.0041733724
39	0xba90988f	-0.0011031794
40	0xbc021b9f	-0.007941156
41	0xbbbe349d	-0.005804612
42	0x3af06633	0.0018341005
43	0xba09d3b8	-0.0005257684
44	0xb93d75ac	-0.00018068281
45	0xbc171e7c	-0.009223577
46	0x3e17dff1	0.1483152
47	0x3d22dc0e	0.03976064
48	0x3ca6433c	0.020295732
49	0x3d92f4c4	0.071755916
50	0xb9613d27	-0.00021480453
51	0x3ad86bf5	0.0016511666
52	0x3b5ba765	0.0033516523
53	0x3c5e35b9	0.013562613
54	0x39014a33	0.0001233004
55	0x3cfb7a04	0.03069783
56	0x3d49e718	0.049292654
57	0x3b5fcbac	0.0034148498
58	0x3d88be4e	0.06676923
59	0xbbabacf0	-0.0052391216
60	0x3bb170fe	0.005415081
61	0x3b60181f	0.0034194065
62	0x3c321360	0.010868877
63	0x3bee2814	0.0072679613
64	0x3c7af438	0.015317015
65	0x3b3a9e32	0.002847564
66	0x3af95fed	0.001902578
67	0x3b951abb	0.0045503057
68	0xba07380b	-0.00051581924
69	0x3c2ddddb	0.0106119765
70	0xbd2a139e	-0.041522615
71	0xbc5db9aa	-0.013533035

rate_f.4.bias f4 [3]
0	0xbbbb5212	-0.0057165707
1	0x3caa0810	0.020755798
2	0xbcda42b0	-0.026643127

RTD_f.0.weight f4 [100, 1]
0	0x3cacb948	0.021084443
1	0x3d17a0cb	0.03701858
2	0x3cfc6b0d	0.030812765
3	0x3cf3677f	0.029712437
4	0x3cff2451	0.031145247
5	0x3cfc4758	0.030795738
6	0x3d011856	0.03151735
7	0x3d04a6eb	0.032385748
8	0x3d038b9f	0.032115575
9	0x3d0b0a0a	0.03394512
10	0x3d056b63	0.032573115
11	0x3d12fd61	0.035886172
12	0x3d0ac9c8	0.03388384
13	0x3d1b1b14	0.03786762
14	0x3d103959	0.03521094
15	0x3d1f4fb6	0.038894378
16	0x3d121b06	0.035670303
17	0x3d1eda1e	0.03878223
18	0x3d123670	0.035696447
19	0x3d1b8b2b	0.037974518
20	0x3d0ffcd6	0.035153233
21	0x3d14e733	0.0363533
22	0x3d07ec03	0.033184063
23	0x3d0a0d4a	0.03370408
24	0x3cf75458	0.030191585
25	0x3cf5f712	0.030025039
26	0x3cd34184	0.025788076
27	0x3ccf5f9e	0.025314149
28	0x3ca2af80	0.019859076
29	0x3c9c6524	0.019091196
30	0x3c57a161	0.013161034
31	0x3c3f3c76	0.01167213
32	0x3bbb06b5	0.0057075866
33	0x3b72df48	0.0037059356
34	0xbaf38ccc	-0.001858139
35	0xbbab0b6a	-0.0052198665
36	0xbc326021	-0.010887177
37	0xbc65d141	-0.014026941
38	0xbca29237	-0.019845111
39	0xbcb9fa14	-0.022702254
40	0xbcef2a83	-0.029195076
41	0xbcfa38f1	-0.03054473
42	0xbd1a874e	-0.037726693
43	0xbd1a3c1f	-0.037654992
44	0xbd3b8894	-0.045784548
45	0xbd354c98	-0.0442625
46	0xbd5586fb	-0.05213068
47	0xbd498df4	-0.049207643
48	0xbd66ec59	-0.056377742
49	0xbd56b34d	-0.05241709
50	0xbd6dc8e7	-0.058052924
51	0xbd54f298	-0.051989168
52	0xbd63da53	-0.055628132
53	0xbd471f99	-0.04861412
54	0xbd4658e3	-0.048424613
55	0xbd2773be	-0.040881865
56	0xbd0d4afd	-0.034495343
57	0xbce22133	-0.027603721
58	0xbc57b40a	-0.013165483
59	0xbbc8bc01	-0.0061259274
60	0x3c82fa54	0.015988506
61	0x3cdf17a9	0.027232962
62	0x3d64127e	0.055681698
63	0x3d9e635e	0.077337965
64	0x3de35830	0.11100805
65	0x3e1aae21	0.15105487
66	0x3e4583b8	0.19288528
67	0x3e84f3fb	0.25967392
68	0x3ea4018e	0.32032436
69	0x3edb6722	0.42852122
70	0x3f0c46b8	0.5479541
71	0x3f3ec4aa	0.74518836
72	0x3f7c708f	0.9860925
73	0x3fa4991b	1.2859224
74	0x3fc9dc28	1.5770311
75	0x3fdddb57	1.7332562
76	0x3fd2223c	1.6416698
77	0x3fa4ef1f	1.2885474
78	0x3f5e20b1	0.86768633
79	0x3f0b234a	0.5435072
80	0x3ea2b70a	0.31780273
81	0x3e0f79d3	0.14011316
82	0x3c3d45d4	0.011552293
83	0xbdda9976	-0.106738016
84	0xbe44bafc	-0.19211954
85	0xbe8f5e79	-0.28001764
86	0xbeb487d8	-0.3525989
87	0xbed87532	-0.42276913
88	0xbefbbb38	-0.49166274
89	0xbf0ca204	-0.54934716
90	0xbf1c2d0c	-0.61006236
91	0xbf2a98fb	-0.6663968
92	0xbf373277	-0.7156138
93	0xbf44c3f6	-0.7686151
94	0xbf4edc64	-0.8080504
95	0xbf59da7b	-0.85099
96	0xbf5f8866	-0.873175
97	0xbf625a6f	-0.8841924
98	0xbf843d95	-1.0331293
99	0xbf38d9dc	-0.7220743

RTD_f.0.bias f4 [100]
0	0xc0f5cc44	-7.681185
1	0xc0f551e6	-7.6662474
2	0xc0f36a61	-7.6067357
3	0xc0f217e9	-7.5654187
4	0xc0f0d958	-7.526531
5	0xc0ef58ea	-7.479604
6	0xc0ee32f8	-7.443722
7	0xc0ec64e2	-7.387315
8	0xc0eb7aca	-7.358739
9	0xc0e9771b	-7.2957892
10	0xc0e8c814	-7.2744236
11	0xc0e67b8c	-7.2025814
12	0xc0e5e79b	-7.184522
13	0xc0e37762	-7.108323
14	0xc0e30a08	-7.0949745
15	0xc0e0b784	-7.022402
16	0xc0e062b7	-7.01205
17	0xc0de45bb	-6.946012
18	0xc0ddd42b	-6.9321494
19	0xc0dbf8ce	-6.8741217
20	0xc0db6943	-6.8565993
21	0xc0d9dbfc	-6.8081036
22	0xc0d936dd	-6.787947
23	0xc0d7df35	-6.745997
24	0xc0d73337	-6.725002
25	0xc0d5fd2c	-6.687155
26	0xc0d561a9	-6.6681714
27	0xc0d43bc2	-6.6322947
28	0xc0d3bfd2	-6.6171656
29	0xc0d2997a	-6.581235
30	0xc0d22fb0	-6.568321
31	0xc0d10d28	-6.532856
32	0xc0d0a6a6	-6.520343
33	0xc0cf7d69	-6.484059
34	0xc0cf1186	-6.470889
35	0xc0cdffea	-6.4374895
36	0xc0cd935e	-6.424239
37	0xc0cc6c38	-6.3882103
38	0xc0cc00f5	-6.375117
39	0xc0cac2b4	-6.3362675
40	0xc0ca59de	-6.32347
41	0xc0c8e8e1	-6.2784276
42	0xc0c87e3c	-6.2654095
43	0xc0c6f406	-6.217288
44	0xc0c67c7f	-6.2026973
45	0xc0c4de42	-6.152131
46	0xc0c43aa2	-6.1321573
47	0xc0c28f5a	-6.079999
48	0xc0c1b7e1	-6.053696
49	0xc0bffb7e	-5.9994497
50	0xc0bee04a	-5.964879
51	0xc0bd006d	-5.906302
52	0xc0bb9e14	-5.8630466
53	0xc0b99fa6	-5.8007383
54	0xc0b7dbd4	-5.7455845
55	0xc0b5bc0c	-5.679205
56	0xc0b37274	-5.6077213
57	0xc0b12c44	-5.5366535
58	0xc0ae3545	-5.4440026
59	0xc0ab9ab3	-5.362634
60	0xc0a7e03a	-5.2461214
61	0xc0a48594	-5.141306
62	0xc09fec9a	-4.997632
63	0xc09b113c	-4.845854
64	0xc0955271	-4.6663136
65	0xc08dcf41	-4.4315495
66	0xc0861b75	-4.1908517
67	0xc075b3a2	-3.839089
68	0xc05f559c	-3.4896002
69	0xc03f3951	-2.9878733
70	0xc01babb2	-2.4323545
71	0xbfda28fb	-1.7043756
72	0xbf739c01	-0.9515992
73	0xbdf874e8	-0.12131673
74	0x3f243f79	0.6415935
75	0x3fa0a199	1.2549316
76	0x3fb1eed7	1.3901013
77	0x3ef84576	0.48490494
78	0xbf8c7187	-1.0972146
79	0xc0095f89	-2.146456
80	0xc03b464e	-2.926166
81	0xc0636798	-3.5531979
82	0xc080496a	-4.0089617
83	0xc08da877	-4.4268146
84	0xc0954d61	-4.6656957
85	0xc09cb2c7	-4.8968234
86	0xc0a0a621	-5.0202794
87	0xc0a42096	-5.128978
88	0xc0a6743c	-5.201689
89	0xc0a7f5f1	-5.248772
90	0xc0a95da1	-5.2926793
91	0xc0aa2fbd	-5.3183274
92	0xc0ab1d31	-5.3473134
93	0xc0abf4b2	-5.37362
94	0xc0acf738	-5.405178
95	0xc0ae7137	-5.45132
96	0xc0b0739f	-5.514114
97	0xc0b3c34b	-5.6175895
98	0xc0bb42b2	-5.8518915
99	0xc0c0ace7	-6.0211062

RTD_f.1.weight f4 [1, 1, 3]
0	0x3eaaaaab	0.33333334
1	0x3eaaaaab	0.33333334
2	0x3eaaaaab	0.33333334
