output/A_P2_S10_D10.pth (torch, 7428 bytes, 9 tensors)

rate_f.0.weight f4 [24, 3]
00000000: 1c3c a13d 2691 bb3c ee09 87bc 99bd b93d
00000010: 2716 9c3d abba b6bd 4f24 1d3e 0329 343c
00000020: ec56 72bb 8885 e93d 0474 b13d ce07 efbd
00000030: 6b42 06ba e201 e1ba 3033 d2ba 297a 393d
00000040: 4421 403e 1c71 66be 139c e43d 062c bd3d
00000050: c9db f8bd eb8a c6ba 01e3 d9ba a15a ffbb
00000060: 1aae f03d d330 323d 8cac 8dbd 184a 0dbe
00000070: 1cc0 143e 0545 09bd e028 0b3e 9097 0fbd
00000080: 1564 c83d b79a 0a3e 4c3e bf3d 7f23 e6bd
00000090: 1102 c13a 5b78 9cbc f1e8 ddbc 34ea eebd
000000a0: d841 8c3e 8b4f 2ebe d319 b23d 5047 293e
000000b0: 6b43 45be f044 f73d 2163 913d 726b bfbd
000000c0: 6f19 08be 3d98 9e3e b92f 3ebe 2d5f e83d
000000d0: 5ac0 463d b4bd 57bc d366 ff3d 16e1 903d
000000e0: d0de d3bd d1d6 2c3e 95a4 ecbc abc7 be3d
000000f0: 67fd c73d 12e7 e63d 6584 17be feb3 e73d
00000100: e8ac 4f3d 3c2e 87bd 7880 f139 df3b 9bbb
00000110: 4ad8 95ba 1834 6a3a d234 96bb d78a f9ba
0.07872793 0.02289636 -0.016484227 0.09069366 0.07621413 -0.08922323 0.15345882 0.010996106
-0.003697808 0.11402422 0.08664706 -0.116714105 -0.00051215914 -0.0017166699 -0.0016036984 0.045282517
0.1876269 -0.22504085 0.11162581 0.092369124 -0.12151296 -0.0015147602 -0.0016623439 -0.007792786
0.11751957 0.043503594 -0.06917676 -0.13797796 0.14526409 -0.033513088 0.13589811 -0.03505665
0.09784714 0.13535582 0.09338054 -0.11237239 0.0014725347 -0.019100359 -0.027088614 -0.116657645
0.27393985 -0.1702253 0.08696332 0.1653111 -0.19263999 0.12073696 0.070989855 -0.093466654
-0.13290952 0.30975524 -0.18572892 0.11346278 0.048523284 -0.013167787 0.12470784 0.07074182
-0.103452325 0.16878821 -0.028887073 0.093154274 0.097651295 0.11274542 -0.14796598 0.11313628
0.050702006 -0.066006154 0.0004606282 -0.004737362 -0.0011432257 0.0008934154 -0.0045839334 -0.001903857

rate_f.0.bias f4 [24]
00000000: 5dec 54bd 6048 abbd 0cc6 44bd 3b36 b7bd
00000010: 410c 9cbb 9dbb 3c3c cad7 b3bd 436c 3ebc
00000020: 46ca cbbd 9b6d fe3d 767a 41bd 2e6e 00be
00000030: 14e0 0abc 1e6f 1d3e 298d 6bbd 3399 d8bd
00000040: d544 3c3e 5537 ce3c 54aa 24bd 7dfc 98bd
00000050: af20 69bc 8805 94bd d679 a3bb fe58 cdbb
-0.051983226 -0.08363414 -0.048040435 -0.089458905 -0.004762203 0.01151934 -0.08781393 -0.011622491
-0.0995069 0.12423249 -0.04723593 -0.1254203 -0.008476276 0.15374419 -0.057507668 -0.105760954
0.18385632 0.025172869 -0.0402015 -0.07470033 -0.014228984 -0.072276175 -0.004988889 -0.006266712

rate_f.2.weight f4 [24, 24]
00000000: 7723 983d 0d60 f23d d2f4 993d 4ff4 df3d
00000010: 3fc6 54ba 35ff 153e 9e1b ed3d 71eb 813c
00000020: 7839 083e 9b62 3bbd b8f8 8b3d c43c 243e
00000030: 06e9 a0bc 2ca8 01bd 3bbe 073e ae93 fe3d
00000040: 890f 64bc 6557 d63d f4c2 d73d 33a1 cc3d
00000050: b679 ed3d 8db5 bc3d 44a8 c4ba ed93 94ba
00000060: c9a2 2ebb 2459 12bb 755d 9dbb a3bb 933a
00000070: 91a1 5e3a 9347 dd3a 78cb a2ba aeed ceb9
00000080: 5fe9 0d3b c189 293b 6f58 e339 b75b 69ba
00000090: 1499 2b3b 61f9 0fbb 9a3b d1ba ad16 c3b9
000000a0: 4e14 62ba 8441 14bb 083d a9ba abce fa3a
000000b0: d247 84bb 1f61 033a 059f 3abb d02f 63ba
000000c0: 1570 863d 219a ff3d 7443 d03d a8f6 f93d
000000d0: 7152 373b 9e5b 283e ccae fe3d 51dc 4f3b
000000e0: f451 073e 6944 84bd 476b 883d ceb3 3e3e
000000f0: f707 36bc bf5a ef3a 5971 1b3e 4392 023e
00000100: 4bec b0bc 7e9a ae3d bd31 c63d f27e a03d
00000110: 87a6 0b3e 7304 d63d 9101 b9ba a805 b33b
00000120: cb78 ac3d 8ec1 e03c bbba f53d 35e1 973d
00000130: d288 ffba f4ba 9dbc 7c2a a03d 5d9c ac3a
00000140: 9827 d63d 67e9 0ebe 46d0 063e 27aa c93d
00000150: d639 69bc 839e 80be aef5 b33c ae13 873d
00000160: 64ee 8fbe 25f3 ba3d 688b 873d 3be5 293e
00000170: 2a92 903d 06d1 ba3d 79fb deba 8294 ce3a
00000180: ef91 723d 75fe 2a3e 8a65 5b3d ea5d 223e
00000190: 6df1 223b 1038 893e 9e2e 2d3e 67c0 323c
000001a0: 6a12 0b3e 085b 033c a830 05bd 95cd 663e
000001b0: 6461 03bd 670e 383e b68f 6b3e af47 233e
000001c0: c2d7 653e 3a83 1b3d 184c f33d 38aa c0ba
000001d0: 5f9d 2c3e a651 033e 6ed9 e8ba 421b 8c3b
000001e0: 7152 1fbb e07c f9ba 7091 243b 4a2a a0bb
000001f0: 00ad 643b 81fd 623b f8a0 21bc 01c2 a8bb
00000200: 50ff 83bb bb2a 66bb 59e9 80ba 2fed 5f3b
00000210: 13ba 18bb e64c db3a b639 17bc 42fc ff39
00000220: 91c7 f33a 0a2a 1f3b f9f7 25bc bf83 bfbb
00000230: 8512 b2bb fd5d 32bb 9db9 0bb9 3073 a13a
00000240: 5539 2c3d 5a98 39bd 41a4 c53d 35f0 8d3c
00000250: 61ef 8d3b a33a 14be 4ed5 9d3c f0eb 14ba
00000260: 87cc 743d 7ced 20be fe2b 463e 36e6 e2bc
00000270: b3ad acbb 6e67 aabe f5b1 a3bd 4de1 b4bb
00000280: a774 b9be c8a1 b33d 5ba8 1d3d b42c 453e
00000290: 405b 483c 6d34 9e3d a89e 86ba 8a81 c7ba
000002a0: 83f4 ac38 aea1 fcba 8f5b 77ba 2094 11bb
000002b0: 0479 c1b8 2f14 da3b fd05 8bba f7e6 053a
000002c0: 0f1a 3cbb fb3b c1ba b4e0 c73a c9e7 e1ba
000002d0: a660 8eb9 11eb 52bb 9760 1abb c5df 86bb
000002e0: 82a9 513b 07c6 28bb 2a0b 5eba 81d4 2b3b
000002f0: c712 a7b9 ea17 0e3a 64ad 3d3b 6d9d 173b
00000300: 0c46 773a 2bc7 9e3a 2763 00bb e4c1 59bb
00000310: e8c8 09ba 4b51 173b 97b3 51bc 1c1a 543a
00000320: e8dd 8cbb 0cfc 06bb 0d10 bb3a d56a d3bb
00000330: acc1 5c3a cc3d dd3a ff1c debb 701b 94bb
00000340: 1661 03bb d780 d0ba 9195 b3ba efa5 8cbb
00000350: 7ebb 6ebb de65 8abb 662f d0ba 1fd4 64bb
00000360: 6bd0 113b dc01 10bb 909f d4ba c2dd e8bb
00000370: 3455 8b3a 1627 38b9 d589 bbbb 3c6c bebb
00000380: 5274 8ebb a107 a539 5afd 28bb 5175 a5bb
00000390: 809e d23a e3e7 96ba 56fb 16bb 8c68 a0bb
000003a0: 7d54 d83a a4a8 363b b83d 643a ec0f 93ba
000003b0: ae53 b9bb 8200 39bb 1956 80ba 5bb3 90ba
000003c0: 78ec f3ba b602 2e39 d8ac 29bb acff cc3a
000003d0: a5ec caba 0547 a4ba ad02 a1bb ef37 3639
000003e0: 70bf 8abb 0e46 1abb f903 43ba 8f37 883b
000003f0: 9fb1 6c3a e82b 3cbb 9037 fabb 6dc4 eebb
0.074286394 0.118347265 0.07517399 0.1093527 -0.0008116699 0.14648135 0.11577533 0.015859338
0.13303173 -0.045748334 0.06834549 0.16038805 -0.019642364 -0.03165452 0.13256161 0.124305114
-0.0139197195 0.10465888 0.10535231 0.09991684 0.1159548 0.092143156 -0.001500376 -0.0011335589
-0.002664732 -0.0022330964 -0.0048024007 0.001127113 0.0008492703 0.0016882293 -0.0012420258 -0.00039468467
0.0021653993 0.0025869461 0.00043362702 -0.0008901911 0.002618377 -0.002196871 -0.0015963197 -0.00037210193
-0.00086242415 -0.0022622058 -0.0012911865 0.0019135078 -0.004036882 0.00050117256 -0.002847613 -0.00086664874
0.06564347 0.1248057 0.10169116 0.12205249 0.0027972723 0.16441199 0.124356836 0.0031717012
0.13214856 -0.06458361 0.066610865 0.18623278 -0.011110297 0.0018261297 0.15179957 0.12751107
-0.021597048 0.08525561 0.096774556 0.07836713 0.13637744 0.10450067 -0.0014114847 0.0054633208
0.08421477 0.027436044 0.11998507 0.07416002 -0.0019495732 -0.019254185 0.07820603 0.0013169158
0.10456771 -0.13956223 0.13165388 0.09846907 -0.014234981 -0.25120935 0.021967735 0.065955505
-0.28111565 0.091284074 0.066183865 0.1659135 0.070591286 0.09121899 -0.00170122 0.0015760812
0.059221204 0.1669863 0.053563632 0.15856138 0.002486314 0.26800585 0.16912314 0.01091013
0.13581243 0.008017309 -0.032517105 0.22539361 -0.0320753 0.17974244 0.2300404 0.15945314
0.22445586 0.037966944 0.11879748 -0.0014699167 0.16856907 0.12824115 -0.0017764994 0.0042757103
-0.0024310614 -0.0019034408 0.0025111102 -0.0048878537 0.0034893155 0.0034635963 -0.009865038 -0.00515008
-0.0040282384 -0.0035120684 -0.0009835168 0.0034168472 -0.0023304268 0.0016731292 -0.009230068 0.00048825337
0.0018598904 0.0024286532 -0.010129922 -0.005844563 -0.0054343366 -0.0027216666 -0.0001332522 0.0012317654
0.042046864 -0.04531131 0.096504696 0.017326454 0.0043315147 -0.14475493 0.01926675 -0.00056809094
0.059765365 -0.15715593 0.19352719 -0.027697664 -0.00526973 -0.33282036 -0.07992927 -0.005520022
-0.3622181 0.08771092 0.038490634 0.19255334 0.012228787 0.07724843 -0.0010270672 -0.0015221101
8.247143e-05 -0.0019274259 -0.00094359455 -0.0022213534 -9.225498e-05 0.006655238 -0.0010606643 0.0005107964
-0.0028702056 -0.0014742607 0.0015249462 -0.0017235215 -0.0002715636 -0.0032183568 -0.0023556107 -0.004116031
0.0031991904 -0.00257528 -0.00084702915 0.0026219191 -0.00031866712 0.00054204336 0.002894246 0.0023134605
0.000943274 0.00121138 -0.001959035 -0.003322714 -0.00052560726 0.0023089226 -0.012799165 0.0008091049
-0.004298914 -0.002059701 0.0014271751 -0.0064519444 0.00084211933 0.0016879379 -0.006778359 -0.0045198724
-0.0020046881 -0.0015907538 -0.001370119 -0.0042922418 -0.0036427672 -0.0042235693 -0.0015883266 -0.0034916473
0.002224947 -0.0021973765 -0.001622187 -0.0071065137 0.0010630251 -0.00017562168 -0.005723218 -0.0058112424
-0.0043473626 0.00031476936 -0.0025785775 -0.0050493856 0.0016068965 -0.00115132 -0.0023037991 -0.0048952755
0.0016504672 0.0027871514 0.00087067066 -0.0011219955 -0.0056557273 -0.0028229062 -0.0009791284 -0.001103978
-0.0018609902 0.00016594943 -0.0025890376 0.0015640161 -0.0015481903 -0.0012533373 -0.004913649 0.0001737771
-0.004234247 -0.002354029 -0.00074392516 0.0041570137 0.0009029153 -0.0028712694 -0.007636018 -0.0072865994

rate_f.2.bias f4 [24]
00000000: c463 f13c 5c0d 9ebb 0701 a33c 3324 b1ba
00000010: d324 7dbc db31 41bc 1eaa b43c ca33 9dba
00000020: feb5 41bc ca8e 3cbc 3219 3dbc 67fc 2a3c
00000030: db68 4bbc 6b94 d93c e7e2 3a3c eb32 bdbb
00000040: 5b9d 15bc 2865 f73c a54e a23c 1d8f c5bb
00000050: 75e4 90bb 30c1 4c3c f75f 3fbc f546 bd3c
0.029466517 -0.00482337 0.01989795 -0.0013514817 -0.015450674 -0.011791672 0.022053774 -0.0011993584
-0.0118231755 -0.011508653 -0.011541652 0.010436154 -0.012415136 0.026560029 0.011406637 -0.005773892
-0.009131755 0.030199602 0.019812891 -0.0060290233 -0.0044217655 0.012497231 -0.011680595 0.023105124

rate_f.4.weight f4 [3, 24]
00000000: d41d b1bd c98d 1d3a 4947 b1bd f28d c8bd
00000010: 4add 6bbd ac73 af3a 2f6c ccbd 43f6 a2ba
00000020: dff9 d1ba d266 09bc 2681 e8bb cc4f 95bd
00000030: d9e2 3d3b 62ac debd 9dee b3bd 8718 7d3b
00000040: dcf3 f0b9 6ea7 c9bd f043 e7bd 4ad9 d4bd
00000050: f593 11bb 93dd cebd a3c5 9bbb a2e0 65bd
00000060: 158d 40bd 79e5 08ba e82b 01bd 257b 253d
00000070: bc03 a5bd 54bb ab3b 3309 903d 144b 3c3a
00000080: 6000 303b b5b6 d33b f883 923b 1c7f 7ebd
00000090: 010b 103b 5756 bf3d 34b1 763a a97c 46bb
000000a0: d8f8 77bb f1ae af3d bf93 c23d 0b85 733d
000000b0: 8706 48bb 2c56 663d 807a 8bbb 4ce9 b8bd
000000c0: 4602 df3b 8211 253b b164 883c ce58 0fbc
000000d0: eb1e 9e3d d992 963b 05ff fbbc 6e51 2b3b
000000e0: 0a83 2f3a 5a65 72bb 0465 813a ee3f 383d
000000f0: 5bd5 b73a a927 0ebd 381c 663c 024f 86ba
00000100: b7d9 403b 2faa 03bd 3e01 3fbd 80c2 cabc
00000110: a039 db3a e0ca 72bc 92f1 bc37 6b0d 823d
-0.086482674 0.00060102023 -0.08656175 -0.09792699 -0.057584085 0.0013385913 -0.09981572 -0.0012433011
-0.0016019902 -0.008386331 -0.007095474 -0.07290611 0.0028974323 -0.10872723 -0.08785746 0.0038619356
-0.00045958057 -0.09846388 -0.11292255 -0.10393007 -0.0022213433 -0.10100856 -0.0047537847 -0.05612243
-0.047009546 -0.00052221824 -0.031536013 0.040400643 -0.08057353 0.005240837 0.070330046 0.00071828184
0.0026855692 0.0064609894 0.0044712983 -0.06213294 0.0021979215 0.0934264 0.00094105606 -0.0030286706
-0.0037837531 0.08578289 0.095008366 0.05945305 -0.0030521469 0.056234524 -0.0042565465 -0.09028873
0.006805691 0.0025187437 0.016649576 -0.0087492 0.07720741 0.0045951423 -0.030761251 0.0026141065
0.00066952466 -0.003698668 0.0009872024 0.044982843 0.0014025377 -0.03470579 0.014044814 -0.0010246935
0.0029426643 -0.03214472 -0.046632044 -0.024750948 0.0016725548 -0.014818877 2.2523836e-05 0.063502155

rate_f.4.bias f4 [3]
00000000: fcbb 693c 6aca da3c 6f55 97bc
0.01426601 0.026707847 -0.018473355

RTD_f.0.weight f4 [100, 1]
00000000: d1cd 3b3d c89a ac3d 7ece 923d 47d1 913d
00000010: 6ee8 9d3d cfbc 9d3d f8dc a93d ab3e ab3d
00000020: 378e b63d 9a67 ba3d 597a c23d c89a ca3d
00000030: 09eb cf3d 3df5 dc3d 8806 d93d 1b2d e93d
00000040: a75e dc3d f70e f33d 580c df3d bc93 fa3d
00000050: 438d de3d 48ed fc3d f69d dc3d 3689 f93d
00000060: 298f d73d 2206 f03d 7712 d53d 5778 e53d
00000070: 86cf cc3d ac8a ce3d 98d7 bb3d 4671 ba3d
00000080: 23e0 ab3d 44ff ac3d 1292 8b3d a1f5 863d
00000090: 8947 253d 7367 593d f564 d83c 6baa 263d
000000a0: ace0 893b 7301 6b3c 922e 98bc 143a 40bc
000000b0: f4fe 15bd eb86 06bd 3a2f 3dbd b56b 4bbd
000000c0: 18ba 70bd 6bd2 86bd af99 92bd 25c1 92bd
000000d0: c62b acbd 6d7b 9fbd 97cf c3bd f6e4 99bd
000000e0: 108f c0bd 5500 83bd 8ff9 a6bd 81e9 37bd
000000f0: f331 46bd f566 04bb 7b1c 5d3c c7ae 853d
00000100: 065b cd3d 023d 203e d676 663e 8913 993e
00000110: 2072 da3e ce98 093f 07f0 383f 3487 673f
00000120: 3744 923f a605 aa3f fcf7 bb3f c70c cb3f
00000130: c4e8 cd3f 881e c13f ed12 a13f d3cf 7b3f
00000140: 0d0a 373f ca0f ea3e 51ad 633e 6bea 8f3c
00000150: d306 38be 9edc a2be 062b f7be d519 16bf
00000160: 21ba 36bf e1fc 4cbf 6579 64bf 0a1a 76bf
00000170: e2e9 82bf 24d9 88bf ed7a 8dbf d0b7 90bf
00000180: 761f 92bf 4277 91bf fa19 a8bf 3a22 6dbf
0.04585058 0.0842796 0.071682915 0.071199946 0.07710348 0.07702028 0.082940996 0.08361562
0.08913844 0.09101792 0.09495992 0.098928034 0.10152251 0.10788963 0.10596949 0.11385556
0.10760241 0.11868089 0.10891026 0.12235209 0.10866787 0.12349945 0.10772316 0.12184374
0.105253525 0.1171992 0.104039125 0.11204594 0.100005195 0.10085043 0.091719806 0.091036364
0.0839236 0.084471256 0.0681497 0.06589819 0.040351424 0.053077172 0.026415328 0.040689867
0.004207691 0.014343607 -0.018576894 -0.011732597 -0.036620095 -0.03284351 -0.046187617 -0.049663264
-0.058771223 -0.06583103 -0.07158219 -0.07165746 -0.084067866 -0.077872135 -0.09561079 -0.07514374
-0.09402287 -0.06396548 -0.08153068 -0.04490042 -0.04838748 -0.0020202969 0.01349556 0.06527477
0.10027127 0.15648273 0.2250627 0.29897717 0.42665195 0.53748786 0.7224125 0.9044068
1.1427068 1.3282974 1.4685054 1.5863274 1.608666 1.5087442 1.2583901 0.9836399
0.7149971 0.4571517 0.22234084 0.017567834 -0.17971353 -0.31808943 -0.48275012 -0.58633167
-0.7137776 -0.8007336 -0.89247733 -0.9613348 -1.0227625 -1.0691266 -1.1053139 -1.1306095
-1.1415851 -1.136452 -1.3132927 -0.9263035

RTD_f.0.bias f4 [100]
00000000: 1765 eac0 be90 e4c0 0a35 e3c0 c526 e2c0
00000010: 4267 dfc0 ed51 dec0 00b9 dbc0 557b dac0
00000020: 9b14 d8c0 78a7 d6c0 7da2 d4c0 d5e0 d2c0
00000030: 9d30 d1c0 1a1d cfc0 5948 cec0 9901 ccc0
00000040: 0cdc cbc0 6c10 c9c0 fb89 c9c0 9561 c6c0
00000050: 7456 c7c0 8226 c4c0 ef4c c5c0 e54d c2c0
00000060: 105a c3c0 b6b2 c0c0 013b c1c0 1134 bfc0
00000070: a98a bfc0 18a2 bec0 9872 bec0 deef bdc0
00000080: 7609 bdc0 3ac7 bcc0 dcda bcc0 bdcb bcc0
00000090: e0ae bdc0 4a8c bbc0 2352 bcc0 b381 bac0
000000a0: 5aa8 bcc0 4c33 bbc0 2239 bdc0 23fc bbc0
000000b0: a5b6 bdc0 9b97 bcc0 e1fd bcc0 4146 bcc0
000000c0: 2952 bcc0 84b0 bbc0 3eb8 bbc0 e691 b9c0
000000d0: 227c bac0 3fc1 b6c0 f58f b8c0 8a41 b3c0
000000e0: 09b4 b5c0 b32a afc0 5305 b1c0 e889 aac0
000000f0: 1cb7 aac0 39fc a2c0 e22a a1c0 a415 98c0
00000100: 41be 93c0 92e2 89c0 1dea 80c0 584a 6bc0
00000110: 7d46 4ac0 a6ce 2ec0 d815 05c0 5b7a c3bf
00000120: 720d 5ebf a3a1 afbe 24dd 57bc 7c74 953e
00000130: b328 aa3e c816 813d 720a 13bf 6d20 9fbf
00000140: 16f2 f4bf 2cfd 26c0 da38 50c0 0422 7bc0
00000150: c096 92c0 1294 a1c0 0daa b0c0 742b b7c0
00000160: 9191 bdc0 8022 c0c0 a7f3 c1c0 3b62 c2c0
00000170: 2135 c2c0 6b7f c1c0 07ac c0c0 9b2c c0c0
00000180: 8656 c0c0 c909 c2c0 a0cc c8c0 77c1 cdc0
-7.32484 -7.1426687 -7.1002245 -7.0672326 -6.9813547 -6.9475007 -6.866333 -6.827555
-6.7525153 -6.707943 -6.644835 -6.5899453 -6.5371842 -6.4723024 -6.4463315 -6.375195
-6.370611 -6.2832546 -6.2980933 -6.199412 -6.2293034 -6.1297007 -6.1656413 -6.0720086
-6.104744 -6.0218153 -6.0384526 -5.975106 -5.9856763 -5.957287 -5.9514885 -5.9355307
-5.907405 -5.8993196 -5.901716 -5.8998704 -5.927597 -5.860875 -5.8850265 -5.8283324
-5.8955507 -5.850012 -5.913224 -5.8745284 -5.9285455 -5.8935065 -5.905991 -5.883576
-5.8850293 -5.8652973 -5.8662405 -5.79906 -5.827653 -5.7110896 -5.767573 -5.6017504
-5.678227 -5.4739623 -5.5319 -5.3293343 -5.334852 -5.093289 -5.0364847 -4.7526417
-4.6169744 -4.3089075 -4.0285783 -3.6764126 -3.1605523 -2.7313628 -2.0794582 -1.5271715
-0.86739266 -0.34303007 -0.013175283 0.29190433 0.33234176 0.06303173 -0.57437813 -1.243177
-1.9136379 -2.6092024 -3.25347 -3.9239511 -4.580902 -5.049325 -5.520758 -5.7240543
-5.9240193 -6.0042114 -6.0609927 -6.074491 -6.0689855 -6.046804 -6.0209994 -6.005445
-6.010562 -6.0636945 -6.2749786 -6.4298663

RTD_f.1.weight f4 [1, 1, 3]
00000000: abaa aa3e abaa aa3e abaa aa3e
0.33333334 0.33333334 0.33333334
