output/A_P_S5_D20.pth (torch, 7428 bytes, 9 tensors)

rate_f.0.weight f4 [24, 3]
00000000: 85ed f93d c2e6 bd3d 8937 c1bd 7f4a dc3c
00000010: 6db0 953e 7708 a1be 3971 a4bd b7f8 403e
00000020: f60a 9bbc f108 df3d 8d8c 9f3d cb7f adbd
00000030: fb17 003e 8781 573d 8531 d4bb ada7 e83d
00000040: 6a9a 0b3e 1d52 02be 7215 063e 9663 963d
00000050: 9772 c0bd 5dc9 0a3e 4986 84bd 6567 203e
00000060: e86a eb3d f978 3f3c a11f 00bd 2bb1 d639
00000070: 9549 31bc d55f 893b a5d0 04bb 223e a2bb
00000080: 6f15 e0ba 77dc b2ba b266 85bb a9a7 3fbc
00000090: c85f 023e fc6c e03c 76de 9a3d b249 a6bd
000000a0: 07c9 4f3e 9f59 6dbd 5fd8 ff3d 70b3 b83d
000000b0: 4b3a 1fbd d521 f33d b823 e93d 69c1 00be
000000c0: cc93 b4bd 1621 4f3e 654e a2bc 4621 023e
000000d0: da1e 513d 4110 0dbb 51ac 9fbd 8cce 793e
000000e0: 8361 54bd 6803 5f3d 7988 49be a717 8b3e
000000f0: 5be7 c93d c931 ab3d f8c6 f7bd 3593 e2ba
00000100: d5b6 13bc 2edf 2dbb d68f d13c e735 1fbe
00000110: a590 7e3e 770e a3bd 86f4 6e3e e5a4 52bd
0.122035064 0.09272529 -0.094344206 0.026890991 0.29236165 -0.3145177 -0.08029408 0.18844877
-0.018926125 0.10890377 0.0779048 -0.0847164 0.12509148 0.05261376 -0.0064756298 0.113601066
0.13633123 -0.12726636 0.13094118 0.07343213 -0.09396856 0.13553376 -0.06470925 0.15664442
0.11495 0.011686557 -0.031280164 0.0004094926 -0.010820766 0.0041923323 -0.0020265963 -0.0049512545
-0.0017096231 -0.0013646026 -0.00407108 -0.011697688 0.1273185 0.027395718 0.07561962 -0.08119525
0.2029153 -0.057946797 0.124924414 0.090186 -0.038873952 0.11871687 0.11383766 -0.1257378
-0.088172525 0.20227465 -0.019812772 0.12708005 0.051054813 -0.002152458 -0.077965386 0.24395198
-0.051850807 0.054446608 -0.19680966 0.27166483 0.09858581 0.08359105 -0.12098497 -0.0017286303
-0.0090157585 -0.002653073 0.025581282 -0.15547906 0.24859865 -0.07961743 0.23335466 -0.051426787

rate_f.0.bias f4 [24]
00000000: 732d 823b d61d 6a3d bf8e 023e 05e0 9fbb
00000010: d6ed 4abc 7e26 84bd f51e 11be b95c 23bc
00000020: 1374 fabd 3829 34bc d070 d6bb 3030 0dbb
00000030: 184b 9fba 2aeb 043e 10c4 7939 0fab 373b
00000040: b56d 0e3e 1d3e 3abd 6e7a 023e ec04 c03d
00000050: fecd a0bd cd78 09bc c55c c03d 1efd fe3d
0.003972703 0.05715736 0.12749766 -0.004879 -0.012385806 -0.06452654 -0.14171965 -0.009970837
-0.12229171 -0.010996155 -0.00654421 -0.0021543615 -0.0012153117 0.12980333 0.0002381953 0.0028025543
0.13909037 -0.045469392 0.12742016 0.09375939 -0.0785179 -0.008390618 0.093926944 0.12450622

rate_f.2.weight f4 [24, 24]
00000000: 6328 693b e47d a63b 4782 5fb9 9e03 74ba
00000010: c53a c43b 844a 3abb 34ae 533a 69af 16bc
00000020: a89d 35bb 765a a7bb 420d 01bc fd57 a83b
00000030: 963c c83a ab40 393b 961e 53bc ebca 1bbb
00000040: b1aa 97bb 89c5 c43b 83f4 46ba 2e53 023b
00000050: 5456 403b 3e90 1dbc 0d66 47bc 2b18 063c
00000060: fdfe 293e 598c a33e f139 e13c 21e0 103e
00000070: 27b0 ca3d bbd2 333e c9ba 513e 3d45 bebc
00000080: 5b49 153e 7921 583c 2790 8fbb 0544 6f3a
00000090: 2799 793d 145b 543d 6d4c 023e 537f 2c3e
000000a0: cf5d 103c 2e4b b53d 78c5 1b3d 414e 4ebe
000000b0: 1a17 2e3e 03a5 0f3c 9d39 24be d6c4 4e3d
000000c0: 587f 033e d08a 3e3e 0688 03be cf31 f33d
000000d0: a289 003e ebe4 3a3e fb99 6b3e d31a b33d
000000e0: c266 303e 2847 b3bb 69af 7e3b 19e6 f53a
000000f0: c27b d13d b2e5 ffbd d7ed 003e d711 073e
00000100: df19 0cbe fc63 023e 4ad7 01be 0559 e3bd
00000110: 850d 223e 2277 9f3a 969a c4bd 7534 bebd
00000120: df77 74ba 2135 313a 56ab 0ebb a95e efbb
00000130: f7a0 963a 603c e33a b05e 91bb c1d7 13bb
00000140: 333e b0bb 0acb cebb d922 54bb 21ed ab3a
00000150: f21f 153a 44d8 d43b f081 173b f28c 143b
00000160: 57f5 0abb 9665 01bc 50ab 803b 2d9c 133c
00000170: 1799 f6bb b701 f83b fed3 eb3a 4c09 cb3b
00000180: 2024 233e 5dc4 9c3e 8dfa 19bd 2864 2b3e
00000190: 058e c23d bf98 743e 6394 873e 3439 06bd
000001a0: bc40 2b3e 2e31 813c 04dd 9f3b 4140 beba
000001b0: ae7d fe3c db8e ee3b 2692 0a3e ab15 3d3e
000001c0: a233 eebc dc1d bc3d 0a13 de3c 3261 77be
000001d0: 6e1e 5f3e 9c6f 8ebb 6c77 70be edcc 7c3c
000001e0: 01e2 9d3d b0d0 36be 2150 32be 79e9 c13d
000001f0: 0f27 f23d 444c a23d 2d5b 043e 5446 173e
00000200: 6211 193e 56bf 9c3b 27e5 60bb 510d 28bb
00000210: d552 f83d 93e6 3bbe 053a b83d 03b0 9b3d
00000220: f613 25be 8947 ed3d 7b22 24be 979b ce3d
00000230: 98a7 873d 7193 3fbc 9b75 3b3d 8bf0 2abe
00000240: f18a afbb 8cce 9ebb 50a2 c13b 9052 0b3b
00000250: 8570 bbbb c79d c0ba 23ac d63a 01a5 81bb
00000260: c739 633b 1ef4 d93b 4e36 87bb be0b 873a
00000270: b536 c1bb ecf0 113b ba3c 0f3a 96b2 febb
00000280: b93b 283b f489 e5bb 1dfa 4eb9 501e b3ba
00000290: 1389 e03b 589f c5bb 284b 243b f01c 2fbb
000002a0: 9b9d 04bc 5a80 1fbb bc01 ec3a f1e2 2abc
000002b0: 9e67 d1bb 6077 4bba 7132 ac3a 0d10 04bb
000002c0: dc83 103c 2205 8cbb 4d10 a5bb bff4 97bb
000002d0: 9b57 6ebb 6319 cb39 c02c 6dbb b4d6 f7ba
000002e0: 7315 dcb9 cf77 f0bb aa82 933b 377f 5538
000002f0: afc7 07bc 0a82 313a 09b8 76bc a1fd da3b
00000300: 4aa4 f53d f398 8d3c 03db 89bd a076 f53d
00000310: 53fd 0a3e 99b4 183e f64b 253e e5fe 003e
00000320: b22e 143e 1eb4 373b 8d96 6f3a f5b3 dd3b
00000330: 78ec 093e 9798 b1bd ce60 0d3e 42d4 f23d
00000340: ee4d 90bd 0542 133e f491 81bd 842e 94bd
00000350: 6c04 f33d d75b 7d3c 8f1f 43bd 7424 99bd
00000360: b629 963c 0bc0 6bbd 0106 9b3c 8b2d 92bd
00000370: 63ff 203b 03b6 27be 8e25 17be 77be e63c
00000380: 4018 c1bd cac6 27bc a76a 75bb de17 e9bb
00000390: 0822 603d 49a9 9d3b 3fc1 373d ec3f bcbd
000003a0: 357b 103c 37f3 5bbd a28b cb3c d975 f03c
000003b0: 28bf 95bd 540f 17bb 0e73 d73c 975d d13c
000003c0: 7f5a 4cbb bd79 d83b 9bb1 053c 7134 333c
000003d0: 9b94 d73a 1793 2638 89be 90bc 92db 80bb
000003e0: 2ed5 9d3a 5f83 e63b 8f3b 223b 2c91 cdb8
000003f0: cfb0 25bc e441 3cba 698a 10bc 7810 67bb
0.003557705 0.0050809253 -0.0002131547 -0.00093084003 0.005988451 -0.0028425762 0.00080749695 -0.0091970945
-0.0027712379 -0.0051072193 -0.007876696 0.005137442 0.0015276845 0.0028267305 -0.01288571 -0.0023772072
-0.0046285023 0.0060049933 -0.00075895357 0.0019886005 0.002934833 -0.00961691 -0.012170327 0.008184473
0.16601177 0.31943014 0.027493449 0.14147998 0.0989688 0.17560856 0.20481409 -0.023226375
0.14578764 0.013191574 -0.004381198 0.0009127262 0.060937073 0.05184467 0.12724467 0.16845445
0.008811428 0.0885223 0.038030118 -0.20147039 0.17001 0.008767369 -0.16037603 0.050480686
0.12841547 0.1860764 -0.12844858 0.118747346 0.12552503 0.18251388 0.23007958 0.08745351
0.17226699 -0.005471129 0.0038861877 0.0018760591 0.10228683 -0.12494983 0.12590729 0.13190399
-0.13681744 0.12733454 -0.12679783 -0.111009635 0.1582547 0.0012166242 -0.095997974 -0.09287349
-0.00093257235 0.0006759931 -0.0021769605 -0.0073049855 0.0011492063 0.0017336719 -0.0044363365 -0.002255902
-0.0053785085 -0.0063108252 -0.0032369404 0.0013116935 0.0005688659 0.0064955074 0.002311822 0.0022667018
-0.0021203363 -0.007897755 0.003926672 0.009009403 -0.007525574 0.007568564 0.0017992256 0.0061961766
0.1593175 0.30618563 -0.03759246 0.16737425 0.09499744 0.23886393 0.26480398 -0.032769397
0.16723913 0.015770521 0.004878642 -0.0014514999 0.031065788 0.0072802133 0.13532314 0.18465297
-0.029077355 0.09185383 0.027108688 -0.24158171 0.21788952 -0.004346801 -0.23483056 0.0154297175
0.077091224 -0.17853045 -0.17413379 0.094683595 0.11823856 0.07924703 0.12925406 0.14772922
0.14948037 0.004783551 -0.0034316273 -0.0025642703 0.12125174 -0.18349676 0.08995441 0.07601931
-0.16120896 0.1158591 -0.16028778 0.1008827 0.06623763 -0.011692868 0.045766454 -0.16693322
-0.0053571393 -0.0048463996 0.0059092417 0.0021258928 -0.0057202005 -0.0014695459 0.0016378205 -0.0039564376
0.003467189 0.0066514155 -0.0041263467 0.0010303182 -0.005896414 0.0022268845 0.0005464066 -0.007772754
0.0025670363 -0.0070049707 -0.00019738865 -0.001366565 0.006852278 -0.006030958 0.002506921 -0.002672013
-0.008094217 -0.0024337978 0.0018005888 -0.010430084 -0.006390526 -0.0007761624 0.0013137591 -0.0020151169
0.0088205 -0.004273073 -0.0050373436 -0.0046373303 -0.0036368135 0.00038738092 -0.0036190003 -0.0018908591
-0.0004197765 -0.007338501 0.0045016604 5.0901635e-05 -0.008287354 0.00067713915 -0.015058526 0.006683067
0.11994226 0.017284846 -0.06731226 0.119855165 0.13573198 0.14912643 0.16142258 0.12597235
0.14470938 0.0028030942 0.000913956 0.0067658373 0.13469112 -0.08671682 0.1380646 0.11856891
-0.07046114 0.14380653 -0.063266665 -0.07235435 0.11866078 0.015463791 -0.04763752 -0.07477656
0.018330436 -0.057556193 0.018923761 -0.07137593 0.0024566285 -0.16378026 -0.1476042 0.028166993
-0.094284534 -0.010240266 -0.0037447603 -0.007113441 0.054719955 0.00481144 0.04486203 -0.0919188
0.008818437 -0.053698745 0.024846856 0.02935307 -0.07311851 -0.0023049908 0.02629998 0.025557322
-0.003118187 0.006606309 0.00816002 0.010937796 0.0016447486 3.9714472e-05 -0.01766898 -0.003932425
0.0012041682 0.0070347036 0.0024754738 -9.802202e-05 -0.010112955 -0.00071814493 -0.008822062 -0.003525762

rate_f.2.bias f4 [24]
00000000: 0e97 d6bb 44a5 923c 9900 09bd a32a c6bb
00000010: 15a0 4abd 3324 50bc 3d8d 38bb 2dfe 8cbb
00000020: 800a 5bbd b02a 81bc 8eff c1bb 837b cabb
00000030: 2a12 eabb 42ba 213d 7578 d4bb 35af 0b3d
00000040: 0000 0000 e7a9 b0bb b3e5 cabb 16c7 64bb
00000050: e46f e0bb 70d3 40bc 5816 20bd 0165 bb3d
-0.006548769 0.01790107 -0.033447836 -0.006047563 -0.049469072 -0.012703943 -0.0028160356 -0.004302761
-0.05347681 -0.015767425 -0.005920357 -0.0061792745 -0.0071432786 0.03948427 -0.006484086 0.034102637
0.0 -0.0053913477 -0.006191933 -0.0034908704 -0.006849276 -0.011769161 -0.03908381 0.09150124

rate_f.4.weight f4 [3, 24]
00000000: 5e6c 2b3b 897b 91bd 4393 0cbe 64e1 8d3a
00000010: fabb dcbd a5a9 00be fb76 c23a ad5e 853b
00000020: 774d 01be 3a84 d3bc f2f6 37ba 954a 04bb
00000030: 116d 4e3b b7a4 a7bd 030c 753b 03e4 adbd
00000040: 5e14 e93b 26e9 05be 2fd8 a03b e882 62bb
00000050: 6762 7ebb 2c1a 0abe 27a3 0bbe 9af8 bcbd
00000060: ac0a cc3b ecf9 f4bd 2cd0 4abd 2c74 063c
00000070: c0ab 03be 6ea8 583d 5334 703a ed28 4ebb
00000080: ac4c b63c 9a56 ba3c 2698 743b 1dec 43ba
00000090: 8a8b 7e3c 93d3 33bb 4780 7dbb 9f10 ef3d
000000a0: 100c 813b 6ca4 363d 6822 3c3b 41fe 59bb
000000b0: b107 1cbc cb63 c33c f449 a93c 6d11 033e
000000c0: 7353 05bb ad9c 433d b0cf fc3c f86d 8239
000000d0: 9896 b73d b119 09bd d894 7f3a 2375 aebb
000000e0: 150f c93d bef7 94be 6151 9cba 128c a5ba
000000f0: a7f6 0ebc f18e 0abd a94a 613c d739 5ebd
00000100: eae7 31bb cb03 e2bc f617 f139 9d78 05bc
00000110: 6b45 4a3b db15 b5bc e080 353b e775 6cbd
0.0026157121 -0.071036406 -0.13728051 0.0010824618 -0.10778041 -0.12564714 0.0014836484 0.004070124
-0.12627207 -0.025819886 -0.0007017694 -0.0020186056 0.0031498114 -0.08185714 0.0037391193 -0.084907554
0.0071130237 -0.1307722 0.0049085836 -0.003456289 -0.0038815977 -0.13486546 -0.13636456 -0.092271045
0.006226858 -0.11961731 -0.049514934 0.0082064085 -0.12858486 0.052895002 0.00091630704 -0.00314575
0.022253357 0.022746373 0.0037322133 -0.0007473843 0.015536198 -0.002743934 -0.0038681196 0.11673092
0.0039382055 0.0445904 0.002870703 -0.003326312 -0.009523318 0.023851296 0.020665146 0.12799616
-0.002034393 0.04775684 0.030860752 0.00024877465 0.0896427 -0.033471767 0.00097496575 -0.0053240224
0.0981733 -0.29095262 -0.0011926108 -0.0012630245 -0.008725799 -0.033827726 0.0137507105 -0.05425438
-0.0027146288 -0.0275897 0.00045984954 -0.008146432 0.003086413 -0.022105148 0.0027695224 -0.057729628

rate_f.4.bias f4 [3]
00000000: addc 0a3c 1549 cfbb 282a 893b
0.008475465 -0.0063258507 0.0041859336

RTD_f.0.weight f4 [100, 1]
00000000: 2a1d d93d fdbe 433e b2aa 1e3e f0f8 243e
00000010: 2b3e 2a3e 187e 303e 57eb 363e c597 3d3e
00000020: cc98 433e 07b3 493e 2525 4f3e 0585 553e
00000030: 007c 583e f18b 5f3e cc3a 603e dbea 693e
00000040: 294a 653e 0f97 6e3e 2360 653e be05 6e3e
00000050: 5696 633e 1764 683e 6e48 5d3e 1289 5b3e
00000060: f321 523e 1a6f 4c3e bffd 423e 2193 3c3e
00000070: c77c 2f3e b428 2a3e cd9e 1a3e 173f 1c3e
00000080: a0f4 0a3e 4cc3 0f3e 3474 fd3d e7c6 063e
00000090: 2d4a ec3d 2b8a e63d ed04 c23d 99ab a93d
000000a0: cde6 943d c32a 6f3d 5ea8 643d 6cac 153d
000000b0: 5c21 003d b9bf 493c fa3d 0d3c 5fd2 dbbb
000000c0: 76e7 47bc 3d5c e6bc b63e 09bd b7b1 5dbd
000000d0: 18d0 59bd 3366 9fbd 3e3b 8bbd e811 cfbd
000000e0: a064 abbd 5038 f5bd 0650 c0bd 1bd2 f9bd
000000f0: 2645 c3bd 8e43 f0bd 1749 c6bd 9cb5 cebd
00000100: f4e4 ccbd bcf7 99bd aa3f a6bd ed1b 7abc
00000110: 0a76 58bc ae9e d13d 9dc8 253e 1e27 b73e
00000120: 91d4 043f 6608 523f 2036 8e3f ecf8 c03f
00000130: c064 e53f 1a29 f33f 09ce da3f 5a0b a53f
00000140: 256a 4d3f dfe3 bf3e 730a 9a3d f7d6 1abe
00000150: ae39 a7be 6420 ebbe 38d0 18bf 6a9d 31bf
00000160: 8673 4ebf 4198 62bf cf78 79bf a2c4 84bf
00000170: 7ec0 8dbf dc20 94bf 65a1 9bbf a1ea a0bf
00000180: f370 a5bf 1278 a6bf 61fb c5bf c1b0 83bf
0.10601266 0.19115825 0.15494803 0.16110587 0.16625278 0.17235601 0.17863213 0.18514927
0.19101256 0.196972 0.20229013 0.20851524 0.21141052 0.21830727 0.21897429 0.22843497
0.22391571 0.23299812 0.22399954 0.23244378 0.22225317 0.22694431 0.21609661 0.21439007
0.20520763 0.19964257 0.19042109 0.184155 0.17137443 0.1661709 0.1509964 0.15258442
0.1356988 0.14039344 0.123756796 0.13161813 0.115375854 0.11256822 0.09473596 0.08284683
0.07270584 0.05839039 0.05582463 0.036541387 0.031281814 0.012313777 0.008620733 -0.006708428
-0.012201181 -0.028120155 -0.03350707 -0.05412456 -0.05317697 -0.07783165 -0.06798409 -0.10110837
-0.08368802 -0.119736314 -0.09390263 -0.121982776 -0.095346734 -0.11731635 -0.096819095 -0.10093233
-0.10004607 -0.07517955 -0.08117612 -0.015265447 -0.013211736 0.10235344 0.16189809 0.35772032
0.5188685 0.82044065 1.1110268 1.5075965 1.7921371 1.8996918 1.7094127 1.2894089
0.8024009 0.3747854 0.07521524 -0.15121065 -0.32661194 -0.4592315 -0.59692717 -0.6938082
-0.80645025 -0.8851357 -0.97449964 -1.0372508 -1.1074369 -1.1572528 -1.2158629 -1.2571603
-1.2925094 -1.3005393 -1.546734 -1.0288316

RTD_f.0.bias f4 [100]
00000000: 619c e6c0 7298 e3c0 b30f e2c0 48b3 e0c0
00000010: 1cc3 dec0 6873 ddc0 9d76 dbc0 e926 dac0
00000020: 0549 d8c0 7504 d7c0 1558 d5c0 8706 d4c0
00000030: 7eb7 d2c0 4844 d1c0 5a51 d0c0 079e cec0
00000040: ec51 cec0 7c9b ccc0 d2ce ccc0 8c26 cbc0
00000050: 6a30 cbc0 7f17 cac0 46e9 c9c0 9cd4 c9c0
00000060: e941 c9c0 1d8c c9c0 dccd c8c0 f13e c9c0
00000070: 6fb7 c8c0 26d5 c8c0 837b c8c0 3cf6 c7c0
00000080: 3f94 c7c0 43ec c6c0 0e8b c6c0 8c59 c5c0
00000090: 621b c5c0 8dd8 c4c0 2105 c5c0 e828 c5c0
000000a0: 52a4 c4c0 f8af c4c0 08de c3c0 9cf1 c3c0
000000b0: aa84 c3c0 c04c c3c0 2899 c2c0 e649 c2c0
000000c0: 2582 c1c0 951a c1c0 96fc bfc0 3246 c0c0
000000d0: db87 bec0 bb53 bfc0 fe64 bcc0 50a4 bdc0
000000e0: 5288 bac0 ae87 bbc0 4623 b8c0 6018 b8c0
000000f0: f7e7 b4c0 549a b7c0 7398 b3c0 144f b2c0
00000100: 3deb aec0 8911 a4c0 8348 a0c0 21fd 92c0
00000110: 1c22 91c0 4b57 84c0 6b9a 75c0 da6d 52c0
00000120: da25 2ac0 484e f2bf c1fc 80bf 7810 d8bd
00000130: 11b0 133f dc81 463f 0610 0f3f 72a5 46be
00000140: 2bfb a8bf c687 21c0 b44e 5ec0 9bab 86c0
00000150: 61ad 96c0 4852 a2c0 42d2 abc0 5529 b2c0
00000160: 3f40 b8c0 2e9d bcc0 67bb c0c0 688a c4c0
00000170: ebb4 c7c0 487e cbc0 32ec cec0 350e d3c0
00000180: f312 d7c0 53cc dbc0 3bb5 e5c0 a9c1 e7c0
-7.206589 -7.112359 -7.0644164 -7.021885 -6.961317 -6.9203377 -6.858229 -6.81725
-6.7589135 -6.719294 -6.667002 -6.625797 -6.584899 -6.539585 -6.5099306 -6.4567904
-6.4475 -6.39398 -6.4002466 -6.3484554 -6.34966 -6.315368 -6.3097258 -6.3072033
-6.2892957 -6.2983537 -6.2751293 -6.2889333 -6.272392 -6.276019 -6.265077 -6.248808
-6.2368464 -6.2163405 -6.2044744 -6.167181 -6.1595926 -6.1514344 -6.156876 -6.1612434
-6.1450586 -6.1464806 -6.1208534 -6.1232433 -6.1099443 -6.103119 -6.081196 -6.071521
-6.047137 -6.034495 -5.9995832 -6.008569 -5.954084 -5.978971 -5.887328 -5.9263077
-5.8291407 -5.8603125 -5.754306 -5.7529755 -5.653316 -5.737589 -5.6123595 -5.572153
-5.4662156 -5.1271405 -5.0088515 -4.5933995 -4.5354137 -4.135656 -3.83755 -3.2879548
-2.6585603 -1.893014 -1.0077134 -0.10550016 0.5769053 0.775419 0.55883825 -0.1939905
-1.320165 -2.523912 -3.4735537 -4.208448 -4.7086644 -5.072544 -5.369416 -5.5675454
-5.7578425 -5.894187 -6.0228763 -6.1418953 -6.2408347 -6.359165 -6.4663324 -6.5954843
-6.721063 -6.868692 -7.178373 -7.24239

RTD_f.1.weight f4 [1, 1, 3]
00000000: abaa aa3e abaa aa3e abaa aa3e
0.33333334 0.33333334 0.33333334
