output/A_P_S20_D20.pth (torch, 7428 bytes, 9 tensors)

rate_f.0.weight f4 [24, 3]
000000 fc ab f6 3b 30 cf 71 3e 5a 76 82 be 1f 0a 14 3c
       0.0075278264 0.23614192 -0.2548092 0.009035616
000010 7b 88 02 bd 83 8a ec bc 2d 2f 22 3e 47 8c b1 3b
       -0.03186844 -0.028874641 0.15838309 0.0054183337
000020 db 46 59 3c 32 9c 7d bd 9e 01 6c 3e a9 df 16 be
       0.013261522 -0.061916538 0.23047492 -0.14733757
000030 06 23 31 3e 96 bc b1 3d cd 8d 90 bc a2 04 1a 3e
       0.17298517 0.08678548 -0.01764574 0.1504083
000040 ff 48 1b 3e 81 46 15 be b9 da 3c 3e 31 a8 9f 3d
       0.15164565 -0.14577676 0.18442811 0.07795752
000050 e5 15 9a bc 6f 3b 34 3e ae 8a c2 3d 28 cf 06 bd
       -0.018809268 0.17600797 0.09499107 -0.032912403
000060 c6 1c 0c 3e aa 56 23 3e 37 ac 53 be 37 27 e4 bd
       0.13682851 0.15951028 -0.20671163 -0.11140292
000070 11 58 50 3e e1 ca da 3c 69 ec c0 bd 8e 7e 36 3e
       0.20346095 0.026708068 -0.09420092 0.17821714
000080 4f 79 5e bc 62 a0 ac bd 87 e7 42 3e 51 a8 8f bc
       -0.013578727 -0.08429028 0.19033633 -0.017536314
000090 2f 73 23 3e af d6 90 3d df cf 05 bd 48 f5 bf 3c
       0.15961908 0.07072198 -0.032668944 0.023432389
0000a0 49 7c 8c 3e 54 f6 95 be eb cc 3b 3e 63 bf 20 3e
       0.27438572 -0.29289496 0.18339889 0.15698008
0000b0 9b 40 ea bd df e1 10 3d 35 c9 4a be fe 40 91 3e
       -0.11438104 0.035371657 -0.19803317 0.28369898
0000c0 7a 4e 10 3e 18 a0 26 3d 58 28 a4 bd 29 39 df bd
       0.14092436 0.04068002 -0.080155075 -0.10899574
0000d0 ef c7 40 3e 7f 31 19 3c 54 4d b9 bd f0 32 a6 3d
       0.18826269 0.00935018 -0.09047952 0.08115184
0000e0 16 5f 37 3d 44 81 32 3e 47 7d ae 3d 61 ce 0f bd
       0.044768415 0.17432123 0.085199885 -0.035108928
0000f0 10 3e 90 3d 4c 3a 3e be 84 2c 88 3e 82 e5 53 b9
       0.070430875 -0.18576926 0.26596463 -0.00020208026
000100 c2 b1 44 bb 27 d2 87 bb 4f aa 92 3b d5 56 46 bc
       -0.0030013178 -0.004144925 0.004475869 -0.012105663
000110 68 7c 6c bc 0b fe 27 3e 5c 92 4b 3d be 37 df 3b
       -0.014433958 0.16405503 0.049700126 0.006812065

rate_f.0.bias f4 [24]
000000 6c ac 96 3d a2 e7 a7 bb d2 28 46 bc d3 78 1d 3e
       0.073571056 -0.0051240483 -0.012094693 0.15378122
000010 fd d0 82 bc 64 63 9b bc cd 71 68 bc ad 6f 82 bc
       -0.015968794 -0.018968292 -0.0141872885 -0.015922392
000020 c7 94 c2 bd 80 ee 1a 3e 8a 75 1d 3e 78 48 32 3e
       -0.09501033 0.15130043 0.15376869 0.17410457
000030 b0 a2 68 bc f3 4b 25 3d 5a ab ae bc 7a 92 11 3e
       -0.014198944 0.040355634 -0.021321941 0.14216033
000040 45 3d 01 be 2c 5c 22 3e ac e4 3b 3e 53 9f 84 bc
       -0.12621029 0.15855473 0.1834895 -0.016189253
000050 8e 14 0f 3e 15 8f cd ba d9 29 cd bb 5b ce 49 bc
       0.13972685 -0.00156829 -0.006261092 -0.012317265

rate_f.2.weight f4 [24, 24]
000000 24 cf 1a 3c 79 13 82 bb e8 75 e7 bb 2f 00 04 3b
       0.0094488 -0.0039696065 -0.007063616 0.002014171
000010 20 d9 ad 3b b7 e8 16 bc 0c c5 4d bb 1e 57 12 bb
       0.0053054243 -0.009210757 -0.0031397967 -0.0022329758
000020 15 21 3c 3c cf 63 62 3b 27 43 9f bb 16 5c 99 bb
       0.011482497 0.0034544354 -0.0048603 -0.004680167
000030 ab ae ef ba ab 33 86 bc fc 34 23 bc eb a1 bf ba
       -0.0018286308 -0.01638206 -0.009961363 -0.0014620399
000040 ca c0 58 bb a3 52 c9 3a 9c 1c d2 ba 91 c8 87 ba
       -0.0033073896 0.0015359711 -0.0016030255 -0.0010359456
000050 c0 86 9d 3a 0d 56 11 3a 6d fa 09 bb 19 61 24 bb
       0.0012018308 0.00055441336 -0.0021053806 -0.0025082289
000060 30 67 a2 bb 29 04 14 3c 8b ca c6 bb f1 26 73 3b
       -0.0049561486 0.009034195 -0.0060666255 0.0037102068
000070 08 db 9f 3b 93 c7 d3 ba d2 82 23 bc 3a 43 40 3b
       0.0048784055 -0.00161575 -0.00997992 0.0029336945
000080 42 e3 96 bb 09 59 fb 3b b6 87 a5 bc ae 61 3f ba
       -0.004604728 0.007670526 -0.020206314 -0.0007300627
000090 e4 2b 9f bb b2 ea 1f 3b 5a 47 f7 bb 8d 23 7e 3b
       -0.004857527 0.0024401364 -0.0075463476 0.0038778514
0000a0 07 fe f9 bb e6 09 71 bb 1b 38 9d 3b b0 07 ef 3b
       -0.0076291594 -0.0036779582 0.004797948 0.0072946176
0000b0 0d de 05 bb fd b5 8c bb f3 a0 4a bb c8 53 b5 bb
       -0.0020426542 -0.0042941556 -0.0030918687 -0.005533669
0000c0 84 4b 14 bd 0b 90 be bb 81 a6 0c 3e 2d b6 64 bd
       -0.03620483 -0.005815511 0.13735391 -0.0558378
0000d0 e7 43 e6 3d 83 92 a6 3d dc 5d e0 3d 66 71 ea 3d
       0.1124342 0.08133414 0.10955402 0.1144741
0000e0 3b 81 80 3d e4 58 a1 bd fc b1 9f bd 41 ec be bd
       0.06274649 -0.07878283 -0.0779762 -0.093224056
0000f0 d4 f2 ce 3d f6 76 e1 bc d9 dd 96 3d f7 4f c7 3d
       0.101049095 -0.027522545 0.07366533 0.09732049
000100 57 e8 a3 3d 97 12 80 bd 39 32 3e bd 7c f2 b7 3d
       0.080033 -0.06253546 -0.046434615 0.08981797
000110 ca 1c d0 3d 37 f0 1c 3b 99 57 45 bb a4 ac 05 3e
       0.10161741 0.002394689 -0.0030112027 0.13054138
000120 98 a9 ec 3d 2a 42 13 ba 9e c6 bf 3d 82 62 84 3d
       0.11555785 -0.0005617464 0.09364055 0.064641014
000130 45 70 cb 3d 85 cf f1 3d 80 fb db 3d db a6 ee 3d
       0.09933523 0.11807159 0.10741329 0.11652919
000140 36 9d 0a 3e 57 26 63 bd 0f ba ea bc fe 65 c1 bc
       0.13536534 -0.055456486 -0.028653173 -0.023608204
000150 21 38 e6 3d 74 21 23 3e a9 c0 ea 3d b8 67 b8 bd
       0.112411745 0.1593073 0.11462528 -0.09004158
000160 08 d3 fd 3d bb 2d 37 bd 49 dd 4f bd 67 11 da 3d
       0.12393767 -0.044721346 -0.050748143 0.106478505
000170 9f 54 89 bd e2 30 56 bb 9b c2 d2 3b 3a 2e 0a 3e
       -0.06705593 -0.0032682945 0.00643189 0.13494197
000180 70 ce f8 bc a7 61 2e bc 5e b7 07 3e 32 de 93 bd
       -0.030371875 -0.010643399 0.13253543 -0.07220115
000190 24 e2 12 3e e4 4f 1a 3e d6 71 07 3e 5c 17 2b 3e
       0.14344078 0.15069538 0.13227019 0.1670813
0001a0 10 e9 35 3e 62 54 c7 bd 68 c4 99 bd 82 5f b8 bd
       0.17764688 -0.097328916 -0.07508165 -0.09002592
0001b0 5b ae 1e 3e 84 5c 5e 3d 88 7b 1b 3e 60 86 02 be
       0.15496199 0.05428745 0.15183842 -0.12746572
0001c0 5e 68 31 3e 7f 19 ab bd 41 79 10 be eb 8a 17 3e
       0.17324969 -0.08354472 -0.14108755 0.14799087
0001d0 fe 6a b3 bd 16 49 d5 bb 5c 23 b7 bb 7c 0f 10 3e
       -0.087606415 -0.0065089567 -0.005588932 0.14068407
0001e0 49 4e b1 bd e2 de ae 3b f2 56 24 3e b6 bb 39 be
       -0.0865751 0.0053366283 0.16048792 -0.18138012
0001f0 44 4e f0 3d e2 80 ec 3d 4b 50 e3 3d 64 64 e7 3d
       0.11733678 0.1154802 0.11099299 0.11298445
000200 76 d7 08 3e e9 aa 34 be 42 48 4a be 5b 27 32 be
       0.13363442 -0.17643322 -0.19754127 -0.17397825
000210 1f 14 f6 3d 4b 02 44 bd b5 ab d0 3d 25 f2 9b bb
       0.120155565 -0.04785375 0.101890005 -0.0047590905
000220 d5 6f 1d 3e d6 c7 35 be 3d ec 43 be 68 a1 f5 3d
       0.15374692 -0.17752013 -0.19133087 0.119936764
000230 84 c8 46 bc 77 1e 17 ba 10 8a 30 3b e8 00 ed 3d
       -0.012132768 -0.00057647325 0.002693776 0.115724385
000240 aa 8d 69 bb ff be 87 3b 11 0a 8e bb 4a 5f 0a bb
       -0.0035637417 0.0041426416 -0.004334696 -0.0021113926
000250 e7 90 5a bb 66 94 f5 3b 17 0d 5e bb 49 42 d2 3b
       -0.0033350529 0.007494497 -0.0033882314 0.006416593
000260 7a 64 c5 ba 4d f1 1a bb f7 54 45 3b cf 8a d9 bb
       -0.0015059852 -0.0023642362 0.0030110457 -0.0066388617
000270 4c 1f 8c 3b e8 85 d4 3a 05 69 ce bb f7 8e 85 3b
       0.004276192 0.0016214224 -0.0062991404 0.0040758806
000280 6a 52 bc ba 4e b0 1e 3b ec d8 18 ba cf 29 88 bc
       -0.0014367823 0.0024213973 -0.0005830664 -0.016621498
000290 3f b2 b8 3b aa 86 51 ba a1 d5 c7 3b 9f a2 c7 bb
       0.005636483 -0.0007992784 0.0060984646 -0.006092384
0002a0 e3 ea e6 bb 5f 07 90 3b 53 3d 9d b8 a3 f9 93 3a
       -0.0070470436 0.00439541 -7.497766e-05 0.0011289608
0002b0 38 81 ed bb e6 1c 64 bc 68 46 03 3a b8 98 2b bb
       -0.00724807 -0.013922906 0.0005007745 -0.0026183557
0002c0 45 44 1c ba 17 60 9f 3b c5 34 c4 3b 66 d0 41 bb
       -0.00059611007 0.0048637497 0.005987736 -0.0029573678
0002d0 fd d7 af bb 92 d8 4c 3b bf 83 8e bb e4 60 52 bb
       -0.005366324 0.0031257016 -0.0043492015 -0.0032101208
0002e0 09 0b 08 bc b8 96 1e 3a 15 cc a7 bb e3 53 36 bc
       -0.008303412 0.00060496805 -0.005120764 -0.011128399
0002f0 ab 30 80 3a c5 84 be bb d1 f5 3c bb 9d b1 69 3b
       0.0009780129 -0.005814167 -0.0028833041 0.0035658844
000300 ec 3b d6 3e b8 6b 8a bb 9a c3 2f bd 28 e9 85 3e
       0.41842592 -0.004224267 -0.04291115 0.26154447
000310 36 75 a0 3c 0f e1 2f 3e a7 e2 52 bb af 60 f1 3c
       0.01958714 0.17175697 -0.0032178552 0.029465048
000320 ac 0a 78 3e b0 c1 f5 3d c4 a3 fb 3d f1 ed 0e 3e
       0.24222821 0.119998336 0.12287095 0.13957955
000330 11 81 e3 3c ec 1d dc 3e 24 25 00 3e d4 0f a3 be
       0.027771505 0.4299158 0.12514168 -0.31848013
000340 9c 81 66 3d 62 e2 06 3e f5 69 ad 3c 93 f1 03 3d
       0.05627595 0.13172296 0.021168688 0.032212805
000350 71 c9 a4 be 3a 82 9a 3b a8 3e 25 bc 40 96 e7 bc
       -0.32184938 0.0047152312 -0.010085739 -0.028269887
000360 ac 45 8a bc 5d cb ea bb 28 75 0a 3e fb 6e d4 bd
       -0.016878925 -0.007165356 0.13521254 -0.1037273
000370 ed 9d 03 3e f3 53 0c 3e ed 98 ea 3d a8 44 18 3e
       0.12853213 0.13703899 0.114549495 0.1486994
000380 28 40 01 3e 82 9f 00 be f8 bc ec bd 2b fe f1 bd
       0.1262213 -0.12560847 -0.115594804 -0.11816057
000390 3b 7e eb 3d 98 73 2b 3d 94 41 10 3e 25 a2 c0 bd
       0.11498686 0.041858286 0.14087516 -0.094059266
0003a0 f5 e8 06 3e be 4e f5 bd 26 f6 20 be 13 7a f5 3d
       0.13174804 -0.119779095 -0.15718898 0.119861744
0003b0 c6 59 bd bd 5d 7b 09 bc ce 5e ad 3b 73 3d 03 3e
       -0.092456385 -0.0083912285 0.0052908426 0.1281641
0003c0 30 fd 02 3e 81 5b 46 bc c2 1e af 3d 94 82 2e 3d
       0.12791896 -0.012106777 0.085507885 0.042604998
0003d0 23 74 bc 3d 36 6f 23 3e 52 28 e1 3d 52 92 03 3e
       0.09201839 0.15960392 0.109940186 0.12848786
0003e0 8f 43 69 3e 0c bd 9f bd 47 50 9b bd fc c9 a8 bd
       0.22779678 -0.0779973 -0.07583671 -0.082416505
0003f0 2a b5 d9 3d cc 85 49 3e 8a 13 0e 3e d9 79 6e be
       0.106302574 0.19679946 0.13874641 -0.23288669

rate_f.2.bias f4 [24]
000000 f1 31 fd b9 c9 e1 c4 bb ef bb 33 3d eb 4b e4 3c
       -0.0004829313 -0.006008361 0.0438804 0.027868232
000010 bf 5c 8f bd 90 0b 9d bc a2 99 c3 bb 03 0d c6 bb
       -0.07000112 -0.019170552 -0.005969242 -0.0060440316
000020 fe 3e b1 3c 5b 1e 51 bd e6 bb 52 bd 60 fe a4 bc
       0.021636482 -0.05105434 -0.051448725 -0.020140827
000030 e5 c4 c5 bb c3 ea ce bb 13 83 e0 bb 26 7e c1 bb
       -0.0060354345 -0.006314607 -0.0068515628 -0.0059049306
000040 36 95 27 bd 4f c0 b6 bb fb f4 45 bb e3 c8 96 3b
       -0.040913783 -0.005577124 -0.0030205834 0.0046015843
000050 22 94 d6 bb de 56 ba bb 94 17 bc bb f1 c2 05 bb
       -0.0065484205 -0.005686625 -0.0057401154 -0.0020410384

rate_f.4.weight f4 [3, 24]
000000 b0 a0 df bb c3 4f 03 3b 28 40 db bd e1 e9 f6 bd
       -0.0068245754 0.0020036555 -0.10705596 -0.120563276
000010 7b 55 34 be eb 9e 27 be 1c 15 4e 3b d9 cc 7a 3c
       -0.17610733 -0.16369216 0.0031445688 0.015307629
000020 7d 99 62 3d c5 3c 17 be 64 d7 13 be cc 37 14 be
       0.05532216 -0.14769275 -0.14437634 -0.1447441
000030 21 5c ab 3a 03 d4 8f 3b 27 8f 20 3c 20 e0 51 ba
       0.0013073721 0.0043892874 0.009799755 -0.00080061145
000040 09 f7 24 be f7 e6 6f 3b af 31 47 3b bb 28 65 be
       -0.16109861 0.0036606172 0.0030394604 -0.22378819
000050 ad 9b 80 3b 53 1b 83 bb 9b 51 8d bb 71 21 08 3d
       0.003924808 -0.00400106 -0.0043127066 0.033235017
000060 95 c1 06 bc e1 d3 27 3b cc 0a 21 3d c3 e4 ee bc
       -0.0082248645 0.0025608467 0.039316937 -0.029161816
000070 a5 7b a5 3c 70 5a 96 3c 4f c7 75 3b e2 97 0f 3c
       0.02020056 0.01835367 0.003750283 0.008764239
000080 1e 2c fa bd 98 ab 84 3c d7 11 c0 bd 4b 71 10 bc
       -0.12215446 0.016195104 -0.09378403 -0.008816074
000090 e3 75 21 ba 0b b9 d8 3b 32 13 c1 3a 09 05 b5 ba
       -0.0006159229 0.0066138557 0.0014730452 -0.0013810705
0000a0 ac 94 09 bc 86 21 07 3c d4 db ae 3a dc 15 d5 3d
       -0.008397263 0.008247739 0.001334066 0.1040456
0000b0 32 e0 c8 3b 7f 5d 83 3a 80 87 ac 3b 17 52 1e be
       0.006130242 0.0010022371 0.0052651763 -0.15461002
0000c0 f9 9f 96 bb 79 12 92 bb ce 0b 09 bd b1 ba 1f 3c
       -0.004596707 -0.0044577685 -0.033458523 0.009749101
0000d0 aa d8 d5 3d 52 7a 8c bc 77 46 e2 3b a1 a8 69 3c
       0.10441716 -0.01714817 0.0069053727 0.014261396
0000e0 a2 c2 83 3d 8a aa 96 3d 03 64 9b 3c cd 16 4f bc
       0.06433608 0.073567465 0.018968588 -0.0126397135
0000f0 a7 cd f7 b9 2f 8b da 3b 76 e6 dd 3b 10 f9 27 3c
       -0.00047264734 0.006669424 0.006771858 0.010252252
000100 7e 6f 96 3b 06 e0 74 bc 65 8f 2d bb 05 9e 9e bd
       0.0045909276 -0.0149459895 -0.0026483175 -0.077449836
000110 04 f2 b8 3b a6 dd 12 bc 54 45 e7 3a 11 b9 85 3d
       0.005644085 -0.008963978 0.0017644563 0.06529439

rate_f.4.bias f4 [3]
000000 56 91 f6 bb b3 b0 dd 3c df f3 4c bc
       -0.0075246496 0.027061796 -0.012509315

RTD_f.0.weight f4 [100, 1]
000000 67 69 d5 3d a0 7f 38 3e 0d 46 1c 3e 9b fb 1d 3e
       0.104204945 0.18017435 0.15261097 0.15428011
000010 bf 4a 28 3e 8d bc 28 3e 9b 8d 35 3e 7b 48 34 3e
       0.16434763 0.16478176 0.177298 0.17605774
000020 92 9d 42 3e b2 7d 3e 3e 7b 26 4d 3e 03 c4 45 3e
       0.19005421 0.18602636 0.2003421 0.19313054
000030 ed 92 54 3e e3 7b 4c 3e 29 6d 58 3e 4c 90 4d 3e
       0.20759173 0.19969134 0.21135391 0.20074576
000040 3b 44 55 3e 8b a8 4d 3e c6 3c 54 3e a7 67 4c 3e
       0.20826809 0.20083825 0.20726308 0.19961415
000050 dc 1b 4c 3e 23 b4 41 3e 66 90 3c 3e 00 2a 31 3e
       0.19932503 0.18916373 0.18414459 0.17301178
000060 64 c2 28 3e c3 06 1d 3e 91 90 11 3e ba 43 05 3e
       0.16480404 0.1533461 0.14215304 0.13014117
000070 5f 38 ee 3d c5 ac d6 3d 42 ea b6 3d ac 82 a2 3d
       0.11631846 0.10482172 0.089314 0.0793508
000080 59 bf 81 3d e8 15 6a 3d 85 27 2e 3d 4b af 20 3d
       0.06335325 0.057149798 0.042518158 0.039229672
000090 af 60 aa 3c 27 79 9e 3c f6 6e 2d bb a3 67 4a 3b
       0.020798055 0.01934488 -0.0026463843 0.0030884526
0000a0 df 74 8f bc d9 ac 96 bc 71 5f 32 bd b8 dd 41 bd
       -0.017511783 -0.018392967 -0.04354805 -0.047330588
0000b0 fd 2a 85 bd 2f 9e 82 bd 6a 35 a0 bd ef f7 a7 bd
       -0.0650234 -0.063778274 -0.07822688 -0.082015865
0000c0 a3 98 d3 bd 8c f9 ee bd 7f 8e 0e be 0c 4c 1e be
       -0.103318475 -0.11668691 -0.13921545 -0.15458697
0000d0 9f b4 38 be 18 e7 4b be 62 80 68 be 07 3d 7d be
       -0.18037651 -0.19912374 -0.22705224 -0.24730311
0000e0 69 4d 8b be d2 9f 90 be ae 05 95 be da 87 94 be
       -0.27207497 -0.28246933 -0.29105896 -0.29009897
0000f0 02 11 98 be e4 d9 99 be d5 1c a3 be ae 98 a8 be
       -0.29700476 -0.3004905 -0.31857935 -0.32928985
000100 f5 1b b5 be 85 2f bb be 0a 7a c6 be 64 12 cc be
       -0.35372892 -0.36559692 -0.38764983 -0.3985778
000110 84 31 d3 be 0f b0 d7 be 64 d1 d6 be 96 b6 d7 be
       -0.41248715 -0.4212651 -0.41956627 -0.4213149
000120 c2 85 cd be 73 ee c4 be 97 d6 9d be ef 4a 37 be
       -0.40141112 -0.38463172 -0.30827782 -0.17899679
000130 29 8b c2 3b dc a4 fc 3d 46 99 96 3e c8 17 06 3f
       0.0059369993 0.12336132 0.29413813 0.5238004
000140 ed d9 60 3f 30 83 99 3f d1 ec bd 3f e9 22 d1 3f
       0.8783253 1.199316 1.4837896 1.6338779
000150 9c c4 cb 3f 00 9d ab 3f 1c 22 75 3f bc d4 0d 3f
       1.5919375 1.3407288 0.9575517 0.5540273
000160 38 24 5c 3e 5b b2 2e bd 29 1a 73 be ee 19 c8 be
       0.21498191 -0.04265056 -0.23740448 -0.39082283
000170 79 37 04 bf 43 62 20 bf df fb 3a bf ed 5f 55 bf
       -0.51647145 -0.62649935 -0.73040575 -0.83349496
000180 23 46 6f bf f4 ed 82 bf 44 0b a9 bf dd 47 6b bf
       -0.93466395 -1.0228868 -1.3206563 -0.9190653

RTD_f.0.bias f4 [100]
000000 b5 89 ea c0 bb 16 ea c0 5b e1 e6 c0 0d 77 e6 c0
       -7.32931 -7.3152747 -7.215009 -7.2020326
000010 d1 80 e3 c0 c0 60 e3 c0 2b 18 e0 c0 c3 42 e0 c0
       -7.1094747 -7.1055603 -7.00295 -7.0081496
000020 1d dd dc c0 ab 5c dd c0 2e 0d da c0 67 d1 da c0
       -6.9019914 -6.917562 -6.814109 -6.838062
000030 4f a2 d7 c0 73 45 d8 c0 ce 8f d5 c0 a7 52 d6 c0
       -6.738563 -6.7584777 -6.6738043 -6.6975894
000040 b5 43 d4 c0 97 86 d4 c0 b6 ad d2 c0 7a c0 d2 c0
       -6.633265 -6.6414294 -6.583705 -6.5859957
000050 73 aa d1 c0 38 db d1 c0 56 3a d1 c0 57 53 d1 c0
       -6.552057 -6.55801 -6.538371 -6.5414233
000060 9b eb d0 c0 5a ea d0 c0 8e a9 d0 c0 b1 98 d0 c0
       -6.5287604 -6.5286074 -6.5206976 -6.518639
000070 22 79 d0 c0 7a 38 d0 c0 f2 10 d0 c0 dd 92 cf c0
       -6.5147867 -6.506894 -6.5020685 -6.4866776
000080 73 28 cf c0 3b 49 ce c0 1f 5c cd c0 64 52 cc c0
       -6.4736876 -6.4464393 -6.4174953 -6.3850574
000090 b4 68 cb c0 51 81 ca c0 e3 ee c9 c0 b8 89 c8 c0
       -6.356531 -6.3282857 -6.310411 -6.2668114
0000a0 63 3d c8 c0 dd 2b c7 c0 bb 3a c7 c0 ab 1c c6 c0
       -6.2574935 -6.2241044 -6.2259192 -6.1909995
0000b0 23 bc c6 c0 df b9 c4 c0 cf 72 c5 c0 e5 f1 c3 c0
       -6.210466 -6.1476893 -6.1702647 -6.123278
0000c0 35 dd c4 c0 d4 30 c4 c0 a6 2a c5 c0 2d 5a c4 c0
       -6.152003 -6.1309605 -6.161456 -6.136008
0000d0 56 cf c4 c0 ca 2f c4 c0 5d 42 c5 c0 bc a6 c5 c0
       -6.1503096 -6.1308336 -6.164351 -6.1766033
0000e0 ce 38 c7 c0 37 36 c9 c0 b2 d0 cd c0 b4 6f d2 c0
       -6.225684 -6.287868 -6.4317255 -6.5761356
0000f0 72 aa d5 c0 8a 10 d7 c0 b4 0a d8 c0 c4 93 d8 c0
       -6.6770563 -6.720769 -6.7513065 -6.768038
000100 43 34 d8 c0 7b 93 d7 c0 4a 09 d6 c0 e9 77 d4 c0
       -6.7563796 -6.736753 -6.688634 -6.6396375
000110 fa 16 d2 c0 25 46 d0 c0 01 28 ca c0 ec 42 c6 c0
       -6.5653048 -6.5085626 -6.3173833 -6.195669
000120 79 12 bb c0 7f aa b1 c0 89 54 9f c0 fb 9a 8c c0
       -5.846005 -5.5520625 -4.979069 -4.3939185
000130 cb 5a 73 c0 3b f6 60 c0 e1 a7 4c c0 7e 6d 2d c0
       -3.8024166 -3.5150287 -3.1977465 -2.7098079
000140 61 4e f5 bf 0d 67 90 bf 9a 39 cc be a9 97 48 3d
       -1.9164544 -1.1281449 -0.39887697 0.04897276
000150 c4 db 3b 3e 08 ff 28 bd 0e 44 18 bf 91 c2 b2 bf
       0.18345553 -0.04125884 -0.59478843 -1.3965627
000160 d6 17 10 c0 0f 57 3f c0 54 8b 63 c0 b0 ac 7e c0
       -2.2514548 -2.9896886 -3.555379 -3.97929
000170 9c b6 89 c0 33 93 92 c0 30 59 9b c0 93 f3 a4 c0
       -4.303541 -4.5804687 -4.854637 -5.154733
000180 25 0e b0 c0 8a 93 bc c0 d8 05 d0 c0 93 1e d6 c0
       -5.5017266 -5.89301 -6.5007133 -6.691232

RTD_f.1.weight f4 [1, 1, 3]
000000 ab aa aa 3e ab aa aa 3e ab aa aa 3e
       0.33333334 0.33333334 0.33333334
