output/A_P_S20_D15.pth (torch, 7428 bytes, 9 tensors)

rate_f.0.weight f4 [24, 3]
000000 f3 9c dd bd 38 e3 50 3e c1 dc 6a bd 38 90 c8 3d
       -0.10820951 0.20399177 -0.057339434 0.097931325
000010 c7 a4 6e be 0f 8a 90 3e 79 27 bc 3b 7a 42 04 bd
       -0.23305045 0.2823033 0.00574201 -0.03228996
000020 73 14 42 bd 57 1e 0c 3e 25 81 8b bb 23 8d 1c 3d
       -0.047382783 0.13683449 -0.0042573386 0.038220536
000030 8d 4b 15 3e eb 51 ab 3d 79 bb 3f bd 24 40 fc 3d
       0.14579602 0.08365234 -0.046809647 0.12316921
000040 fc a0 e1 3d b6 3f fa bd 22 0b cd bd bc e9 28 3e
       0.110170335 -0.12219183 -0.10011889 0.16495413
000050 4b e0 aa 3c 55 a6 bc 3d 8e eb e1 bd 44 e5 ca 3d
       0.020858904 0.09211413 -0.110312566 0.0990701
000060 ab ab 0b bb 1f 78 7d bc 74 71 c6 bb ae a1 7f bb
       -0.002131204 -0.015470534 -0.006056005 -0.003900628
000070 1a 4a 16 bc 3a 81 fa bb a0 98 19 3e 50 81 42 3e
       -0.009172941 -0.0076447995 0.14999628 0.18994641
000080 0a 0c 38 be 7e bd 14 3e a9 06 15 3e ea 0b 10 be
       -0.17973343 0.1452541 0.14553322 -0.14067045
000090 b1 c2 53 ba ad 51 c9 bb 46 1f 1f bc 81 50 b4 bd
       -0.00080780225 -0.0061437697 -0.009712046 -0.088044174
0000a0 f6 27 87 3e a0 85 01 be 3b 59 e5 bd d3 86 36 3e
       0.26397675 -0.1264863 -0.1119866 0.17824869
0000b0 8c f0 63 bd ca 9b 19 3a f6 3e 51 bc 8e 66 0e bc
       -0.055649325 0.0005859701 -0.012771359 -0.008691443
0000c0 2f 33 17 3e e5 f6 0f 3e 24 54 02 be df 05 df 3d
       0.14765619 0.14059027 -0.1272741 0.10889792
0000d0 bd 22 f5 bd 25 aa 2c 3e 70 1c 9f ba d6 6e 38 bb
       -0.119695164 0.1686178 -0.0012139212 -0.0028142235
0000e0 d6 c8 c6 ba 59 44 a5 3a bb 35 2f bb bd cc 10 bc
       -0.0015166055 0.001260887 -0.0026734907 -0.008837876
0000f0 90 aa e7 bd 9e b8 6b 3e 9b 28 90 bd 90 a7 11 3e
       -0.11311829 0.23019645 -0.07038995 0.14224076
000100 f2 ba 2c 3e 0f 2b 28 be cc a0 20 3e 28 de 9a 3d
       0.16868189 -0.16422676 0.15686339 0.07561904
000110 2d 3b cc bb 11 2b 17 3e c3 32 30 3e 02 2a 3e be
       -0.0062326402 0.14762522 0.17206864 -0.18570712

rate_f.0.bias f4 [24]
000000 80 0c 3d 3e 9a 34 b2 3d cd 75 29 ba ee e6 12 bd
       0.184618 0.08701439 -0.0006464392 -0.035864763
000010 ab b5 1d bc 10 23 28 bc b9 b7 43 3e 48 43 22 bd
       -0.009625833 -0.010262266 0.19113053 -0.039614946
000020 d7 48 bd bb 0c 4f bb bb d4 6f 99 bc b8 08 75 bc
       -0.0057765055 -0.00571621 -0.018730082 -0.014955692
000030 67 2b f1 bb df 23 3a 3e e4 d7 77 3e 6d eb 1b bc
       -0.0073599103 0.18177746 0.2420345 -0.009516579
000040 1d 0e 2f bc 99 d5 28 3c 70 fc 5f bb 0e 3a ef bb
       -0.010684517 0.010304832 -0.0034177564 -0.007300622
000050 c8 08 0f 3e d1 f5 19 bc 6f 8d b3 bc 00 36 ac bd
       0.13968194 -0.009396986 -0.021918027 -0.08408737

rate_f.2.weight f4 [24, 24]
000000 7f 74 b0 bd 5b 7b 67 be d0 11 1d bc f9 67 47 3d
       -0.0861597 -0.2260565 -0.009586766 0.04868314
000010 cd 68 b9 3d cd 46 16 3e a5 ee 17 be 6e d9 b0 bc
       0.09053192 0.14675446 -0.1483713 -0.021588054
000020 b1 b9 b6 3b e6 a3 1b 3b 7a c5 24 3e ca b8 0c 3e
       0.0055763354 0.0023748814 0.16090956 0.13742366
000030 3e 3b 18 3c 9d ba 6c bc 86 a4 86 bd 9b be c0 3b
       0.009291468 -0.014448789 -0.06574349 0.005882097
000040 40 fe 10 3e 37 e2 c0 bd 1f 7f 19 bc 12 46 46 3b
       0.14159489 -0.09418147 -0.009368687 0.0030254168
000050 a2 a9 9f bd 89 f5 2b 3e 3c bc 90 3d 62 ad 68 3e
       -0.07796027 0.16792883 0.07067153 0.2272239
000060 45 4f 28 3c 10 d0 46 3b 46 5d ad ba 00 8a e8 bb
       0.010272806 0.0030336417 -0.001322665 -0.007096529
000070 53 2c 0a 3b 3d 79 97 3a 06 e5 4b ba d1 31 2c bb
       0.0021083548 0.0011556518 -0.00077779626 -0.002627481
000080 d6 28 04 3c 25 fd a9 3a 84 be d3 ba ca 48 71 bb
       0.008066377 0.001296912 -0.00161548 -0.0036817067
000090 08 0d 2c bb 7b 24 20 bb 6f 0f b1 bb 6a cd e7 bb
       -0.0026252884 -0.0024435807 -0.005403451 -0.007074048
0000a0 ea 86 88 3b ed 1f c8 ba 6d 50 4b 3a 00 7b e9 38
       0.0041664736 -0.0015268304 0.000775582 0.00011133216
0000b0 c8 e8 98 3b 03 95 d9 b8 95 d4 08 bc 6f e1 ce bb
       0.0046664216 -0.00010375122 -0.008351465 -0.006313495
0000c0 f2 bd 9b ba 88 40 8e 3b 6b f7 e8 bb ed 70 5f bb
       -0.001188217 0.004341189 -0.0071095726 -0.0034094409
0000d0 1e 78 67 39 90 b0 22 3c 92 0b d8 ba 70 e9 05 3b
       0.00022074624 0.009929791 -0.001648294 0.002043333
0000e0 ec 6a 48 3c 58 1b d2 bb 3c b4 85 3b c2 36 af 3b
       0.012232523 -0.006411951 0.0040803235 0.005347104
0000f0 c1 16 19 bc b4 96 98 bb 1d 5e 1a bc 28 66 12 bc
       -0.009343804 -0.004656637 -0.009421852 -0.008935489
000100 67 79 31 bb f5 b5 2e bb ef 7c 23 3c dc b7 42 3b
       -0.0027080418 -0.0026658748 0.009978517 0.002971164
000110 0b 83 89 bb 97 16 d1 bb a6 4f 81 bb 0b 6a 45 bb
       -0.0041965297 -0.0063808667 -0.0039462624 -0.003012302
000120 83 41 47 3b 84 da 20 3a bc c2 84 3b 6d 99 7a 3b
       0.0030404038 0.0006136077 0.0040515345 0.0038238422
000130 ae f1 f1 3a 6c a9 3d bb 5a 8a 9d bb eb c2 25 bc
       0.0018458867 -0.0028940095 -0.0048077526 -0.010117273
000140 d7 4e 69 37 ff 0f 8b 3b 6f f9 98 3a eb a4 84 ba
       1.3906239e-05 0.0042438502 0.0011671017 -0.001011995
000150 41 9e c8 bb a8 87 ad b9 b3 77 45 bb 39 c3 d3 bb
       -0.006122381 -0.00033098203 -0.003013116 -0.0064624813
000160 6e 5d ab 3a 6a 55 ed ba c0 03 e4 3a 57 de 96 bb
       0.0013074109 -0.001810712 0.0017396137 -0.0046041417
000170 35 e1 aa ba 35 e0 36 bb c2 2d d8 ba b6 40 ae bb
       -0.0013037088 -0.0027904634 -0.0016493129 -0.0053177727
000180 2c 82 61 bb 64 fd 0e bc ab f5 15 3b b0 39 83 3b
       -0.0034409864 -0.008727405 0.0022882025 0.0040046796
000190 84 5c 2e bb a0 29 ae bb c2 c2 30 bb c5 7f 48 3c
       -0.0026605437 -0.0053150207 -0.0026971553 0.012237494
0001a0 ff fa 47 3b 2f 7b 44 3a 16 3c 01 3b a2 d1 66 bb
       0.0030514596 0.00074951624 0.0019719652 -0.0035220166
0001b0 2d 6f 15 bc 22 b7 4c ba 43 55 1a 3b 37 a8 c5 3b
       -0.009120745 -0.00078092713 0.0023549355 0.0060320157
0001c0 10 82 26 bb a3 ca 9a ba 35 2b 08 bb 4d 70 40 3b
       -0.0025407113 -0.0011809658 -0.0020777707 0.0029363811
0001d0 c0 0d 98 3b 51 dc c3 3a 12 31 f9 bb e4 65 48 ba
       0.004640311 0.0014942979 -0.0076047266 -0.00076445774
0001e0 bd 5d 43 be 6d 5c 2c 3e b5 d3 e8 b8 22 fc 01 3e
       -0.19078727 0.16832133 -0.000111020556 0.12693837
0001f0 9b 86 f5 3d c4 fb cf 3d e2 8a 46 be bf 2e 2e 3e
       0.119885646 0.10155442 -0.19388917 0.1701002
000200 3a 0e 7f bb 80 03 b9 39 98 48 9f 3d 34 e1 ce 3d
       -0.0038918392 0.00035288557 0.07777518 0.10101548
000210 0b 28 85 39 c8 3e 72 be 1f e5 61 be 0b 98 4e 3a
       0.0002539757 -0.23656762 -0.22060059 0.00078809325
000220 a7 55 ae 3d 6a 28 2a 3e cc 88 57 3a 47 68 54 3b
       0.08512431 0.16616979 0.00082219834 0.0032410787
000230 71 ac 52 be b1 3b 8c 3d 42 62 e1 3d c7 e1 78 3d
       -0.20573594 0.06847323 0.11005069 0.060762193
000240 85 b1 41 3a 22 b9 57 39 fd 57 0c 39 45 94 d5 b9
       0.0007388818 0.00020572965 0.00013384219 -0.00040736995
000250 6f c5 85 bc 25 da 0d bc 4d 36 56 bb bb ea a4 3b
       -0.016329495 -0.008657967 -0.0032686174 0.005032865
000260 c0 2a 39 bb 87 ad f5 3a 45 e8 8e bb a0 1e 2e 3b
       -0.002825424 0.0018743732 -0.004361185 0.0026568547
000270 3a c7 4b 3b e4 62 83 3c 16 63 f4 ba 45 7a f8 ba
       0.003109409 0.016038366 -0.0018645253 -0.0018957338
000280 d6 c5 63 bc 82 64 af ba fc ff 83 bb 4f 08 13 ba
       -0.013902148 -0.0013381394 -0.0040283184 -0.0005608843
000290 2b 7c f8 3b 0b 98 93 ba b8 78 cf bb 93 c3 29 3b
       0.0075831614 -0.0011260522 -0.0063315295 0.0025903925
0002a0 63 1e 4d 3e 01 5b eb be 17 a9 d2 3b 8b a5 8d bd
       0.20031123 -0.45967868 0.0064288485 -0.069163404
0002b0 0a 8e 96 3d 11 77 35 3e 10 49 df 3d 55 11 7b be
       0.073513106 0.17721201 0.109026074 -0.2451833
0002c0 78 da 95 bc 68 62 2d 3c 1b 6b 7d 3e 1b 19 51 3e
       -0.01829265 0.010582544 0.24747889 0.20419733
0002d0 da fa 47 3a 99 f8 94 3e 6a 0b 23 3e 35 df 21 38
       0.00076286274 0.29095915 0.15922323 3.859327e-05
0002e0 7e b2 28 3e 13 6a a3 be ce 9d 56 3a d0 81 15 bc
       0.1647434 -0.31916866 0.0008186967 -0.009125188
0002f0 42 b3 80 3e 3a 2a 66 3e 99 be a8 3c 0b d7 91 3e
       0.25136763 0.22477046 0.020598697 0.28484377
000300 90 50 b5 bb 1b 50 93 3b 82 9c 79 b9 91 f5 83 bb
       -0.0055332854 0.0044956333 -0.00023804794 -0.0040270765
000310 fc 3d 89 39 8a f5 6e bc 07 be 1c 3c 44 3e f7 3a
       0.00026176858 -0.014584908 0.00956679 0.0018863161
000320 5c 7a 74 3b 71 06 fd bb 90 fd 51 bc 0f ff d2 3b
       0.0037304377 -0.007721715 -0.012816802 0.0064390968
000330 c8 a0 90 bb 45 23 2c 3b 2d c9 1f bc 79 ed aa ba
       -0.004413698 0.002626614 -0.009752554 -0.0013040743
000340 49 0f 79 3a 5d 5f 01 bc 59 5f 04 3c d2 1b 3d 39
       0.0009500874 -0.0078962715 0.008079373 0.00018034808
000350 76 74 fd b9 29 16 fc bb fe cc 97 b9 34 f6 a2 b9
       -0.0004834269 -0.0076930714 -0.00028953695 -0.00031082483
000360 39 7c 05 bc f4 3a f2 3a 0c 64 75 bb bd ba c4 bb
       -0.008147293 0.0018480704 -0.0037443666 -0.0060037063
000370 33 2c cb bb 0d 18 bb 3b 9a 5b 63 ba 3b e1 9f bb
       -0.0062003373 0.005709654 -0.00086730125 -0.0048791445
000380 22 5e 94 3b 8b fc a4 b9 dc cb 03 bb 32 67 e9 3b
       0.004527823 -0.00031468677 -0.0020110523 0.0071228975
000390 75 cf 37 3c b6 57 80 bb 70 77 da bb 01 a2 29 bb
       0.011218895 -0.003916706 -0.00666707 -0.0025883915
0003a0 df 47 7b 3b 81 14 5f ba 26 fc 8c 3b 99 8d b2 bb
       0.00383424 -0.000850983 0.0043025194 -0.0054490087
0003b0 43 82 91 bb 17 bb 3a bb df a2 f9 bb f0 b8 94 bb
       -0.0044405772 -0.0028492862 -0.0076182927 -0.004538648
0003c0 2e f6 1a be c9 f4 fe bd 51 ed 06 3c dc 0e 15 3e
       -0.15132973 -0.12449033 0.008235292 0.1455645
0003d0 c8 e8 02 3e ed cd 08 3e be e1 13 be d6 9c 6f 3d
       0.12784111 0.13359804 -0.14441583 0.05849918
0003e0 91 7b 2c bc e6 bc ca 3b c4 59 3f 3e c1 b2 34 3e
       -0.010527507 0.006187069 0.18686587 0.17646314
0003f0 4e 3f bd 39 b4 1f e1 bd 47 5f 2e be 39 f4 95 bb
       0.00036096055 -0.10992375 -0.17028533 -0.0045762327

rate_f.2.bias f4 [24]
000000 65 45 5f bc 36 6f 78 bb 32 d3 ba bb 00 00 00 00
       -0.013627385 -0.0037908084 -0.005701446 0.0
000010 12 fc 96 bb 1e 33 8d bb a2 27 c5 bb 19 f7 3c bd
       -0.004607686 -0.004309072 -0.0060166875 -0.04613409
000020 22 96 d5 bb ec cf 8f bb 68 12 8b bd 5f 1a 06 bd
       -0.0065181414 -0.0043888 -0.0679062 -0.032739993
000030 d6 d9 59 bd d9 f1 e4 bc 8b 61 cb bb 89 02 20 bb
       -0.05318626 -0.027947353 -0.0062066964 -0.0024415574
000040 a9 6a 18 bc 5a 4d 7d 3d 4d 50 c6 bb 99 47 2a bd
       -0.0093027735 0.061841346 -0.006052053 -0.041572187
000050 f6 25 91 3d 46 3a c6 bb 50 6a da bb 83 f8 6d bd
       0.070873186 -0.006049427 -0.0066655055 -0.058098327

rate_f.4.weight f4 [3, 24]
000000 da 6a f4 bd 9d f1 d0 3b 60 27 2f bb d6 6a 26 3b
       -0.11934443 0.006376459 -0.002672635 0.002539327
000010 c7 e0 7c bb 6a 01 2c be b8 4e 44 3a e6 ca 3c 3d
       -0.0038586126 -0.16797414 0.00074885366 0.046091937
000020 24 13 f9 ba aa 7b b2 3b 37 41 3d be fe e9 27 be
       -0.0019002897 0.005446871 -0.18481909 -0.16397855
000030 53 62 24 be 33 f2 c4 bd 73 42 f1 bb 3c ef 84 3a
       -0.16053133 -0.09616508 -0.0073626577 0.0010142098
000040 4e 06 29 3b 17 0b d6 bd 24 42 15 3c 92 83 28 be
       0.0025791111 -0.10451334 0.009110007 -0.1645644
000050 2a 87 cd bd 56 b7 04 b9 ac a5 f7 bb f5 37 4f be
       -0.10035546 -0.00012656799 -0.0075575914 -0.2023619
000060 a8 80 62 bd f9 90 18 bc 12 17 db 3b f3 09 24 bc
       -0.055298477 -0.009311908 0.0066861 -0.010012138
000070 68 bc 9f ba e5 36 43 3d 17 24 15 bb 5c 0d 5f be
       -0.0012186887 0.047659773 -0.0022757107 -0.2178244
000080 c0 71 63 3b 73 3f a5 ba 27 1c dd bc 98 43 5f 3c
       0.0034705251 -0.001260741 -0.026990963 0.013626955
000090 74 3b 74 bc c4 bd 07 3c ef 45 47 3c 04 65 4b 3b
       -0.014906753 0.00828499 0.01216267 0.0031035552
0000a0 9b 3a 43 3c b3 fb 0f 3d 57 7a d4 b8 84 49 c3 bb
       0.011915828 0.03515215 -0.00010131735 -0.0059596915
0000b0 d2 1d 2d 3d 84 0e 3f 3c 3e 3c 8f bb 99 7c 73 3c
       0.042264767 0.011661176 -0.004371195 0.014861249
0000c0 c6 62 d2 3c c4 3c 71 3b 53 8d 54 3b e5 02 98 3a
       0.025681864 0.00368099 0.0032432869 0.0011597542
0000d0 47 c3 b3 3b d5 1b 18 bd 0e 06 a4 39 98 98 cf 3d
       0.0054859254 -0.037135918 0.0003128503 0.10136527
0000e0 ca 76 74 3b 60 1d 23 ba bc b1 5b 3d 09 41 ff bb
       0.003730225 -0.0006222334 0.053636298 -0.007789735
0000f0 c2 99 50 3d 6e b1 ba 3d 7a 3c e0 ba c7 8f d2 ba
       0.050927885 0.09115873 -0.0017107867 -0.0016064578
000100 1e cb f9 3c 88 bb 32 bd 6d b5 c8 3a 5d c6 fd 3b
       0.030492362 -0.043635875 0.0015312858 0.007744594
000110 22 7d 12 bd b3 76 aa bb f1 d8 e5 bb ca 31 b4 bb
       -0.035763867 -0.0052021383 -0.007014387 -0.0054990994

rate_f.4.bias f4 [3]
000000 d2 30 79 ba 7e 0f a4 3c 8c e0 02 bc
       -0.0009505871 0.020026919 -0.007988106

RTD_f.0.weight f4 [100, 1]
000000 99 ec fa 3d d3 c3 5e 3e 0d 2a 35 3e f7 1f 3c 3e
       0.12252159 0.21754389 0.17691822 0.18371569
000010 8d 09 40 3e 80 c8 46 3e 2e 7b 4a 3e 2c de 50 3e
       0.18753643 0.19412422 0.19773552 0.20397252
000020 1f 7c 54 3e d5 27 5b 3e 24 e3 5d 3e 09 95 62 3e
       0.20750473 0.21401913 0.21668679 0.22127165
000030 0f 4e 63 3e 49 be 65 3e 92 5d 63 3e 44 70 63 3e
       0.22197746 0.2243587 0.22203663 0.22210795
000040 33 34 60 3e 35 b1 60 3e be 8f 5d 3e c9 a3 5b 3e
       0.21894912 0.21942599 0.21636865 0.21449198
000050 18 ae 55 3e 1e fc 50 3e 02 02 4b 3e ef 58 46 3e
       0.20867193 0.20408675 0.19824985 0.19369863
000060 4f f0 3e 3e ff 32 38 3e 88 a1 2d 3e d3 59 26 3e
       0.18646358 0.17988203 0.1695615 0.16245203
000070 d6 82 18 3e a7 22 13 3e 6e 9c fe 3d 0e 53 fb 3d
       0.1489366 0.14368688 0.1243218 0.12271701
000080 0d dd c1 3d 33 3e d0 3d 3f e2 87 3d 20 87 a9 3d
       0.0946599 0.101681136 0.0663495 0.08277726
000090 ef aa f2 3c 18 2d 58 3d 74 5e 28 ba b5 ff 26 3d
       0.029622523 0.05277738 -0.0006422766 0.040771205
0000a0 59 f9 99 bc da 0c 32 3c 98 de 36 bd ce 68 89 3c
       -0.018795656 0.010867322 -0.044645876 0.016773608
0000b0 9b 22 81 bc eb f6 cf 3c e3 1f 2d bd 92 1b a8 bc
       -0.015763571 0.025386294 -0.042266738 -0.020520959
0000c0 43 6a 9c bd 7f 48 8a bd a4 c0 ef bd 0f e3 00 be
       -0.07637455 -0.06752109 -0.11706665 -0.12586616
0000d0 1d 97 22 be d1 87 2c be 3a 77 4d be 40 bd 6a be
       -0.15877958 -0.16848685 -0.20065013 -0.22923756
0000e0 fd 52 84 be 83 a8 8a be a3 b4 8e be 0c b6 91 be
       -0.25844565 -0.2708169 -0.2787219 -0.28459203
0000f0 d8 95 97 be 46 1d 9d be 34 c9 a5 be 43 3b ad be
       -0.2960651 -0.30686396 -0.32380068 -0.33834276
000100 15 90 b7 be 8c 7e be be c0 73 c9 be 9a 29 cc be
       -0.35852113 -0.37205923 -0.39346123 -0.3987549
000110 88 25 d6 be e2 e1 d2 be 14 09 de be a5 a7 d2 be
       -0.4182551 -0.4118796 -0.433663 -0.41143528
000120 53 48 d1 be b2 e6 b1 be 3b 49 99 be 92 6f 65 be
       -0.40875491 -0.3474632 -0.29938683 -0.22405842
000130 17 b5 cb bd 5b 6e 19 3d 3e 99 8e 3e 91 78 14 3f
       -0.099466495 0.03745876 0.2785129 0.5799647
000140 dc 7d 75 3f 19 19 a8 3f 30 0c c6 3f dd 4b cc 3f
       0.9589517 1.3132659 1.5472469 1.5960652
000150 46 2f bb 3f 3c 50 94 3f a1 09 47 3f e7 b2 cf 3e
       1.4623802 1.1586986 0.7774907 0.4056618
000160 74 49 d7 3d 09 1a f4 bd ee d3 92 be fe 57 d6 be
       0.10512057 -0.11919028 -0.28677315 -0.41864008
000170 46 e2 06 bf 20 52 1e bf b0 09 33 bf bb 5d 48 bf
       -0.52689016 -0.6184406 -0.69936657 -0.7826802
000180 08 a4 60 bf ed 99 7a bf 7d 1b a7 bf b5 1d 6e bf
       -0.8775029 -0.9789112 -1.3055264 -0.9301408

RTD_f.0.bias f4 [100]
000000 b1 b4 e6 c0 ac 14 e5 c0 fa 4b e3 c0 39 18 e2 c0
       -7.209557 -7.1587734 -7.1030245 -7.065457
000010 bc 8f e0 c0 21 6c df c0 8e 04 de c0 1b eb dc c0
       -7.0175457 -6.9819493 -6.938056 -6.9036994
000020 a9 91 db c0 77 6a da c0 75 44 d9 c0 85 57 d8 c0
       -6.861531 -6.825496 -6.7896066 -6.7606835
000030 67 9e d7 c0 9b f9 d6 c0 3f ac d6 c0 91 2d d6 c0
       -6.738086 -6.7179694 -6.708526 -6.6930623
000040 66 ec d5 c0 3f 4e d5 c0 5a 01 d5 c0 5d 8d d4 c0
       -6.685107 -6.6658015 -6.656415 -6.6422563
000050 ae 6e d4 c0 02 2c d4 c0 41 ee d3 c0 67 89 d3 c0
       -6.6385107 -6.630372 -6.6228337 -6.6105227
000060 a3 29 d3 c0 3f d5 d2 c0 ec 86 d2 c0 a2 29 d2 c0
       -6.5988326 -6.588531 -6.57897 -6.567582
000070 00 db d1 c0 2b 38 d1 c0 f4 f6 d0 c0 cc e9 cf c0
       -6.5579834 -6.5381064 -6.5301456 -6.4972897
000080 c9 e0 cf c0 a8 0b ce c0 55 d7 cd c0 e3 4d cb c0
       -6.4961896 -6.438923 -6.4325356 -6.3532577
000090 ce d2 cb c0 27 1e c9 c0 08 d5 c8 c0 47 1f c5 c0
       -6.369483 -6.2849307 -6.276005 -6.160068
0000a0 32 d5 c5 c0 c6 f6 c4 c0 53 bb c5 c0 6a a9 c2 c0
       -6.182275 -6.1551237 -6.1791167 -6.0831804
0000b0 47 95 c1 c0 85 a6 bf c0 fe e9 c2 c0 b4 ff bf c0
       -6.0494723 -5.989077 -6.0910635 -5.9999638
0000c0 fe 33 c2 c0 00 01 c0 c0 a5 dc c3 c0 51 2a c3 c0
       -6.0688467 -6.000122 -6.120684 -6.0989156
0000d0 d3 e7 c4 c0 5e 07 c4 c0 01 06 c5 c0 ad 0a c6 c0
       -6.153299 -6.1258993 -6.156983 -6.188803
0000e0 db 50 c8 c0 a6 f2 ca c0 c3 15 cf c0 f6 15 d3 c0
       -6.25987 -6.34212 -6.4714065 -6.596431
0000f0 b0 6c d5 c0 98 b6 d7 c0 df e5 d7 c0 40 96 d8 c0
       -6.6695175 -6.7410393 -6.7468104 -6.768341
000100 46 a8 d8 c0 76 48 d7 c0 5a af d8 c0 f5 e7 d3 c0
       -6.770541 -6.7275953 -6.771405 -6.622065
000110 73 fd d5 c0 ff e8 cc c0 f8 3c cf c0 b3 1b c0 c0
       -6.6871886 -6.403442 -6.4761925 -6.0033813
000120 01 9e ba c0 4e 4b a4 c0 4c 0a 97 c0 46 6c 88 c0
       -5.8317876 -5.1341925 -4.720007 -4.263217
000130 4c 23 75 c0 fa 94 5e c0 1a 2c 3b c0 26 b6 13 c0
       -3.8302794 -3.4778428 -2.9245667 -2.3079925
000140 36 8e c9 bf c3 dc 5b bf ed 3a c3 be 24 00 5f be
       -1.5746524 -0.8588373 -0.38130894 -0.21777397
000150 ba df 98 be 2c bc 23 bf ce 9e 97 bf ad b2 ef bf
       -0.2985819 -0.63959 -1.1845338 -1.8726403
000160 89 26 24 c0 2c 5d 49 c0 f6 f3 64 c0 d8 66 79 c0
       -2.564852 -3.1463118 -3.5773902 -3.896902
000170 f6 93 84 c0 db f8 8a c0 92 d2 90 c0 e7 63 98 c0
       -4.1430616 -4.342878 -4.5257044 -4.762195
000180 e7 8c a3 c0 26 e7 b2 c0 5f fd cc c0 f6 6a d4 c0
       -5.11095 -5.5907164 -6.405929 -6.6380568

RTD_f.1.weight f4 [1, 1, 3]
000000 ab aa aa 3e ab aa aa 3e ab aa aa 3e
       0.33333334 0.33333334 0.33333334
