output/A_P_S10_D10.pth (torch, 7428 bytes, 9 tensors)

rate_f.0.weight f4 [24, 3]
-0.0017030225 0.2799548 -0.3151894 0.12191415 0.08565777 -0.12328916 0.13759428 0.08945705
-0.049475327 -0.0033963805 -0.007872105 -0.007893004 -0.11391379 0.24014619 -0.08648971 -0.006414656
-0.012353931 -0.0060120416 0.14988613 0.08832729 -0.035647716 0.12551312 0.16632079 -0.18707323
-0.0044558235 -0.001636606 -0.010148019 0.0009024286 -0.0068722335 -0.013157015 -0.11074213 0.25603145
-0.12970589 0.14026573 0.14854082 -0.12946224 0.0025963779 0.035256147 -0.16141842 0.14959578
0.11652301 -0.07388478 0.118442506 0.22161806 -0.22106548 0.13625376 0.12934321 -0.10131885
-0.0026732283 -0.010933078 -0.0049053403 0.14968435 -0.09625542 0.20020702 0.123786 0.13320445
-0.19226693 0.013369024 0.017827678 -0.08456031 -0.00040041376 -0.004133327 -0.010603861 -0.11347068
0.2686666 -0.106205575 -0.11059034 0.23414849 -0.061436556 -0.10351889 0.25707403 -0.07816775
00000000: f437 dfba 3c56 8f3e 8160 a1be 20ae f93d
00000010: 576d af3d 077f fcbd 84e5 0c3e 4235 b73d
00000020: a4a6 4abd cf95 5ebb 00fa 00bc a951 01bc
00000030: a24b e9bd e2e8 753e 8421 b1bd 0932 d2bb
00000040: 2468 4abc a900 c5bb c07b 193e f0e4 b43d
00000050: 5703 12bd 8386 003e ff4f 2a3e 2090 3fbe
00000060: 2802 92bb 6283 d6ba e043 26bc f590 6c3a
00000070: 7930 e1bb 8590 57bc c5cc e2bd 8e16 833e
00000080: 9fd1 04be d2a1 0f3e 161b 183e c091 04be
00000090: fe27 2a3b c068 103d df4a 25be a32f 193e
000000a0: 9ea3 ee3d e750 97bd fc91 f23d d8ef 623e
000000b0: fd5e 62be 1b86 0b3e 8c72 043e 4280 cfbd
000000c0: 5431 2fbb a720 33bc fabc a0bb db46 193e
000000d0: 9021 c5bd 1203 4d3e 8483 fd3d bf66 083e
000000e0: 9fe1 44be c009 5b3c 5a0b 923c f52d adbd
000000f0: a0ee d1b9 dc70 87bb d1bb 2dbc 5163 e8bd
00000100: ab8e 893e 4f82 d9bd 307d e2bd 9fc4 6f3e
00000110: e6a4 7bbd b601 d4bd 359f 833e 6a16 a0bd

rate_f.0.bias f4 [24]
0.079555765 -0.11626656 -0.016953345 -0.0025527738 0.19994912 -0.00972408 -0.041912913 -0.061242986
-0.005586477 0.0 0.1662131 -0.017482257 0.07307419 -0.0061913817 -0.021128923 -0.043357115
-0.009654316 0.05356444 -0.08499826 0.030955533 -0.0047283415 0.117252916 0.14481747 0.11399386
00000000: 22ee a23d 2a1d eebd bee1 8abc 704c 27bb
00000010: 76bf 4c3e bf51 1fbc e0ac 2bbd edd9 7abd
00000020: c40e b7bb 0000 0000 c433 2a3e f336 8fbc
00000030: eca7 953d 13e1 cabb 9016 adbc 3b97 31bd
00000040: 232d 1ebc 6366 5b3d 9113 aebd 7596 fd3c
00000050: 34f0 9abb 4c22 f03d 084b 143e 9d75 e93d

rate_f.2.weight f4 [24, 24]
0.14135551 0.14407082 0.09928516 -0.0009459475 -0.007465967 -0.0037152558 0.107905105 0.1289945
-0.0044346093 -0.0028705534 0.007019006 0.1255838 -0.022224026 0.11220671 0.14598171 0.105162166
-0.003620972 0.005663189 0.15052645 -0.017150458 0.0039970353 -0.014733228 -0.030228414 0.0006523646
-0.03247701 0.18221393 0.13741662 0.0059844903 -0.20861147 -0.007944369 0.13874787 0.13425368
0.009364718 0.0054109767 -0.19894318 0.11855928 0.059118733 0.13866611 0.11507748 0.11808539
0.0025419109 0.08260789 0.16038927 0.0617447 0.0016005054 -0.20417143 -0.22098237 -0.20177907
0.44206366 0.105730124 0.0023662671 0.008191708 0.24197139 -0.0032268628 -0.029499197 0.15947402
0.00047431223 0.0054208175 0.28826544 0.080141015 0.17186971 0.018191187 0.21577442 0.065640956
-0.0005031805 -0.36448592 0.10225204 0.09862843 0.001536181 0.3107128 0.241202 0.29837403
-0.005357586 -0.010746539 -0.011323134 -0.0032443525 0.006848401 0.0018948193 -0.014118682 -0.010393524
0.0056372914 -4.524781e-06 0.002884964 -0.004271708 0.0003231515 -0.0050925575 -0.00042708134 0.0053627244
0.0058846474 -0.0023534195 -0.010068088 0.008382056 -0.00851151 0.0010481529 0.0020379184 0.0055371225
0.24192819 0.1672598 0.098581366 0.005678263 0.019933349 0.0002806878 0.10058651 0.1724736
-0.0020165949 0.009695238 0.059806693 0.14404598 -0.014221524 0.10943788 0.184444 0.10965948
0.008519562 -0.069107585 0.19007753 -0.019873936 0.004956267 0.058917955 0.026981963 0.013013601
0.05074845 0.21861614 0.12879741 0.0058908165 -0.1817103 -0.008551272 0.16437325 0.17255741
-0.005949064 -0.0041285157 -0.178759 0.15466112 0.02240955 0.12904109 0.15380128 0.14892042
-0.0050662165 0.045789227 0.199153 0.025181439 0.0026756197 -0.16093877 -0.17430635 -0.16669534
-0.001679024 0.0037802209 0.006218444 0.0024227018 -0.0017655357 -0.0063042175 -0.006570699 -0.0019371266
-0.0026134362 -0.00060760777 0.0030552181 -0.0057796547 -0.009145345 -0.0018284321 0.0028358737 -0.008831697
-0.0074511063 -0.0018118685 0.007381623 0.0009259196 0.0033656491 0.004438945 -0.00036876238 0.0056655994
-0.0063458183 -0.009160082 -0.0022413712 0.0070476313 -0.0013853224 -0.014616808 -0.0086077945 0.0025086566
-0.007449879 -0.0005303704 0.010180903 -0.0037251913 -0.0011955623 -0.010976232 0.00032064805 -0.0005146731
-0.0029955793 0.001861515 -0.0029243904 -0.008471069 0.0038148803 -0.0032430002 8.892234e-05 -0.0007778419
-0.0087034805 -0.007638368 -0.00071794126 0.008769613 -0.006113287 -0.0035374032 0.0061097615 -0.005619057
-0.003971566 0.00565594 0.0022856286 -0.0028053382 -0.0008518503 -0.006656819 -0.007527346 0.0081758145
0.00055073743 0.0030117496 0.009791195 -0.00845846 0.000187846 -0.003218614 0.0012893545 -0.00046852825
0.0020586404 0.0033274742 0.0035401068 -0.003121651 -0.0015233648 -7.953216e-05 0.0057085813 0.0009678758
0.0013872882 0.00706584 0.003305541 -0.014553382 0.0037009297 -0.001683144 -0.0077984906 -0.011248627
0.010412808 0.010235885 -0.0027039472 0.010191637 -0.0050830306 -0.0011175509 0.004228151 0.0017652538
0.004007812 0.00039748297 -0.0063570607 -0.0011007491 -0.003675843 -0.015442286 0.014328721 -0.0015001094
-0.0029187717 0.00042224035 0.007385519 -0.00027342024 0.0059385346 -0.009166909 -0.0028165858 0.006899703
00000000: 80bf 103e 4d87 133e 0556 cb3d 76f9 77ba
00000010: 12a5 f4bb a67b 73bb 5afd dc3d 2217 043e
00000020: 3350 91bb e51f 3cbb b1ff e53b 0a99 003e
00000030: 290f b6bc a2cc e53d 3b7c 153e 435f d73d
00000040: d44d 6dbb 4692 b93b 9b23 1a3e 1e7f 8cbc
00000050: 90f9 823b a363 71bc 94a1 f7bc 7203 2b3a
00000060: 9d06 05bd 4a96 3a3e f1b6 0c3e 8b19 c43b
00000070: 3f9e 55be 1929 02bc ec13 0e3e cc79 093e
00000080: 796e 193c 904e b13b c3b7 4bbe 35cf f23d
00000090: 7c26 723d 7dfe 0d3e bead eb3d c1d6 f13d
000000a0: 3096 263b 532e a93d 163d 243e 03e8 7c3d
000000b0: 0dc8 d13a 5112 51be 3449 62be 2c9f 4ebe
000000c0: 2b56 e23e 0989 d83d 6013 1b3b 8336 063c
000000d0: 59c7 773e c679 53bb 4da8 f1bc 284d 233e
000000e0: 1cad f839 1da1 b13b 8797 933e f920 a43d
000000f0: 9dfe 2f3e af05 953c f8f3 5c3e c46e 863d
00000100: dfe7 03ba e69d babe 8469 d13d b4fd c93d
00000110: ae59 c93a c015 9f3e a8fd 763e 7bc4 983e
00000120: b08e afbb 4012 30bc ab84 39bc 349f 54bb
00000130: 8d68 e03b 965b f83a 0b52 67bc 9949 2abc
00000140: 07b9 b83b 93d3 97b6 aa11 3d3b aff9 8bbb
00000150: a96c a939 78df a6bb e3e9 dfb9 cbb9 af3b
00000160: 00d4 c03b d43b 1abb 9ff4 24bc e454 093c
00000170: dc73 0bbc 2d62 893a 998e 053b c070 b53b
00000180: 06bc 773e 2746 2b3e 07e5 c93d b910 ba3b
00000190: 434b a33c 4729 9339 4d00 ce3d eb9c 303e
000001a0: d928 04bb c7d8 1e3c ddf7 743d ca80 133e
000001b0: 6501 69bc f820 e03d e3de 3c3e 2695 e03d
000001c0: a295 0b3c 4788 8dbd afa3 423e aace a2bc
000001d0: 2e68 a23b f453 713d 4709 dd3c 0037 553c
000001e0: 9bdd 4f3d e9dc 5f3e 78e3 033e c007 c13b
000001f0: 4412 3abe a21a 0cbc 7651 283e e4b2 303e
00000200: 5ef0 c2bb 8048 87bb 990c 37be 7c5f 1e3e
00000210: 3c94 b73c 5923 043e 157e 1d3e 987e 183e
00000220: 8102 a6bb 7c8d 3b3d c4ee 4b3e 4e49 ce3c
00000230: 7359 2f3b 22cd 24be 5d7d 32be 2fb2 2abe
00000240: b212 dcba 95bd 773b 17c4 cb3b 31c6 1e3b
00000250: 8c69 e7ba 9c93 cebb 054f d7bb 2fe7 fdba
00000260: 2f46 2bbb de47 1fba 0e3a 483b 4263 bdbb
00000270: 5bd6 15bc 00a8 efba 11da 393b d2b2 10bc
00000280: 6928 f4bb 387c edba 8be1 f13b 6ab9 723a
00000290: 3992 5c3b 9274 913b 7356 c1b9 7ea6 b93b
000002a0: 95f0 cfbb 2b14 16bc f8e3 12bb d1ef e63b
000002b0: b593 b5ba 567b 6fbc b507 0dbc 4668 243b
000002c0: 1d1e f4bb 8e08 0bba cdcd 263c 5722 74bb
000002d0: 6ab4 9cba a7d5 33bc a71c a839 21eb 06ba
000002e0: 7b51 44bb 14fe f33a 21a7 3fbb 3dca 0abc
000002f0: 1203 7a3b 8488 54bb d17b ba38 16e8 4bba
00000300: 0b99 0ebc 464b fabb 3934 3cba 6cae 0f3c
00000310: f851 c8bb c7d3 67bb 6534 c83b 1120 b8bb
00000320: e923 82bb 7755 b93b 7cca 153b c4d9 37bb
00000330: b54e 5fba 7221 dabb f4a7 f6bb daf3 053c
00000340: 5d5f 103a c660 453b 406b 203c 5a95 0abc
00000350: 87f8 4439 62ef 52bb 8fff a83a cca4 f5b9
00000360: 41ea 063b c111 5a3b 2301 683b 9d94 4cbb
00000370: a4ab c7ba 81ca a6b8 0d0f bb3b 0cb9 7d3a
00000380: abd5 b53a 9088 e73b c6a1 583b 4f71 6ebc
00000390: 4c8b 723b f19c dcba 7b8a ffbb 294c 38bc
000003a0: 7b9a 2a3c 6ab4 273c b534 31bb d3fa 263c
000003b0: 8d8f a6bb c97a 92ba 4d8c 8a3b 1760 e73a
000003c0: f753 833b 4365 d039 e44e d0bb 0347 90ba
000003d0: 69e6 70bb a401 7dbc 03c3 6a3c 529f c4ba
000003e0: dd48 3fbb 2460 dd39 3902 f23b d859 8fb9
000003f0: 0a98 c23b ce30 16bc 7896 38bb e716 e23b

rate_f.2.bias f4 [24]
0.018089548 -0.02925087 -0.0042134286 -0.006087048 -0.0030663027 -0.065613 -0.005905326 -0.006299416
-0.0055513894 -0.0060728956 -0.006751167 -0.052710447 -0.005297115 -0.022008497 -0.006215428 -0.0036718014
-0.00602724 -0.00012997829 0.09679216 -0.0070135747 -0.0053762426 -0.0054743253 -0.049991887 -0.0055757714
00000000: 8830 943c 859f efbc cd10 8abb dc75 c7bb
00000010: 06f4 48bb 1c60 86bd 7781 c1bb 556b cebb
00000020: 6ee8 b5bb 24ff c6bb e538 ddbb e9e6 57bd
00000030: 6c93 adbb 2a4b b4bc caaa cbbb 9ba2 70bb
00000040: 2780 c5bb c84a 08b9 f83a c63d 21d2 e5bb
00000050: 312b b0bb f861 b3bb 4bc4 4cbd f6b4 b6bb

rate_f.4.weight f4 [3, 24]
-0.087047115 -0.17955674 0.0900991 0.00336477 -0.09025036 -0.19290341 0.0013078231 0.00036772023
0.0046463734 -0.00030620155 0.009034498 -0.10687198 0.008544341 -0.18124638 0.014575731 -0.14529978
-0.009210625 -0.0003398468 -0.055900354 -0.011494941 -9.7525306e-05 0.0017228868 -0.13708468 0.007343665
-0.03156915 0.016561337 -0.14170878 -0.014545012 -0.052450903 -0.011897008 0.007705281 -0.007322967
-0.010235742 0.009353345 0.0052909274 -0.022539463 -0.008804589 0.013082985 0.0012557098 0.04179696
-0.008822179 8.44831e-06 0.0600239 -0.01643994 -0.0045623686 0.015264136 -0.017688524 -0.00851747
0.00065427605 -0.020765422 0.060526785 -0.015587624 0.019243553 0.0061906744 0.0029765859 0.008034394
-0.013501401 -0.013686355 0.0013568782 0.10577358 -0.0004271599 -0.04016994 0.006625151 -0.012302495
-0.011343271 0.0013903201 -0.05129957 0.012355074 -0.0074577434 -0.0039470936 0.08492419 0.00093157723
00000000: c245 b2bd b9dd 37be e085 b83d 7983 5c3b
00000010: 2ed5 b8bd 7988 45be 436b ab3a 93ca c039
00000020: 9b40 983b ad89 a0b9 6e05 143c b2df dabd
00000030: 90fd 0b3c a798 39be 0ccf 6e3c 77c9 14be
00000040: 29e8 16bc 772d b2b9 c5f7 64bd 4755 3cbc
00000050: 8086 ccb8 7dd2 e13a ed5f 0cbe 21a3 f03b
00000060: a74e 01bd a4ab 873c 1b1c 11be 344e 6ebc
00000070: c2d6 56bd abeb 42bc 957c fc3b 80f5 efbb
00000080: d0b3 27bc c63e 193c 845f ad3b aea4 b8bc
00000090: 1f41 10bc 045a 563c a196 a43a 4a33 2b3d
000000a0: e78a 10bc 37bd 0d37 9fdb 753d 0ead 86bc
000000b0: ec7f 95bb 6d16 7a3c 86e7 90bc dc8c 0bbc
000000c0: b983 2b3a 3f1c aabc efea 773d 3c63 7fbc
000000d0: a8a4 9d3c 24db ca3b d312 433b b1a2 033c
000000e0: fb34 5dbc bc3c 60bc 47d9 b13a d29f d83d
000000f0: 6ef4 dfb9 3c89 24bd cb17 d93b 6790 49bc
00000100: 20d9 39bc 673b b63a 7f1f 52bd f06c 4a3c
00000110: 1660 f4bb 9f56 81bb bcec ad3d 1735 743a

rate_f.4.bias f4 [3]
-0.013991195 0.03331348 -0.012735866
00000000: 533b 65bc b773 083d 18aa 50bc

RTD_f.0.weight f4 [100, 1]
0.15150076 0.28622562 0.21935517 0.23368178 0.23214096 0.24403377 0.2430428 0.25307894
0.2519189 0.26073343 0.25739664 0.2641225 0.2569001 0.26108232 0.24679253 0.25147352
0.23332743 0.24383175 0.22401609 0.239763 0.21643482 0.23003326 0.20325093 0.21780641
0.19387354 0.2087528 0.18235262 0.19998297 0.181218 0.20460206 0.18995684 0.20615849
0.18779165 0.18404736 0.16744758 0.15202731 0.14574152 0.11117612 0.10925086 0.07388154
0.096332364 0.062712215 0.078710854 0.03702154 0.053371385 0.01174907 0.021620944 -0.018759884
-0.0022829913 -0.04194609 -0.033336483 -0.06925522 -0.059328143 -0.09591936 -0.09302408 -0.12302932
-0.12173059 -0.14677924 -0.14930546 -0.167219 -0.16393875 -0.17299783 -0.17261846 -0.1918203
-0.18875508 -0.21274437 -0.19538288 -0.22786842 -0.18857862 -0.22545911 -0.15759903 -0.17934647
-0.08196406 -0.042573884 0.13128409 0.29837516 0.59617925 0.93643785 1.4375427 1.864992
2.0795302 1.8830756 1.3898062 0.7383165 0.2116281 -0.13937245 -0.3903692 -0.5426646
-0.70577157 -0.80021113 -0.91227835 -0.9850265 -1.0606451 -1.1234304 -1.1851288 -1.2400185
-1.2775351 -1.2910255 -1.5230262 -1.0364066
00000000: 0423 1b3e 2a8c 923e a49e 603e 474a 6f3e
00000010: 5cb6 6d3e fde3 793e 36e0 783e 9093 813e
00000020: 84fb 803e da7e 853e 7ec9 833e 103b 873e
00000030: 6988 833e 95ac 853e 2eb7 7c3e 23c1 803e
00000040: 63ed 6e3e 08af 793e 7964 653e 6f84 753e
00000050: 17a1 5d3e d78d 6b3e 0321 503e a508 5f3e
00000060: c986 463e 4bc3 553e a5ba 3a3e 56c8 4c3e
00000070: 3691 393e 3483 513e 0c84 423e 361b 533e
00000080: 744c 403e e976 3c3e 6177 2b3e 0cad 1b3e
00000090: 443d 153e 4eb0 e33d eabe df3d 344f 973d
000000a0: e749 c53d 436f 803d 2833 a13d e6a3 173d
000000b0: f49b 5a3d 2c7f 403c 681e b13c 54ae 99bc
000000c0: 3d9e 15bb aacf 2bbd d68b 08bd aed5 8dbd
000000d0: 1102 73bd 5f71 c4bd 6983 bebd ccf6 fbbd
000000e0: e34d f9bd 4c4d 16be 88e3 18be 753b 2bbe
000000f0: 8fdf 27be 5826 31be e5c2 30be 8a6c 44be
00000100: 0349 41be a9d9 59be 7312 48be 5756 69be
00000110: c11a 41be c1de 66be a461 21be 9aa6 37be
00000120: c6dc a7bd f461 2ebd 566f 063e a1c4 983e
00000130: 349f 183f 64ba 6f3f 6601 b83f 0fb8 ee3f
00000140: 0617 0540 9f08 f13f 2be5 b13f 4f02 3d3f
00000150: 09b5 583e a7b7 0ebe 79de c7be 11ec 0abf
00000160: 72ad 34bf a3da 4cbf 138b 69bf b22a 7cbf
00000170: 38c3 87bf 91cc 8fbf 4db2 97bf edb8 9ebf
00000180: 4586 a3bf 5340 a5bf 86f2 c2bf f9a8 84bf

RTD_f.0.bias f4 [100]
-6.7122087 -6.452071 -6.4776173 -6.4272966 -6.383132 -6.341925 -6.307296 -6.2705474
-6.24776 -6.2114816 -6.2085557 -6.172585 -6.2006125 -6.1659336 -6.2370067 -6.1903877
-6.2855377 -6.201501 -6.299009 -6.188677 -6.282347 -6.183175 -6.273717 -6.1811233
-6.2369123 -6.1422124 -6.195661 -6.069364 -6.081259 -5.9287834 -5.9416213 -5.8595095
-5.928261 -5.9088845 -5.977416 -6.015515 -6.048519 -6.1389384 -6.118565 -6.173361
-6.0567536 -6.1501093 -6.033334 -6.132279 -6.010566 -6.099974 -6.0173874 -6.0858254
-5.995241 -6.0556045 -5.986993 -6.005722 -5.948645 -5.953748 -5.929981 -5.911364
-5.9278464 -5.901033 -5.940164 -5.9477215 -5.959371 -5.9606376 -5.9613914 -5.963238
-5.8666825 -5.8398366 -5.6493564 -5.667036 -5.405659 -5.435338 -5.018901 -5.0113044
-4.5029173 -4.2717485 -3.5266097 -3.0051963 -2.1804721 -1.3675199 -0.21971631 0.56515735
0.8991181 0.6357251 -0.14964722 -1.5873867 -3.0576708 -4.231802 -4.968146 -5.400208
-5.7511516 -5.917835 -6.066863 -6.1333985 -6.1967955 -6.253631 -6.330524 -6.4299827
-6.5414786 -6.690946 -7.0194435 -7.100799
00000000: 6aca d6c0 5e77 cec0 a448 cfc0 6aac cdc0
00000010: 9e42 ccc0 0df1 cac0 5ed5 c9c0 53a8 c8c0
00000020: a6ed c7c0 75c4 c6c0 7dac c6c0 d185 c5c0
00000030: 6b6b c6c0 544f c5c0 8f95 c7c0 a817 c6c0
00000040: 2023 c9c0 b272 c6c0 7b91 c9c0 a409 c6c0
00000050: fd08 c9c0 92dc c5c0 4ac2 c8c0 c3cb c5c0
00000060: c994 c7c0 018d c4c0 db42 c6c0 3b38 c2c0
00000070: ac99 c2c0 98b8 bdc0 c321 bec0 1a81 bbc0
00000080: 50b4 bdc0 9515 bdc0 fe46 bfc0 197f c0c0
00000090: 788d c1c0 2f72 c4c0 49cb c3c0 2c8c c5c0
000000a0: edd0 c1c0 b2cd c4c0 1211 c1c0 a13b c4c0
000000b0: 8f56 c0c0 fd32 c3c0 708e c0c0 15bf c2c0
000000c0: 04d9 bfc0 83c7 c1c0 7295 bfc0 e02e c0c0
000000d0: 4d5b bec0 1b85 bec0 68c2 bdc0 e529 bdc0
000000e0: ebb0 bdc0 43d5 bcc0 d315 bec0 bc53 bec0
000000f0: 2bb3 bec0 8bbd bec0 b8c3 bec0 d8d2 bec0
00000100: ddbb bbc0 f1df bac0 87c7 b4c0 5c58 b5c0
00000110: 29fb acc0 4aee adc0 d69a a0c0 9b5c a0c0
00000120: e617 90c0 2ab2 88c0 f9b3 61c0 2355 40c0
00000130: db8c 0bc0 e40a afbf 50fd 60be 27ae 103f
00000140: 9b2c 663f e1be 223f 1f3d 19be 7d2f cbbf
00000150: e1b0 43c0 ec6a 87c0 0dfb 9ec0 81ce acc0
00000160: 6f09 b8c0 e85e bdc0 be23 c2c0 cd44 c4c0
00000170: 264c c6c0 bf1d c8c0 a793 cac0 6bc2 cdc0
00000180: cb53 d1c0 3b1c d6c0 489f e0c0 bf39 e3c0

RTD_f.1.weight f4 [1, 1, 3]
0.33333334 0.33333334 0.33333334
00000000: abaa aa3e abaa aa3e abaa aa3e
