output/A_P_S10_D15.pth (torch, 7428 bytes, 9 tensors)

rate_f.0.weight f4 [24, 3]
00000000: 6929 073e 85eb 933d a982 d1bd 54e8 fa3c
00000010: 3cdf 64bd 38fc a3bb 076e 0f3a cccb d5bb
00000020: 3429 a5bb 72b6 d73d b4ec 413e 5962 6dbe
00000030: 5088 da3d 5661 253e 6f89 5cbe a148 81bb
00000040: 6294 43bc 8f07 81bc 5176 5dbb 9772 52bc
00000050: 7bc9 01bc e039 f93d 6e64 f63d 1fe1 25be
00000060: 8192 70bb 2cdb bfb9 b9d2 6ebc 2036 9339
00000070: 16f7 d6ba 6e98 dcbb 3525 0039 7a80 a8b9
00000080: 820e 20bc 8694 093e 8bf4 373d faa4 10bd
00000090: 1e5f 9cbd 73a3 433e 2783 84bd d7a2 023e
000000a0: acb4 d13d 2071 0dbe aceb 32ba 73ce abbb
000000b0: 1f2f 70bc a71c a5bd 24a5 7f3e 1748 07be
000000c0: 4252 133e 014f c73b 4c13 8a3d d752 183e
000000d0: d853 293d 76ee 8ebc 4fe4 3fbd e7a9 933e
000000e0: 92c7 23be ff24 44bd 7cbb 973e 4982 2cbe
000000f0: 7783 2f3e 5e76 74bd fc63 543e c8cc f83d
00000100: d31c 063e 89fc 19be fff7 233e 548f 753c
00000110: ead5 4f3d 4445 a1bd b84f 303e 22fb 51bd
0.1319939 0.07222656 -0.102299996 0.03062836 -0.055876955 -0.005004432 0.00054714124 -0.0065245386
-0.005040312 0.105328456 0.18937951 -0.23182048 0.10670531 0.16150412 -0.21536802 -0.0039454256
-0.011937233 -0.015750675 -0.0033792446 -0.012844703 -0.007921572 0.12169242 0.12030874 -0.16199158
-0.0036708417 -0.00036593655 -0.014576607 0.0002807835 -0.0016400542 -0.006732038 0.00012220892 -0.0003213918
-0.009769084 0.13435563 0.04491095 -0.035313584 -0.0763533 0.1910532 -0.06470328 0.12757431
0.102395386 -0.13812685 -0.0006825279 -0.0052431165 -0.014659672 -0.080621056 0.2496534 -0.13211094
0.14386848 0.006082416 0.06741962 0.14875351 0.041339725 -0.017447691 -0.04684859 0.28840563
-0.15994099 -0.047886845 0.29635227 -0.16846575 0.17139994 -0.059683196 0.20741266 0.12148434
0.13096933 -0.15037741 0.16012572 0.014987785 0.050741114 -0.078745395 0.1721791 -0.05126489

rate_f.0.bias f4 [24]
00000000: 88c1 d8bb 023a e83b 8682 4abb f539 e1bc
00000010: 990b 49ba 7abc 00bc e440 e7bb 55de c5bd
00000020: 730a 23bc 0000 0000 010f a9b9 8ece d6bc
00000030: 97a2 283e a433 42bb 7612 a4ba 6b9d 063e
00000040: 1292 5dbb c7c5 11bd 48d4 113e 8adc 163e
00000050: af97 543c cbe9 ffbd 8cfd 0bbd 8e87 433e
-0.0066148676 0.007086993 -0.0030900552 -0.027493456 -0.00076692697 -0.007857436 -0.007057296 -0.09661547
-0.009951222 0.0 -0.0003224537 -0.02622154 0.16468273 -0.002963283 -0.0012517709 0.13145988
-0.0033808989 -0.035589006 0.14241135 0.14732566 0.012975617 -0.12495764 -0.034177348 0.19094679

rate_f.2.weight f4 [24, 24]
00000000: 72c4 1f3e ac56 443d 66ad 9f3b 1856 5b3e
00000010: 3518 513e 6d6f 40bc 2377 b8bb e0eb 273e
00000020: fcbb 2a3b 5629 39bc 0622 963b edbb 153e
00000030: 0012 c8bd 7ebf 1b3e 1d60 853b cd03 78ba
00000040: 9302 ba3d c162 143e 88a4 d93c 40b2 ba3c
00000050: 8c28 c13d 2eaa 303e 7485 183e 8264 c6bd
00000060: a8c4 16bb 1e6c 823b 33a0 55bc 9ef2 2b3c
00000070: b781 92bb 81c6 94bc 82a1 f538 796f ffbb
00000080: 058a dbbb 7788 3bbc 1f78 223b 4e7f 8cbb
00000090: df2d 73bb 8c0b 63bc 4064 173b 7014 5dba
000000a0: 7925 a4bb 54ef fabb 9ae5 68bb a440 d23a
000000b0: 3c85 b73a a415 c2b9 fde1 85bb 0847 c1ba
000000c0: 5aa1 cc3d 44b0 8e3c bb04 b53b 073f 3bbc
000000d0: a9c2 173b 7239 d1bb 4930 343c aab0 8c3d
000000e0: b81b e4bb c6b9 c13b 1bb6 cf38 a8e4 f83d
000000f0: 971c 39be db17 a43d b619 95bb 6269 52be
00000100: 46cd 193e 50fb 043e a46e 6fbe 791c 6fbe
00000110: fff9 523e 91cd ab3d 1607 233e 08d6 3abe
00000120: 615d f2ba b357 d0bb 6dac 163a 68dd aa39
00000130: 95d9 0f3b ba28 01bc ed58 14bb 7aad 33ba
00000140: 7af8 6d3b 52d0 b4bb 109f d4ba 8fdf 86bc
00000150: 0260 22bc c673 77bc 2327 50bb e897 753b
00000160: 1c40 fcbb 6c6b f33b b622 ae3b 07c0 0bbb
00000170: 293d f3ba 9f25 a8b9 6771 f53a 75e7 82ba
00000180: 7c1c 74bb e520 a7bb 4c72 793b bf81 9c3a
00000190: 7d85 c5ba 91ba 023b f057 9a39 d272 90ba
000001a0: cc22 61bb eb82 503c 7a11 893a 8fab e137
000001b0: bf36 16bb adb0 f039 9239 05bc 3932 0fbc
000001c0: defa 23bb 9d1a 35ba e79a ac3b d406 183a
000001d0: 2ba7 1aba 1e3b 20ba bdc9 44bb fbba 06bc
000001e0: 33ab e23d fcf6 8a3c dd8d a7b8 2d96 743d
000001f0: a428 533d 3fd5 11bc 5801 873b cede ef3d
00000200: e8ca 243b 2dd6 e2bb 9032 8e3b 2bb7 0a3e
00000210: ed4b 21be c4f2 b23d b410 74bb 429b 3bbe
00000220: c311 1a3e 820a 063e 0ed3 4ebe 1ed3 5fbe
00000230: f9f9 493e 33de 0c3e 393e 1e3e 7257 40be
00000240: 8c63 de3d ab12 0e3c 4810 883b c621 133c
00000250: 6711 d63c ac49 ae3b fc6f 9e3a 7691 b53d
00000260: 6072 1b3c cd9d d9bb 835b 75bb 7d59 de3d
00000270: 1488 37be defa aa3d e791 52ba 2388 53be
00000280: bd51 0c3e 2fec 033e 6831 61be 03dd 57be
00000290: a656 443e 5891 e43d a037 1e3e 154f 3ebe
000002a0: a677 afbb ae76 20bc 666e 5fbb f28b 08bc
000002b0: 8a58 6e3b d168 d93b 1ea5 25bb 5730 1dbb
000002c0: be46 b1bb 675c 3d3b d8f2 8abb 75d2 a53b
000002d0: 4dd6 7dbb 729f b3bb 4980 72bb a9d2 99bb
000002e0: 3f36 153c 8ce9 6fbb e29d d13b af57 353c
000002f0: d6e3 93bb 1d45 b13a 02d1 a83b b49f c7bb
00000300: b875 d03d 2905 d8bc 32ae c4bb af84 103e
00000310: 7608 093e 1877 b3bb 255f 9cba a779 053e
00000320: ffb1 e9bb 1b58 1cbc 3f30 0dba 895f c93d
00000330: 4b17 8cbd 557f ea3d b7ea 143c 5f6d 02bd
00000340: 5097 b43d efce b53d f91d cabc e519 f4bb
00000350: 7639 b33d 4b1c 1b3e d4bd c73d 5289 59bd
00000360: ec98 043e 0190 01bc 951f 2e3b a682 083e
00000370: 23d0 ff3d f2e3 59bb d506 3fbb 2617 0c3e
00000380: fdef 85ba a613 3fbb ae2d 903b 0b52 013e
00000390: a0d3 46be 431b ec3d 68b2 703b ef45 2cbe
000003a0: 8dd4 033e 6aa8 f83d 7431 18be 47a9 19be
000003b0: d0a6 0e3e ebad 463e 9105 2f3e cc19 3ebe
000003c0: a974 ecbb 18e0 e43a 7384 0ebc 4404 b6b9
000003d0: 214a 913b 920d 733a 74e3 493c 789c 7bbc
000003e0: 50c3 9fbb 6bb6 66ba c918 81bb cbbc b4bb
000003f0: 82a3 59bc acec ab3b 9b14 03ba 0fd4 aa39
0.15602282 0.04793422 0.0048729656 0.21419561 0.2041939 -0.011745316 -0.0056294366 0.16398573
0.0026051989 -0.011301359 0.0045816926 0.14622469 -0.09769058 0.15209767 0.0040702955 -0.00094610156
0.09082522 0.14490797 0.026567712 0.022790074 0.09431562 0.17252418 0.14894658 -0.09687139
-0.00230054 0.0039801737 -0.013038683 0.010494856 -0.0044710296 -0.01816106 0.000117125936 -0.007795271
-0.006699803 -0.01144611 0.0024790836 -0.004287637 -0.0037106199 -0.013857733 0.0023100525 -0.00084335264
-0.00500935 -0.0076579247 -0.0035537244 0.0016040993 0.0014001499 -0.00037018687 -0.004085778 -0.00147459
0.09991713 0.017418034 0.0055242456 -0.011428601 0.0023156798 -0.006385022 0.01099784 0.068696335
-0.006961312 0.0059120385 9.904449e-05 0.12152988 -0.18077312 0.080123626 -0.004550184 -0.20548013
0.15019712 0.12986493 -0.2338205 -0.23350705 0.20603178 0.08388818 0.15920672 -0.18245709
-0.0018490964 -0.006358111 0.00057477393 0.00032589887 0.0021949757 -0.007883245 -0.0022636012 -0.0006854158
0.0036311434 -0.005517998 -0.0016221721 -0.016464023 -0.009910585 -0.015103286 -0.0031761609 0.0037474576
-0.007698072 0.007428577 0.0053141965 -0.0021324174 -0.0018557656 -0.00032071487 0.0018725813 -0.0009987192
-0.0037248423 -0.005100357 0.003806251 0.0011940523 -0.001506969 0.0019947628 0.00029438687 -0.0011020547
-0.0034353016 0.012726526 0.0010457479 2.6901978e-05 -0.0022920815 0.00045908 -0.008131402 -0.008740001
-0.0025021355 -0.0006908568 0.0052674892 0.00057993573 -0.0005899544 -0.0006112325 -0.0030027472 -0.008223291
0.1106781 0.016963474 -7.989605e-05 0.05971353 0.05155243 -0.0089009395 0.0041200332 0.117124185
0.0025145356 -0.0069225044 0.0043395236 0.13546436 -0.1575162 0.0873771 -0.00372414 -0.18320945
0.15045838 0.13089946 -0.20197698 -0.21857879 0.19724263 0.13756637 0.15453424 -0.18783358
0.10858831 0.008671443 0.0041523315 0.00898022 0.026131345 0.005318841 0.0012087817 0.08865635
0.009487718 -0.006641126 -0.0037438578 0.10856912 -0.17923003 0.0834863 -0.00080326054 -0.20657401
0.13703056 0.12883066 -0.21991503 -0.21080403 0.19173679 0.111605346 0.15450907 -0.18584855
-0.0053548394 -0.00979392 -0.0034092902 -0.008334147 0.0036368691 0.0066348095 -0.002527542 -0.0023985112
-0.0054100445 0.0028894187 -0.004240375 0.005060489 -0.003873247 -0.005481654 -0.0037002733 -0.004694302
0.009107172 -0.003660771 0.006396995 0.011068269 -0.004513244 0.0013524626 0.005151869 -0.006092036
0.10178703 -0.026369648 -0.006002211 0.14113115 0.13382134 -0.0054768436 -0.0011930211 0.13034688
-0.0071318145 -0.00954249 -0.00053859124 0.09832675 -0.0684038 0.11450068 0.0090891635 -0.031842586
0.08817923 0.0887736 -0.024672495 -0.007449376 0.08751194 0.15147512 0.09753004 -0.053109474
0.1294896 -0.007907868 0.0026569117 0.13331088 0.12490871 -0.0033247438 -0.002914836 0.13680705
-0.0010218617 -0.0029155998 0.0043999767 0.12628953 -0.19416666 0.11528637 0.0036727432 -0.16823553
0.1287405 0.121414974 -0.14862615 -0.1500598 0.13930821 0.19402282 0.17091967 -0.18564528
-0.0072160554 0.0017461805 -0.008698571 -0.00034716923 0.0044338857 0.00092717365 0.012322295 -0.015357129
-0.004875578 -0.0008800986 -0.003939722 -0.00551567 -0.013283612 0.0052467193 -0.0005000324 0.00032582923

rate_f.2.bias f4 [24]
00000000: a6c0 c3bd f697 5bba 554b 893b 7d19 d5bb
00000010: 0000 0000 d87f c5bc 2746 6f3b 18b1 aabb
00000020: 90e2 e53c 05e3 11bd fd3e cbbb 307c e7bb
00000030: e807 cfbb 0102 7fbd e966 a2bb 6e28 1dbd
00000040: 8cb9 923c 7394 433d 2f95 d4bb e40d 21bd
00000050: 8b96 57bd 6458 fa3c b44b b4bb d270 b5bb
-0.09558229 -0.0008376831 0.0041898885 -0.0065032826 0.0 -0.024108812 0.003651032 -0.0052090995
0.028062135 -0.035616893 -0.006202577 -0.007064365 -0.006318081 -0.06225777 -0.0049561155 -0.038368635
0.017910741 0.047748994 -0.0064875106 -0.039319888 -0.052633803 0.030559726 -0.0055021886 -0.005537131

rate_f.4.weight f4 [3, 24]
00000000: 1b79 17be f0a2 faba c5b7 06be f1c5 09bb
00000010: c3f4 2b3b 5d91 0cbe 8adc 15be deb2 d839
00000020: b29f b1bd 6bca 19be 724f 023c 9217 12bb
00000030: 3955 df39 efbc 0dbe ddb7 013b cc8e 10be
00000040: 2abb b8bd 4385 a7bd 70d8 9ebb 7a49 443d
00000050: 334b 363d e8af 8e3d 8257 cf39 b681 ddba
00000060: fb39 2ebd 6b8d e2bb d115 8f3d ac77 de3b
00000070: 4b7f 49ba 22f0 253d 4537 863d b1c8 cdbb
00000080: 8dc0 76bc 5c8f 0e3c 563b 2cbc 0d02 25bc
00000090: f07f 0cbc dbcd b3bc 393f 263b b4e6 d63a
000000a0: fa73 10bd 64f2 263c 5caa b63b ef52 1cbe
000000b0: 95d8 04be 05a4 c43d 9ff0 58bc cd73 203b
000000c0: dc27 133e 61ef a7bb 3ee6 f2bc e8ba e139
000000d0: 9be3 a7bb 9d67 60bc d49d 0cbd 7877 f4bb
000000e0: 49c8 f8bb db29 41bb aeb2 be39 3ff6 043c
000000f0: ff4b 143b 2c51 863c 07c0 8cbb d083 5e3b
00000100: 50ea 103b 9f1c a8bc d28f 07bc 358e 843d
00000110: e5cf 873d ac84 2fbd 9754 963a 05c6 14b9
-0.14792292 -0.0019122045 -0.1315604 -0.0021022523 0.0026238419 -0.13727327 -0.1463491 0.00041331997
-0.086730376 -0.15018623 0.007953512 -0.002229188 0.0004259737 -0.13841604 0.001979343 -0.14116973
-0.09020074 -0.081797145 -0.0048475787 0.047921635 0.04450531 0.06967145 0.00039547315 -0.0016899619
-0.042535763 -0.006913831 0.06986583 0.0067891683 -0.00076865096 0.04051221 0.065535106 -0.006280028
-0.015060556 0.008701172 -0.010512194 -0.01007129 -0.008575425 -0.021948745 0.0025367273 0.0016395659
-0.035266854 0.010189626 0.0055745076 -0.15266012 -0.12973244 0.09601597 -0.013240962 0.0024483085
0.14370674 -0.0051249717 -0.029650804 0.000430546 -0.0051235682 -0.013696578 -0.034330204 -0.007460531
-0.007592235 -0.002947441 0.0003637275 0.00811535 0.0022628305 0.016396128 -0.0042953524 0.0033953078
0.0022112317 -0.02052146 -0.0082740355 0.06472436 0.066314496 -0.042851135 0.0011469302 -0.00014188148

rate_f.4.bias f4 [3]
00000000: 90bf 1fbc 3a87 e93c 3d76 51bc
-0.009750262 0.028506864 -0.012784538

RTD_f.0.weight f4 [100, 1]
00000000: 627e d93d 1a9c 423e c7f1 1d3e 63c0 233e
00000010: 7617 293e bfc0 2c3e c6ce 323e 9ee3 333e
00000020: 3c3e 3b3e 0af6 3b3e f746 453e cb29 463e
00000030: b774 503e 1c1a 503e 11f3 553e dbc6 523e
00000040: 9ab0 543e 5ac6 533e 774f 523e 3b1c 533e
00000050: a592 4c3e 99dd 4f3e 5cb2 443e e3de 493e
00000060: 1ba0 3a3e 438e 413e 7bd7 2c3e 9304 323e
00000070: 0f44 173e 9386 203e b263 053e 7af6 0c3e
00000080: 92d7 db3d ad4d eb3d 7efa ba3d e170 c03d
00000090: 8005 893d b976 763d e9e0 3c3d 0df4 313d
000000a0: 1a99 1b3d c78e 9d3c 4772 5e3c 55fc 05bc
000000b0: fc53 91ba 2e9f 96bc ea5f 4bbc 6c40 fcbc
000000c0: 4c01 2fbd ee3d 8abd 50d7 b9bd a931 c4bd
000000d0: 0286 ecbd bc28 ddbd b8f2 12be 6345 09be
000000e0: 9681 2ebe e08d 19be 6e4b 39be 1ba3 26be
000000f0: de80 39be 5668 23be 0a0d 31be fa75 23be
00000100: eb60 3cbe 25a7 2fbe 4f53 4dbe d679 37be
00000110: 4c13 48be 6eae 15be 4cd2 fbbd f8e2 61bd
00000120: 267d 8dbc 6108 803d 5fc3 273e b9b1 ad3e
00000130: 6abe 1b3f dd35 773f ef33 b33f 2194 e73f
00000140: 4a41 0140 a947 f53f 6123 bd3f 3c5a 603f
00000150: 27d3 9a3e ed8b 8cbd 29b6 b4be 0f8c 03bf
00000160: 218e 2dbf 346e 48bf 5fe3 64bf 28a6 7abf
00000170: 8276 87bf 5fee 8fbf 4c60 97bf 23a6 9dbf
00000180: 02fe a1bf a803 a4bf 4401 c4bf 9c48 85bf
0.10619809 0.1900486 0.15424262 0.15991358 0.16512856 0.16870402 0.1746169 0.17567298
0.1828546 0.18355575 0.19265352 0.1935188 0.20357023 0.2032246 0.20893504 0.2058367
0.20770493 0.20681134 0.20538126 0.20616238 0.19977815 0.20299377 0.19208664 0.19713931
0.18225138 0.18901925 0.16879074 0.17384557 0.14772056 0.15676336 0.13026312 0.13765898
0.10734476 0.11489425 0.09129809 0.0939653 0.06690502 0.060171816 0.04611293 0.043445636
0.037987806 0.01923312 0.0135770505 -0.008177836 -0.0011087651 -0.01838645 -0.012413004 -0.030792437
-0.042725846 -0.067500934 -0.09074271 -0.095797844 -0.115489975 -0.10798785 -0.14350402 -0.13405375
-0.1704162 -0.14995527 -0.1809518 -0.16273157 -0.18115565 -0.1595777 -0.1729013 -0.15962973
-0.18396346 -0.17153604 -0.20051311 -0.1791757 -0.19538611 -0.14617321 -0.1229597 -0.055148095
-0.01727159 0.06251598 0.16383122 0.33924654 0.60837424 0.96566564 1.4000224 1.809208
2.01961 1.9162494 1.4776422 0.87637687 0.3023922 -0.06862626 -0.35295227 -0.5138559
-0.67794997 -0.78293157 -0.8940944 -0.97909784 -1.0583041 -1.124462 -1.1826262 -1.2316326
-1.2655642 -1.2813616 -1.5312886 -1.0412784

RTD_f.0.bias f4 [100]
00000000: 94fe e7c0 3d54 e6c0 700d e4c0 533e e3c0
00000010: ade9 e0c0 ec62 e0c0 8815 dec0 e9e6 ddc0
00000020: 857e dbc0 6044 dbc0 d4a3 d8c0 4e46 d8c0
00000030: 62ad d5c0 c75e d5c0 ec78 d3c0 7859 d3c0
00000040: fde7 d1c0 c266 d1c0 b163 d0c0 5595 cfc0
00000050: 382f cfc0 b816 cec0 252c cec0 e3dc ccc0
00000060: 6639 cdc0 68e8 cbc0 b08f ccc0 db72 cbc0
00000070: a9ab ccc0 e32d cbc0 50f6 cbc0 c91f cbc0
00000080: c3b0 cbc0 fe88 cac0 7230 cac0 2dad c9c0
00000090: b36c c9c0 db0a c9c0 f1a5 c7c0 57fd c6c0
000000a0: c444 c5c0 f13b c5c0 788e c3c0 ed79 c3c0
000000b0: c9eb c0c0 5a22 c0c0 9c1d bec0 c8fc bdc0
000000c0: 3f4a bec0 1af6 bfc0 99ec bfc0 4976 bfc0
000000d0: 62c6 bdc0 16d1 bbc0 80a4 bcc0 25a1 bac0
000000e0: 6d2c bdc0 3261 b9c0 2d4c bdc0 1f3e bac0
000000f0: 7efe bec0 6f9b bdc0 9d6d bfc0 260b bbc0
00000100: 1729 bac0 ad84 b3c0 0289 b3c0 41ba abc0
00000110: c58e a8c0 afcd 9ec0 53d1 97c0 7d3b 8ec0
00000120: deee 88c0 78c3 7fc0 7091 6bc0 f357 4ac0
00000130: 9709 1bc0 26b1 c5bf a285 08bf a096 953e
00000140: a5d1 2a3f 967f 153f db4f 3fbd 650d 9ebf
00000150: a5cf 2ec0 335f 79c0 8321 99c0 d313 a9c0
00000160: b5fa b5c0 ba2f bdc0 181d c3c0 83a8 c6c0
00000170: e83d c9c0 4f19 cbc0 fff1 ccc0 a32c cfc0
00000180: 680d d2c0 179f d6c0 e50d e2c0 a7bb e4c0
-7.2498264 -7.197783 -7.1266403 -7.101358 -7.028525 -7.0120754 -6.9401283 -6.9344373
-6.8591943 -6.8520966 -6.7699986 -6.758582 -6.677415 -6.6678195 -6.608511 -6.6046715
-6.559569 -6.5437937 -6.5121694 -6.486979 -6.474514 -6.4402733 -6.4428887 -6.4019637
-6.4132566 -6.37212 -6.39254 -6.3577704 -6.3959546 -6.3493514 -6.3738174 -6.34763
-6.3653274 -6.3292227 -6.3184137 -6.3023896 -6.294519 -6.282575 -6.2390065 -6.2184253
-6.1646442 -6.163567 -6.111141 -6.1086335 -6.0287824 -6.0041933 -5.9411144 -5.937107
-5.9465632 -5.9987917 -5.9976315 -5.983189 -5.9304667 -5.869273 -5.8950806 -5.832171
-5.911673 -5.7931147 -5.915549 -5.820083 -5.968566 -5.925224 -5.9821305 -5.845111
-5.817516 -5.609946 -5.6104746 -5.366486 -5.267428 -4.962608 -4.7443023 -4.4447618
-4.2791586 -3.9963055 -3.6807518 -3.161618 -2.4224603 -1.5444686 -0.5332891 0.2921648
0.6672614 0.58397806 -0.046707015 -1.2347838 -2.7314236 -3.8964355 -4.785341 -5.28367
-5.686854 -5.912076 -6.0973015 -6.2080703 -6.288807 -6.3468394 -6.4045405 -6.474199
-6.5641365 -6.70692 -7.064196 -7.147907

RTD_f.1.weight f4 [1, 1, 3]
00000000: abaa aa3e abaa aa3e abaa aa3e
0.33333334 0.33333334 0.33333334
