output/B_1_0.5.pth (torch, 3287 bytes, 6 tensors)

rate_f.0.weight f4 [12, 7]
0.32847503 0.06655473 -0.018737815 -0.09055229 0.009343175 -0.021688152 0.05532607 0.27929556
0.13753617 0.10845043 -0.10014221 -0.0075882487 -0.016432663 0.12487359 -0.25918546 -0.077560194
0.10639257 0.14356694 0.052137695 0.055628702 0.038210258 -0.24867843 -0.22256663 0.20576268
0.046662018 0.06908087 0.077437006 0.1568011 0.0590243 -0.021700135 -0.12454239 -0.07074636
0.0142406095 -0.051616877 0.00060283986 0.0007948699 -0.10589082 -0.2529393 0.030492669 0.16526134
0.13299027 0.05351279 0.10160133 0.11254768 -0.13427405 0.024849704 -0.05357856 -0.01370584
-0.09035797 -0.06143932 0.11882289 -0.30474743 0.016116634 0.18032415 0.30447987 0.0750191
0.23460795 -0.0506187 -0.19629534 -0.011432117 0.044458386 0.18508764 0.07025483 -0.07841924
-0.22814627 -0.14217633 0.06909188 0.13306989 0.0592652 0.014018062 0.23755248 -0.31323707
0.004779641 0.037062034 0.10928511 0.09231485 -0.011926308 -0.0048182174 0.32357678 -0.20580839
0.025103727 -0.060789526 -0.03032046 -0.13298865
00000000: e12d a83e d94d 883d 0c80 99bc 7b73 b9bd
00000010: 1e14 193c 5aab b1bc 979d 623d d4ff 8e3e
00000020: 48d6 0c3e 421b de3d 5c17 cdbd d8a6 f8bb
00000030: cb9d 86bc babd ff3d f5b3 84be e1d7 9ebd
00000040: 59e4 d93d 3603 133e 568e 553d ecda 633d
00000050: 5c82 1c3d 8fa5 7ebe 82e8 63be 74b3 523e
00000060: ac20 3f3d 457a 8d3d 4b97 9e3d 7890 203e
00000070: 77c3 713d 7bc4 b1bc 1510 ffbd 78e3 90bd
00000080: 7251 693c 386c 53bd e607 1e3a d15e 503a
00000090: 49dd d8bd 4381 81be c3cb f93c 453a 293e
000000a0: 9a2e 083e 3a30 5b3d 5c14 d03d 667f e63d
000000b0: 237f 09be 9b91 cb3c 3175 5bbd 768e 60bc
000000c0: 990d b9bd cca7 7bbd 6a59 f33d db07 9cbe
000000d0: 0807 843c e5a6 383e c9e4 9b3e 9da3 993d
000000e0: 113d 703e 8e55 4fbd a501 49be c64d 3bbc
000000f0: ff19 363d 9d87 3d3e c4e1 8f3d 449a a0bd
00000100: 2d9f 69be ac96 11be 0b80 8d3d 7943 083e
00000110: 11c0 723d 03ac 653c f540 733e 9c60 a0be
00000120: 899e 9c3b 5cce 173d dfd0 df3d 910f bd3d
00000130: 9066 43bc 23e2 9dbb dbab a53e 6fbf 52be
00000140: 55a6 cd3c 70fe 78bd 9d62 f8bc 2d2e 08be

rate_f.0.bias f4 [12]
0.011032195 0.013931451 0.021484135 0.05926739 -0.055261288 0.0823015 -0.059987925 0.07934842
0.027346905 0.016695118 0.004989523 -0.005117432
00000000: 61c0 343c be40 643c 7fff af3c 5dc2 723d
00000010: a959 62bd b08d a83d e6b5 75bd 6d81 a23d
00000020: 9e06 e03c 33c4 883c 277f a33b 22b0 a7bb

rate_f.2.weight f4 [12, 12]
-0.06375963 -0.048595402 0.07994368 0.3790298 1.0529299e-05 -0.023896048 -0.0700009 -0.18523195
-0.06989284 0.24911237 -0.103337556 -0.051714737 -0.053342145 -8.296693e-09 -0.14110908 -0.04228249
-0.037145715 -2.0723476e-08 -0.01194776 -0.02756687 -6.7916443e-07 -0.0061793234 -0.02205372 0.037496414
0.0010705394 0.18657018 -0.0019922385 -0.11406316 0.024383647 -0.12806605 0.048079487 -0.062611155
-0.02050205 -0.05576713 -0.2782756 0.2565066 0.094610915 -0.07144088 -0.043323644 -0.061698914
-0.0031506007 0.24291064 0.08863921 0.289191 0.28449988 0.011291883 -0.0363556 0.20575425
0.023349427 -0.104859665 -0.13458392 0.0013748205 0.0022518095 1.5300223e-08 0.034200195 -0.020292157
0.033627316 0.040168338 0.021889571 -0.12687063 -5.3581452e-08 7.4451656e-08 -0.0499068 -0.0013145705
0.00034140184 9.907798e-09 -0.09435905 -0.13387859 -1.8639379e-05 0.0686722 -0.0073165596 -0.014997298
-0.019424923 6.400085e-08 -0.051244933 -0.0020786175 -4.2985546e-05 7.0673982e-09 -0.041071452 -0.033733148
4.9631407e-08 0.05884966 -0.051086094 0.10041751 0.4426001 0.3353648 -0.114319235 -0.10072024
0.080109924 0.062021013 0.12443332 -0.12198288 0.2315506 -0.14947228 0.21771692 -0.12573391
-0.03357064 -0.02759278 0.040159576 0.16548431 0.006381022 0.11115158 -0.093294956 -0.04427943
0.24619913 0.42615098 0.20274942 -0.41134048 -5.2259747e-08 3.2477825e-08 -0.0032988878 0.0004159835
-5.7965923e-07 5.6404968e-08 -3.1899599e-09 0.00023230605 -2.4209053e-08 -0.0010720752 -0.011632477 0.0034887586
0.10535482 0.15506078 -0.047268078 -0.11717065 0.05060678 -0.02721186 0.080045216 0.045365
0.119635545 0.05091762 -0.13059215 0.20845842 -0.017397964 0.0027474763 -0.053666655 0.014563761
0.026896821 3.420392e-08 -0.012833811 -0.0331252 -0.07807288 0.096943125 0.064159475 -0.14594854
00000000: 6994 82bd f90b 47bd 83b9 a33d 3210 c23e
00000010: ffa6 3037 a5c1 c3bc a25c 8fbd 72ad 3dbe
00000020: fa23 8fbd 5017 7f3e a4a2 d3bd d5d2 53bd
00000030: 4b7d 5abd 3e89 0eb2 e67e 10be 6730 2dbd
00000040: 1b26 18bd 6803 b2b2 8ac0 43bc ebd3 e1bc
00000050: d34f 36b5 ec7b cabb 01aa b4bc d795 193d
00000060: 5751 8c3a 410c 3f3e 3790 02bb f299 e9bd
00000070: 37c0 c73c bf23 03be ffee 443d 473a 80bd
00000080: eaf3 a7bc 136c 64bd 247a 8ebe d554 833e
00000090: 5ec3 c13d 994f 92bd 2274 31bd 00b8 7cbd
000000a0: 4f7a 4ebb 91bd 783e 7988 b53d d810 943e
000000b0: f8a9 913e 9701 393c 9ce9 14bd 3eb1 523e
000000c0: 4c47 bf3c aac0 d6bd 5ed0 09be 5233 b43a
000000d0: 1893 133b 8c6d 8332 8115 0c3d bd3b a6bc
000000e0: ccbc 093d 8e87 243d c251 b33c 60ea 01be
000000f0: 6e21 66b3 3be2 9f33 136b 4cbd ab4d acba
00000100: 2efe b239 f536 2a32 513f c1bd 7817 09be
00000110: c35b 9cb7 03a4 8c3d c0bf efbb 3ab7 75bc
00000120: 0421 9fbc d770 8933 35e6 51bd 6a39 08bb
00000130: 614b 34b8 7ed5 f231 8a3a 28bd c52b 0abd
00000140: 4f2a 5533 570c 713d a73f 51bd b2a7 cd3d
00000150: 7b9c e23e efb4 ab3e 3420 eabd 6a46 cebd
00000160: ac10 a43d bf09 7e3d e5d6 fe3d 29d2 f9bd
00000170: 9a1b 6d3e 430f 19be 2ff1 5e3e 64c0 00be
00000180: 5e81 09bd 410a e2bc 5e7e 243d b874 293e
00000190: e417 d13b 71a3 e33d 6d11 bfbd 595e 35bd
000001a0: a01b 7c3e 7630 da3e 8b9d 4f3e 389b d2be
000001b0: 3374 60b3 bf7d 0b33 2732 58bb 5c18 da39
000001c0: e199 1bb5 eb41 7233 5e36 5bb1 2e97 7339
000001d0: 45f4 cfb2 e084 8cba 2596 3ebc a8a3 643b
000001e0: 45c4 d73d 41c8 1e3e 2c9c 41bd 2af7 efbd
000001f0: 0e49 4f3d 68eb debc bfee a33d a6d0 393d
00000200: 7b03 f53d ff8e 503d f3b9 05be 2076 553e
00000210: 2d86 8ebc 010f 343b 91d1 5bbd d79c 6e3c
00000220: b956 dc3c 9ce7 1233 e844 52bc 4aae 07bd
00000230: ade4 9fbd 1e8a c63d 0b66 833d 8973 15be

rate_f.2.bias f4 [12]
0.075378746 -0.06351054 0.028219992 -0.007235296 -0.07174723 -0.04029735 -0.018878117 0.017529743
0.052469153 -0.017770316 -0.018934252 -0.017965281
00000000: 2c60 9a3d d011 82bd 9d2d e73c 1016 edbb
00000010: 36f0 92bd d60e 25bd 48a6 9abc 899a 8f3c
00000020: e5e9 563d 0e93 91bc 011c 9bbc ed2b 93bc

rate_f.4.weight f4 [3, 12]
0.25972354 -0.011734512 0.0051596076 -0.023302948 0.063783236 -0.024361318 0.0475162 -0.37534714
0.08754962 -3.7330997e-06 -0.11312944 0.0051412466 -0.010778936 -0.024759214 -0.18967316 -0.08707314
0.0029989663 -0.0009372271 0.014230434 0.06941702 0.23160857 1.2479001e-05 -0.1398424 0.10922306
-0.13678564 0.051849555 -0.011051153 0.2641937 0.014389214 -0.0035057364 0.030569136 -0.07858808
-0.05971368 -1.9347857e-07 0.05330463 0.02969356
00000000: 7cfa 843e 1c42 40bc ed11 a93b d3e5 bebc
00000010: c9a0 823d 6391 c7bc 59a0 423d 802d c0be
00000020: 374d b33d 2a86 7ab6 68b0 e7bd e777 a83b
00000030: 229a 30bc d6d3 cabc ae39 42be 6753 b2bd
00000040: 4e8a 443b 3fb0 75ba c426 693c 832a 8e3d
00000050: cc2a 6d3e e75c 5137 d932 0fbe 57b0 df3d
00000060: 8911 0cbe 3360 543d e50f 35bc 6644 873e
00000070: bdc0 6b3c 7fc0 65bb 206c fa3c caf2 a0bd
00000080: 5596 74bd fcbe 4fb4 f555 5a3d e93f f33c

rate_f.4.bias f4 [3]
0.0483915 -0.011697932 -0.007013227
00000000: 2a36 463d afa8 3fbc 36cf e5bb
