output/B_1_1.pth (torch, 3287 bytes, 6 tensors)

rate_f.0.weight f4 [12, 7]
000000 2e 73 f5 bd c9 59 bb 3e 46 84 bd be 8c 61 08 3d
       -0.119848594 0.36591938 -0.3701498 0.033296153
000010 24 ff c3 3b 77 af af 3d 53 a6 6e 3d f7 49 4c 3d
       0.005981343 0.08578389 0.058264088 0.049875226
000020 35 2c 99 be 13 5e 82 be 5f a5 70 3d 98 f8 62 3e
       -0.2991654 -0.25462398 0.05875146 0.22165143
000030 e0 27 9c 3e e2 b9 1a 3e 35 17 3e b7 07 45 26 38
       0.30499172 0.15109971 -1.1330286e-05 3.964177e-05
000040 12 11 93 37 0f e6 99 bc 0c d6 98 ba 6a 99 42 38
       1.7531715e-05 -0.018786458 -0.0011660471 4.6396082e-05
000050 e0 81 97 b7 26 ae a7 bd 3c 03 b9 bd aa 9a be bb
       -1.806108e-05 -0.08187513 -0.0903382 -0.0058167772
000060 b6 4d 93 bd 1a 96 33 bd 20 15 86 bc b0 c4 c7 38
       -0.071925566 -0.04384432 -0.016367495 9.525695e-05
000070 67 2f 32 bb 85 1e 75 bc ff 64 fa bc 23 c4 62 38
       -0.0027188899 -0.01496089 -0.030565737 5.4065265e-05
000080 14 53 e0 b8 7e 96 6d 38 ca de 12 36 f1 b0 01 bd
       -0.00010696627 5.664536e-05 2.1885376e-06 -0.031662885
000090 e1 84 90 bd 02 12 e0 bc 93 b7 3e bd 2f 95 b4 bd
       -0.07056595 -0.027352337 -0.04656179 -0.08817517
0000a0 c9 28 4f bd 38 d7 e1 37 a0 82 cf 38 67 4c 71 bc
       -0.050576005 2.692231e-05 9.89486e-05 -0.014727688
0000b0 a8 e5 46 3d 81 8e 3e bd f2 63 9a bd bd b0 86 bd
       0.04855886 -0.04652262 -0.07538594 -0.06576679
0000c0 4c 87 9c 38 db 72 cb bd ee 3c 8e bd f8 ec dd bc
       7.463861e-05 -0.09934016 -0.06945215 -0.027090535
0000d0 01 c5 87 bd e0 3e 24 bb 35 34 90 3b f9 af bd ba
       -0.066293724 -0.002506189 0.004400755 -0.0014472
0000e0 b8 8d b9 bc 09 e4 0f 3c 6a 1d d8 bb ce fd 3a bb
       -0.022650585 0.008782395 -0.0065953033 -0.0028532627
0000f0 26 1f 30 bb f1 96 88 bb bd ed 40 b9 af 3b eb 3e
       -0.0026874035 -0.0041683842 -0.00018399111 0.45943972
000100 75 11 b3 bc 56 71 c3 3a c0 f7 c5 bd 9e 02 c3 3c
       -0.02185891 0.0014911096 -0.09666395 0.023804959
000110 cf 1b b0 bc 41 8d 5b bc 01 a0 88 bd 52 f5 ba bd
       -0.021497635 -0.013400377 -0.06671143 -0.091288224
000120 44 73 e3 bd 65 fb e1 bd b6 57 a3 bd 03 60 77 bd
       -0.111059695 -0.11034278 -0.07975714 -0.0603943
000130 5c e4 a0 ba 70 63 43 be 3d c0 04 3c c1 93 17 3e
       -0.0012275088 -0.19080901 0.008102474 0.14802457
000140 aa 7c 23 3d cd 73 19 bd 9e 4d 2d be fe 38 c1 3c
       0.03991381 -0.03746395 -0.1692414 0.023586746

rate_f.0.bias f4 [12]
000000 fe 6d bf 3d 49 a9 54 3e 1a 49 c9 ba ef 0b 39 bd
       0.09347151 0.20767702 -0.0015356869 -0.045177396
000010 ed 9b 7f ba 38 9b 61 bd 58 81 26 bd 36 37 3a bd
       -0.0009750713 -0.05507967 -0.040650696 -0.04546281
000020 71 d2 b2 bb 79 9f b3 bc 45 15 a0 bd 27 49 7b 3d
       -0.0054572155 -0.021926628 -0.07816557 0.06134906

rate_f.2.weight f4 [12, 12]
000000 2a fe 48 b7 45 2a 44 bd 5e 05 28 ba 94 2d a6 b7
       -1.1980106e-05 -0.047891874 -0.0006409491 -1.9809966e-05
000010 91 e7 3c b7 cb cb 2e bc 51 87 6c b6 e8 b8 11 bc
       -1.1259589e-05 -0.010668705 -3.5245505e-06 -0.008894183
000020 1e 77 8b 36 e1 57 45 b6 41 34 70 b4 4a cb 7c b5
       4.15639e-06 -2.940644e-06 -2.2370752e-07 -9.417314e-07
000030 bd 8a f3 bd 95 72 a3 bd fe 6f 3b b6 3a d9 14 b9
       -0.118916966 -0.07980839 -2.793036e-06 -0.00014195303
000040 09 d6 f3 b5 90 29 b2 b6 72 72 b0 36 cb ab c6 ba
       -1.8167203e-06 -5.309652e-06 5.258532e-06 -0.00151574
000050 fa 58 04 bd 83 7a 56 bd fe b5 95 b6 e2 80 b7 36
       -0.032311417 -0.05236293 -4.4617327e-06 5.468829e-06
000060 30 fe 60 b3 ee 66 35 bc 75 64 b4 38 dd ae 2e b6
       -5.2385246e-08 -0.011071904 8.6017804e-05 -2.6029804e-06
000070 30 9f 8a b6 63 c3 5b ba 66 78 46 b6 89 0d 3f 37
       -4.1312524e-06 -0.0008383302 -2.957438e-06 1.1387639e-05
000080 0e 11 73 b6 0a 65 7e b6 77 84 b7 b4 24 7c dc 35
       -3.6219749e-06 -3.7907762e-06 -3.4182787e-07 1.6427407e-06
000090 1f f8 79 be 3f b8 95 3d 97 63 dc b4 66 fa f4 3b
       -0.24411057 0.07310533 -4.1050654e-07 0.007476139
0000a0 08 fa d3 36 f9 76 23 3c 51 07 44 3d e1 49 e6 ba
       6.3173975e-06 0.009977096 0.04785854 -0.0017569625
0000b0 d7 88 00 37 41 df d9 3e 9e 55 15 be c4 16 20 be
       7.661255e-06 0.42553142 -0.14583442 -0.15633684
0000c0 10 17 13 be 3b 96 97 3e 33 f3 10 36 89 a4 7a 3a
       -0.14364266 0.29606804 2.1599233e-06 0.0009561261
0000d0 78 7d a9 38 f9 cc 66 3c 75 b4 f6 3a 5b 01 67 bc
       8.081918e-05 0.014086955 0.0018822091 -0.014099444
0000e0 27 d1 08 bb cf 03 2c be 78 3c dd 3b f5 62 e1 3d
       -0.0020876618 -0.16798328 0.006751593 0.11005203
0000f0 1e 8f 13 3e 0a 09 97 3e ff 52 7b 37 88 ca 6d bd
       0.14410064 0.29499084 1.498009e-05 -0.058054477
000100 55 81 b9 3a 4f 00 a7 bd af 77 7d bd d0 13 3f bd
       0.0014152924 -0.08154356 -0.061881717 -0.046649754
000110 80 f1 46 3c b9 ef 08 3e 07 03 88 bd ab d7 28 be
       0.012142539 0.13372697 -0.066412024 -0.16488521
000120 33 da 53 3e 1f 0c 93 3d d1 3e 63 37 6b 51 2c bc
       0.20688705 0.07180046 1.354488e-05 -0.010517458
000130 ad c1 0e bb c8 a3 be bc 9b ec 57 bd 16 68 8e 3c
       -0.002178292 -0.023271456 -0.05271588 0.017383616
000140 54 59 bd 3c 5d 4c 9f be 54 9b 11 3e c4 eb 4e 3e
       0.023113884 -0.31112948 0.14219409 0.20207125
000150 4f 83 96 b6 6e 35 9a 37 01 49 c9 36 42 dc 0b bb
       -4.4856347e-06 1.838311e-05 5.9987656e-06 -0.0021341
000160 07 93 69 37 04 1a 9a bb 99 a5 46 bd 41 0f 0c bd
       1.3922115e-05 -0.0047028083 -0.04849777 -0.034194235
000170 20 b8 90 b5 da ca 90 bc b6 de 3f b6 64 3a 7a 36
       -1.0782423e-06 -0.017674852 -2.8590853e-06 3.728689e-06
000180 e5 0d b3 3e c4 65 17 be 60 62 f9 39 56 b2 2b bc
       0.34971538 -0.14784914 0.00047566276 -0.01047953
000190 df a0 41 38 44 3b df bc 25 2c 1e 3c 95 76 12 bd
       4.616461e-05 -0.02724994 0.00965408 -0.03575762
0001a0 94 5c 8c b8 aa fd 06 3e b9 27 df 3c 10 82 0c be
       -6.692964e-05 0.13182703 0.02724062 -0.1372149
0001b0 78 48 e5 34 fd 0f e8 3a 08 a3 56 36 2d 3d b7 b5
       4.2707302e-07 0.001770496 3.1983382e-06 -1.3652367e-06
0001c0 dd b5 12 36 8b 29 c6 b7 5a 95 2b b6 70 02 0d 38
       2.1861554e-06 -2.3622784e-05 -2.556792e-06 3.361929e-05
0001d0 72 89 56 34 18 b0 77 34 ee 37 e8 35 9a 86 73 37
       1.9980305e-07 2.306773e-07 1.7301625e-06 1.4515268e-05
0001e0 4f e5 14 b6 bb ba 46 bb eb f0 0c 38 3d f7 c5 34
       -2.2187194e-06 -0.0030323702 3.3602973e-05 3.6874e-07
0001f0 24 c9 58 35 be 42 0b ba 09 19 bf b5 9a 0e 7a 38
       8.075897e-07 -0.00053123746 -1.4237895e-06 5.9618244e-05
000200 78 92 01 b7 7b 8b 23 b6 72 39 30 b6 8e 16 c3 b5
       -7.723102e-06 -2.437008e-06 -2.6259481e-06 -1.4535196e-06
000210 2d 73 29 36 28 d1 c5 38 12 ee 53 38 40 a2 20 ba
       2.5250004e-06 9.4326504e-05 5.052804e-05 -0.0006127693
000220 85 5e 3b b6 2f 53 91 bb 08 8d e9 bc 7a 06 f9 ba
       -2.792019e-06 -0.004434965 -0.028509632 -0.0018999123
000230 61 91 19 35 20 44 c7 3b 74 93 6e 36 9d d9 94 36
       5.7208496e-07 0.006081119 3.5550593e-06 4.4360772e-06

rate_f.2.bias f4 [12]
000000 5d 46 6c bd 1f e0 14 bd b0 74 43 bd d4 4e cc 3c
       -0.05768429 -0.03634655 -0.047718704 0.024939932
000010 c8 73 36 3d 2e a7 5e bc 33 f9 3c 3d c9 4a 6c bd
       0.04454401 -0.013589663 0.046136092 -0.05768851
000020 1e c6 1b 3c 87 73 38 bd 7c e3 4f bd 35 b8 81 bd
       0.009507684 -0.04503205 -0.050754055 -0.06333963

rate_f.4.weight f4 [3, 12]
000000 1c 3e 50 ba 92 23 de ba 1b 36 63 b7 ef e2 c1 be
       -0.00079438253 -0.0016947857 -1.3542852e-05 -0.3786845
000010 68 a3 01 3e d3 83 20 3c 2d 9a 8e 3e f0 c5 a0 ba
       0.12659991 0.009797054 0.27852002 -0.0012266021
000020 85 4c db bc 32 39 33 3d ca 65 29 3d 65 bf 82 b9
       -0.026769886 0.043755718 0.04135684 -0.00024938132
000030 d7 45 b9 b7 e2 04 51 3d b6 af 22 37 55 67 45 3d
       -2.208624e-05 0.051030047 9.696863e-06 0.04819425
000040 81 cb 3d 3e 9b e1 bc 3d 09 05 f8 bc da 46 df b6
       0.18534662 0.09222718 -0.030275838 -6.654166e-06
000050 78 7a bd be 99 dd 39 3b e9 f6 ca b8 d2 5f 08 b8
       -0.370075 0.0028360842 -9.678101e-05 -3.2514166e-05
000060 34 b8 1d 3b bd a5 49 39 bf 17 06 38 6e 31 af 3b
       0.0024066092 0.00019230596 3.1970205e-05 0.0053464686
000070 71 d7 d8 3c 3b a1 87 3e 02 69 03 3c 92 9c 1a bb
       0.026469918 0.26490197 0.008020641 -0.0023591858
000080 a8 62 83 3d b5 b9 ca 3c 1d 40 59 3c fe c8 8a b9
       0.064153016 0.024746755 0.013259915 -0.00026471162

rate_f.4.bias f4 [3]
000000 08 39 15 3a c7 d5 71 bc f6 05 ee bc
       0.0005692397 -0.014760441 -0.029055577
