output/B_2_0.5.pth (torch, 3287 bytes, 6 tensors)

rate_f.0.weight f4 [12, 7]
0	0xbc96033b	-0.018312087
1	0xbdc56f5b	-0.0964038
2	0x3c9a7653	0.01885525
3	0xbd0bdb3e	-0.034144633
4	0xbdb5206a	-0.08844073
5	0xbd9a3455	-0.07529513
6	0xb6aa7e6b	-5.081112e-06
7	0xbe8af55e	-0.27140325
8	0x3e019283	0.12653546
9	0x3c3950d4	0.011310775
10	0x3d99d447	0.07511192
11	0xbc793252	-0.015209751
12	0xbdcf4117	-0.10119837
13	0x3cd8e85d	0.026477987
14	0x3d878041	0.06616259
15	0xbea27092	-0.3172651
16	0x3dc0e074	0.09417811
17	0x3b420de5	0.0029610333
18	0x3dd7a507	0.10529523
19	0x3e15dfff	0.14636229
20	0x3d3c6fb9	0.046004985
21	0xbd85e991	-0.0653869
22	0x3e7a6ceb	0.24455611
23	0x3d95193d	0.072802044
24	0x3d88bb9d	0.066764094
25	0xbe32f739	-0.1747712
26	0xbdfa997c	-0.12236306
27	0x3d9fd6cd	0.07804642
28	0xbe3a75e7	-0.18209039
29	0xbe321444	-0.17390543
30	0x3eb387ce	0.35064548
31	0x3d339085	0.043838996
32	0xbd9c89b9	-0.07643456
33	0xbdc94fce	-0.09829675
34	0x3e3040cb	0.17212217
35	0x3ed24693	0.4106947
36	0x3d35c20f	0.04437452
37	0x3e3f5f16	0.18688616
38	0xbc4f07dc	-0.012636151
39	0xbddd1985	-0.10795883
40	0xbe6c9d89	-0.2310697
41	0xbc070d7b	-0.00824296
42	0x3e35cc34	0.17753679
43	0xbe9e644b	-0.30935892
44	0xbe75d5f3	-0.24007396
45	0x3e5700d9	0.20996417
46	0x3db3c0dc	0.087770194
47	0x3e84d42b	0.2594312
48	0xbcbf5dbd	-0.023360128
49	0xbe5472b1	-0.20746876
50	0xbdbb1d35	-0.0913643
51	0x3e2912f6	0.1651114
52	0x3d399dd2	0.045316525
53	0x3d37acd4	0.044842556
54	0xbd5c8137	-0.053834166
55	0x3e42bb96	0.19016871
56	0xbdf83136	-0.12118761
57	0x3c5d484b	0.0135060055
58	0xbd3f6c7c	-0.046734318
59	0xbe08a457	-0.1334394
60	0x3d810f1f	0.06301712
61	0x3d2b8976	0.04187914
62	0x3dcf4910	0.101213574
63	0x3d18c5b4	0.03729792
64	0xbe241c2e	-0.16026375
65	0x3e3d5a22	0.18491414
66	0xbb9a79ed	-0.0047142417
67	0x3c729a4d	0.014807296
68	0x3cc04ec3	0.023475057
69	0xbb08a51d	-0.0020850368
70	0x3dce15e5	0.1006277
71	0xbc801e6d	-0.015639508
72	0x3e3c55ed	0.18392153
73	0xbd8f5ed2	-0.070005074
74	0xbdb4fd1d	-0.0883734
75	0xbdf7e6b3	-0.12104549
76	0xbd4a4420	-0.049381375
77	0x3e0b759b	0.13619082
78	0x3e7b093d	0.24515243
79	0xbe478767	-0.19485246
80	0xbc99d285	-0.018777141
81	0x3d7fb4b7	0.062428202
82	0x3d99d012	0.075103894
83	0xbb7ce63d	-0.003858938

rate_f.0.bias f4 [12]
0	0xbda4b360	-0.080420256
1	0x3dadc41d	0.08484671
2	0x3c7967ae	0.015222473
3	0x3c50333e	0.01270753
4	0x3db4d8a1	0.08830381
5	0xbbb19416	-0.0054192645
6	0xbd069635	-0.032858092
7	0x3d3394dc	0.043843135
8	0x3e9a8fcf	0.30187842
9	0xbcaab1b8	-0.020836696
10	0x3dba1a00	0.0908699
11	0xbd4764c5	-0.048680086

rate_f.2.weight f4 [12, 12]
0	0x3d685ae4	0.056727305
1	0xbe5b22e8	-0.21400034
2	0x3e72fd76	0.237295
3	0xbe5d299c	-0.21597904
4	0x3db9c1fb	0.09070202
5	0x3e8c0577	0.2734792
6	0x3dbc6cb7	0.09200423
7	0x3dc71403	0.09720614
8	0xbdc08c9a	-0.094018176
9	0x3e6f2c28	0.23356688
10	0x3de7fe28	0.11327773
11	0xbc7ecb43	-0.015551391
12	0xbe61187d	-0.21981998
13	0x3d8c6de0	0.068568945
14	0xbe0c5e14	-0.13707763
15	0x3dadae42	0.08480503
16	0xbe546893	-0.20743017
17	0x3df40066	0.119141385
18	0x3c51ac4b	0.0127974255
19	0xbe099a7f	-0.13437842
20	0xbdb2a65b	-0.08723136
21	0xbdc69428	-0.09696227
22	0xbd89f33c	-0.067358464
23	0x3edec7fe	0.43511957
24	0x3c9512f6	0.018197518
25	0x3d531273	0.051531266
26	0xbe208d7a	-0.15678969
27	0x3e0a6682	0.13515666
28	0x3d976987	0.073931746
29	0x3dff5b00	0.12468529
30	0xbe0e6e03	-0.13909154
31	0x3d33b789	0.043876205
32	0x3ddd3b7d	0.10802362
33	0xbe1915e5	-0.14949758
34	0x3daff699	0.08591957
35	0xbceaf23e	-0.028679963
36	0xbde031e2	-0.109470144
37	0x3deb278e	0.11482154
38	0xbdb68447	-0.08911949
39	0x3e5b1498	0.21394575
40	0x3e01920f	0.12653373
41	0x3e138001	0.14404298
42	0xbdcfc6f7	-0.101453714
43	0x3db9f5a9	0.09080059
44	0x3e3b93b3	0.18318062
45	0xbc7899e9	-0.015173414
46	0x3cba7028	0.022758558
47	0xbcb4493e	-0.02200758
48	0x3ba9ed44	0.005185755
49	0x3dc1818b	0.094485365
50	0xbc28471e	-0.010270862
51	0xbd801a29	-0.0625499
52	0x3dbb7d7c	0.091547936
53	0xbe36f9d3	-0.17868738
54	0x3c0d19c9	0.008612105
55	0x3e1c50cb	0.15265195
56	0xbe6ed8c8	-0.23324883
57	0xbdbfbd50	-0.0936228
58	0xbe46e734	-0.19424134
59	0xbcedfab7	-0.029050214
60	0x31f348f9	7.080527e-09
61	0x3da41ca5	0.08013276
62	0x3dbde3b8	0.092719495
63	0xbd5c8d0e	-0.053845458
64	0xbdeab69f	-0.114606135
65	0xbe460cc6	-0.1934081
66	0x3dc0695e	0.09395097
67	0x3cf036f4	0.029323079
68	0x3d23d4f9	0.03999803
69	0xbc6f2fd3	-0.0145988045
70	0xbe33b5db	-0.17549841
71	0x3c9a93f7	0.018869383
72	0x3c2ed663	0.010671231
73	0xbe00bc66	-0.12571868
74	0x3b78643a	0.0037901537
75	0x3d9ab16c	0.07553372
76	0xbe8b4a95	-0.2720534
77	0x3dcd4f2a	0.10024865
78	0x3d65bdfb	0.056089383
79	0x39ea3b73	0.0004467625
80	0x3e57d3ed	0.21076937
81	0xbd6deb72	-0.058085866
82	0x3e29ea9f	0.16593407
83	0x3dd74721	0.10511614
84	0x3bbdf33a	0.005796817
85	0xbdaa2370	-0.083075404
86	0xbc4178f5	-0.011808624
87	0xbc9b69f4	-0.01897142
88	0xbe36b6de	-0.17843196
89	0x3e8a49a2	0.27009302
90	0x3b20d707	0.0024542229
91	0xbcc53c91	-0.024076732
92	0x3e1b77f6	0.1518248
93	0x3d510e16	0.051038824
94	0x3dbcd231	0.09219778
95	0xbd8ae0b5	-0.06781141
96	0x3d025b1c	0.03182517
97	0xbd528b2e	-0.051402263
98	0xbe394c6b	-0.18095557
99	0x3b414a51	0.002949376
100	0xbe8a8c62	-0.2706023
101	0xbd0f0ffc	-0.034927353
102	0x3d986859	0.07441778
103	0xb9b2c9a3	-0.00034101037
104	0x3db2c1ea	0.087283924
105	0xbe401a52	-0.1876004
106	0xbd9f3a92	-0.07774843
107	0x3e404035	0.18774493
108	0x3d3ed248	0.04658726
109	0x3d906435	0.07050363
110	0x3d842064	0.064514905
111	0xbce6f426	-0.02819259
112	0x3def1414	0.116737515
113	0xbded5262	-0.11587979
114	0x3e17335e	0.14765689
115	0x3e397640	0.18111515
116	0x3d9ed20f	0.07754909
117	0x3a60bc71	0.0008573002
118	0xbdc37268	-0.09543306
119	0x3a2048ca	0.0006114362
120	0x3caa6d45	0.020804057
121	0xbe35b074	-0.17743093
122	0x3d64c79d	0.05585443
123	0xbc869b74	-0.016431548
124	0xbdb13950	-0.086535096
125	0x3e211e6c	0.15734261
126	0x3d564a3f	0.0523169
127	0xbde158ad	-0.11003242
128	0x3eda747e	0.42667
129	0xbd91f692	-0.07127108
130	0x3e3dea92	0.18546513
131	0x3d5154dc	0.05110632
132	0xac2bb418	-2.4400534e-12
133	0xbc7e22de	-0.015511243
134	0xbc0fae59	-0.008769595
135	0xbd354124	-0.044251576
136	0xbc7d052a	-0.015443126
137	0xbd3a2256	-0.0454429
138	0xbd4e1d2c	-0.05032079
139	0xbcb08a56	-0.021550339
140	0xb021f0e8	-5.8913807e-10
141	0xbc07bcd8	-0.00828477
142	0xbb03fefd	-0.0020140999
143	0xbc78be4c	-0.015182089

rate_f.2.bias f4 [12]
0	0xbd42d5f1	-0.04756731
1	0xbd44c7d7	-0.048042145
2	0x3ac8dd2d	0.0015324705
3	0xbb0b5560	-0.0021260604
4	0x3d911f38	0.07086033
5	0x3ce8521c	0.028359465
6	0xbd234f56	-0.039870583
7	0xbcf9f5c7	-0.030512704
8	0x3ca6cb8c	0.02036073
9	0xbb800c2a	-0.0039077
10	0xbc965f24	-0.018355913
11	0xbd4824cf	-0.04886323

rate_f.4.weight f4 [3, 12]
0	0xbdf35abf	-0.11882543
1	0xbe236b00	-0.15958786
2	0x3ca9c387	0.020723118
3	0x3d58cf8f	0.05293232
4	0x3e90971f	0.28240296
5	0x3dca63eb	0.09882339
6	0xbe0cfe5c	-0.13768905
7	0xbd97d767	-0.074141316
8	0xbd6771b4	-0.05650492
9	0x3d6cd3a7	0.057819035
10	0xbe54732f	-0.20747064
11	0xbd609567	-0.05482998
12	0x3e51ca7f	0.20487402
13	0xbe2b2337	-0.16712652
14	0xbdcad7c4	-0.09904435
15	0xbdb71684	-0.089398414
16	0x3c8e696e	0.017384257
17	0x3d98b3a3	0.07456138
18	0xbd442f55	-0.0478967
19	0xbbb215a0	-0.005434707
20	0xbe0006dd	-0.12502618
21	0x3db95d78	0.09051031
22	0x3cef8ea8	0.029242828
23	0x3b126869	0.0022340065
24	0xbdbd6852	-0.09248413
25	0x3daa2d8e	0.0830947
26	0xbd97d910	-0.07414448
27	0xbdef51f6	-0.11685555
28	0xba98ecf3	-0.0011667296
29	0x3e2b6e64	0.1674133
30	0x3d53f628	0.051748425
31	0xbc3fd08c	-0.011707436
32	0x3e0eac5b	0.13932936
33	0x3d78fe81	0.06078959
34	0x3c65cc09	0.014025697
35	0xbbcc8995	-0.006241987

rate_f.4.bias f4 [3]
0	0x3c487303	0.012234452
1	0x3b0c119f	0.0021372808
2	0xba6d15ba	-0.000904407
