output/B_C2_S20_D15.pth (torch, 5591 bytes, 6 tensors)

rate_f.0.weight f4 [24, 7]
-0.069783665 -0.117105 -0.008770425 -0.038375553 -0.22714925 -0.004203374 -0.04710679 0.15160802
-0.13162957 0.0079328185 -0.034263503 0.2555108 0.16212277 0.061099395 0.022653727 -0.15303972
0.009065372 0.0034446365 -0.0950462 0.099470995 -0.105199315 0.026271893 0.090121634 -0.027543513
-0.089203164 0.07950807 -0.07665088 0.24002808 0.009797577 -0.05008053 -0.058598593 -0.011734826
0.034380462 -0.18641376 -0.0011239154 0.081756234 -0.072582915 0.011256383 0.049081765 0.09020423
0.049654406 0.11484777 -0.13820541 0.12218571 0.041291025 0.06520936 0.119353846 -0.12366725
0.03336577 -0.051532295 0.13795581 0.07106219 0.023282573 0.019091712 -0.06002845 -0.020353204
0.0037416685 -0.08606211 -0.1281316 0.08875333 -0.01925932 -0.005433412 0.067932904 -0.07775636
-0.11284641 0.07273845 -0.093461856 -0.07899906 0.034561742 0.1455082 0.2673692 0.111635625
-0.033574026 -0.015706223 0.25736296 -0.06494994 0.06050821 -0.07853263 -0.09990921 -0.045628082
-0.0014184121 -0.06843516 -0.11987127 -0.011848345 0.05764043 -0.03247392 -0.02110128 -0.11964411
0.07949479 -0.116772674 -0.066323094 -0.07659408 0.004889844 0.07722927 -0.034541782 -0.102615066
0.046790756 0.1063276 0.015821243 0.057932496 0.032808322 -0.04892593 0.0047625857 0.03980923
-0.05613114 0.036058877 -0.131753 0.02701694 0.010410654 0.1682963 0.18112978 -0.1266532
-0.09367907 0.19851597 -0.06905046 0.082292624 -0.09483919 -0.06822776 -0.044176884 0.08336764
-0.09679445 0.041371807 -0.009024071 0.018293798 -0.05981568 -0.051896885 0.22217308 0.2163319
-0.0036434499 -0.04175583 0.025062757 -0.031778757 -0.098937675 0.092195526 -0.009282526 0.072019406
0.14578156 -0.087277345 0.021176139 -0.12689368 0.12689985 0.02275424 0.107995905 -0.028106581
0.034626912 0.047210522 -0.08686862 0.020647792 0.047061425 -0.1343264 -0.013875743 -0.038806923
0.111276485 0.024537962 0.07096247 -0.010393549 -0.20680216 -0.0065842415 -0.17998244 -0.019991592
-0.01864977 -0.10242849 -0.014429904 0.095396526 0.07763432 -0.052182022 -0.14770617 0.03588035
00000000: bdea 8ebd bfd4 efbd d4b1 0fbc af2f 1dbd
00000010: d099 68be 75bc 89bb 0df3 40bd 223f 1b3e
00000020: e7c9 06be a7f8 013c e357 0cbd 50d2 823e
00000030: 8303 263e 5c43 7a3d 4f94 b93c 72b6 1cbe
00000040: ed86 143c 69bf 613b 95a7 c2bd 73b7 cb3d
00000050: bd72 d7bd 2738 d73c b191 b83d efa2 e1bc
00000060: 26b0 b6bd 21d5 a23d 23fb 9cbd ecc9 753e
00000070: 0486 203c 3e21 4dbd 1405 70bd 6d43 40bc
00000080: 87d2 0c3d 40e3 3ebe 5850 93ba d06f a73d
00000090: 5aa6 94bd b16c 383c f609 493d ffbc b83d
000000a0: 6b62 4b3d 4f35 eb3d b885 0dbe 803c fa3d
000000b0: c720 293d 7c8c 853d ca6f f43d 4145 fdbd
000000c0: 8caa 083d 8713 53bd 4a44 0d3e 0e89 913d
000000d0: 18bb be3c 3966 9c3c 64e0 75bd c3bb a6bc
000000e0: c836 753b 5541 b0bd ee34 03be 4ec4 b53d
000000f0: b9c5 9dbc c30a b2bb 6820 8b3d ba3e 9fbd
00000100: 051c e7bd e5f7 943d ee68 bfbd 42ca a1bd
00000110: 9d90 0d3d 1a00 153e 9ee4 883e 38a1 e43d
00000120: eb84 09bd 56aa 80bc 14c5 833e 7904 85bd
00000130: 75d7 773d b7d5 a0bd 339d ccbd 83e4 3abd
00000140: 03ea b9ba bc27 8cbd 127f f5bd 901f 42bc
00000150: 5f18 6c3d 6003 05bd 97dc acbc f907 f5bd
00000160: 2ace a23d 8326 efbd 67d4 87bd 5bdd 9cbd
00000170: fc3a a03b 612a 9e3d af7b 0dbd d927 d2bd
00000180: aaa7 3f3d 49c2 d93d 8d9b 813c a04a 6d3d
00000190: 0562 063d 8e66 48bd 770f 9c3b 010f 233d
000001a0: c4e9 65bd 79b2 133d 42ea 06be a152 dd3c
000001b0: 7391 2a3c de55 2c3e 167a 393e 60b1 01be
000001c0: d0da bfbd c547 4b3e 546a 8dbd 0989 a83d
000001d0: 0d3b c2bd ffba 8bbd d2f2 34bd a7bc aa3d
000001e0: 2b3c c6bd 7c75 293d b2d9 13bc e0dc 953c
000001f0: 4901 75bd d491 54bd 5781 633e 1c86 5d3e
00000200: f2c6 6ebb 2908 2bbd 6950 cd3c 712a 02bd
00000210: d69f cabd 02d1 bc3d bc15 18bc e97e 933d
00000220: c347 153e 77be b2bd 9579 ad3c 6bf0 01be
00000230: 09f2 013e 1a67 ba3c f52c dd3d c63f e6bc
00000240: f3d4 0d3d d25f 413d 2de8 b1bd 8f25 a93c
00000250: 7bc3 403d dc8c 09be 1657 63bc 02f4 1ebd
00000260: ede4 e33d d603 c93c c554 913d b449 2abc
00000270: f2c3 53be 9fc0 d7bb 514d 38be 68c5 a3bc
00000280: 67c7 98bc 07c6 d1bd 676b 6cbc 415f c33d
00000290: befe 9e3d d1bc 55bd 4940 17be 46f7 123d

rate_f.0.bias f4 [24]
-0.005611814 0.020713937 -0.013553736 0.05260979 0.0022421936 0.00013452582 -0.028648663 -0.01455038
0.0026791247 -0.012752852 0.033534847 -0.006301654 -0.02560662 0.011704631 0.0073993434 -0.008120951
0.012966515 0.027069107 -0.019899884 -0.0002536787 -0.0010933672 0.046349563 -0.0042163315 -0.0039478736
00000000: 4fe3 b7bb 46b0 a93c 7d10 5ebc 5d7d 573d
00000010: c4f1 123b 800f 0d39 9ab0 eabc b864 6ebc
00000020: 4194 2f3b 57f1 50bc d65b 093d 1b7e cebb
00000030: f9c4 d1bc c8c4 3f3c 3176 f23b bd0d 05bc
00000040: 8171 543c 08c0 dd3c 1505 a3bc 2e00 85b9
00000050: 514f 8fba 0ad9 3d3d 2729 8abb 2a5d 81bb

rate_f.2.weight f4 [24, 24]
0.08049653 -0.013143435 -0.14770646 0.023234162 -0.06401705 -0.06980133 -0.06919405 -0.034812964
-0.08717435 0.03971826 -0.064585686 -0.090251006 -0.005933741 -0.070387766 0.0035897775 0.08646563
0.008044244 0.034664523 -0.04097236 -0.18145776 -0.09597459 0.114360616 0.1459978 0.05348355
0.09272588 -0.19611491 -0.026960371 0.21775907 -0.011230649 0.04758979 -0.05279673 -0.037496716
0.027020453 0.07152361 0.1180382 0.19101028 0.007829311 0.13926254 -0.10066214 -0.039326213
0.05134128 0.0072156102 0.14068411 -0.04173836 0.2189253 0.033614557 0.096978255 -0.17373025
-0.017582722 -0.051959105 0.015217668 -0.030315928 0.01915522 -0.062056787 0.02335588 0.085536465
-0.035410944 0.00848714 0.018508496 0.05182136 0.011818666 -0.027357852 -0.049544133 -0.02626773
0.109729186 -0.020749848 0.19271524 -0.014658269 -0.025955584 0.23526613 -0.07518603 0.052730642
0.18810715 -0.1449059 -0.13037309 0.044402108 0.040154807 -0.0053979224 -0.07381236 -0.026083829
-0.093609706 0.0624916 -0.1694662 -0.10077691 0.06726617 0.1207167 -0.073876865 -0.034515806
-0.027830256 0.017027356 0.13896786 -0.008834469 -0.008098267 0.08384751 0.07917162 0.15217797
-0.015856782 -0.06042362 -0.022237152 0.18125933 0.0899704 -0.012598467 -0.028850012 0.0009909385
-0.049913913 -0.053393792 0.13254191 -0.09679204 -0.0118074445 0.013757646 -0.14292908 -0.00057385274
-0.14494082 0.15134673 0.004795197 -0.011064223 0.112023816 0.17942896 0.08300419 -0.122990936
-0.027910817 0.11933118 0.19439113 -0.15310186 0.14181484 -0.009662837 -0.072650194 -0.11431264
0.20906591 -0.036459524 0.06989078 -0.0938575 -0.020372573 0.00794556 0.0025147253 0.038273755
0.049738597 -0.012579246 -0.1680399 0.059238534 -0.031417947 0.11827168 0.058381535 -0.018056285
0.0016241602 0.12123096 0.050716255 -0.13295075 0.028781384 -0.0914248 0.123083174 -0.2680337
0.13100414 -0.06162191 0.10514792 0.15627138 0.011084312 0.09444685 -0.08147105 -0.09449468
0.042522088 -0.2686296 -0.22785471 -0.0046289368 -0.057773914 -0.0127055235 -0.13379689 0.02252504
-0.07808913 0.020799188 0.033669803 -0.07584392 -0.045451622 0.124646395 0.14705479 -0.022706578
0.07423745 0.008418241 -0.09528515 0.035222955 -0.07084523 0.105359755 0.033152632 -0.07789015
0.039120127 0.0029538183 -0.16058785 -0.08366104 0.10826101 0.037872 -0.018385615 0.0854213
0.17324877 -0.08825726 0.022661414 0.06511368 0.07204719 -0.14545193 -0.09158278 0.11015512
0.16451503 -0.06746232 0.14840111 0.077954136 -0.066184826 -0.01937911 0.18183728 -0.21099399
-0.07161513 0.1466024 0.10810797 0.1680203 0.07923551 0.008644516 0.051511228 -0.100266606
-0.045719806 -0.06374355 -0.022240994 0.10014347 0.06551983 0.016089765 -0.033540543 -0.042842112
-0.009911834 0.109839655 0.02318778 -0.09590287 0.074817814 0.115953274 0.0050400305 -0.021399135
-0.0021862758 -0.060282666 -0.07427578 -0.117194936 -0.055313174 0.08024138 -0.011680271 0.009839757
-0.06478772 -0.030422948 -0.024089068 -0.02010307 -0.008385817 0.01884117 -0.05142694 -0.09504422
-0.066266894 0.045595035 -0.039765473 -0.023715785 -0.041758034 -0.04370377 -0.028203115 -0.15743053
00000000: 5ddb a43d 9057 57bc 5d40 17be 9255 be3c
00000010: 5f1b 83bd 00f4 8ebd 9cb5 8dbd 0a98 0ebd
00000020: 7788 b2bd 9daf 223d 8045 84bd 85d5 b8bd
00000030: d46f c2bb 7627 90bd 7942 6b3b e414 b13d
00000040: 01cc 033c 63fc 0d3d a2d2 27bd 10d0 39be
00000050: 538e c4bd e635 ea3d 7380 153e 9111 5b3d
00000060: 11e7 bd3d 59d2 48be ffdb dcbc 3cfc 5e3e
00000070: c200 38bc 83ed 423d 6241 58bd 2896 19bd
00000080: ff59 dd3c f87a 923d 03be f13d 3398 433e
00000090: 8346 003c d79a 0e3e f427 cebd 8614 21bd
000000a0: 3c4b 523d ed70 ec3b 7f0f 103e d8f5 2abd
000000b0: f42d 603e 6baf 093d 899c c63d 58e6 31be
000000c0: a409 90bc 12d3 54bd 8753 793c 1c59 f8bc
000000d0: 68eb 9c3c 422f 7ebd d554 bf3c be2d af3d
000000e0: 110b 11bd a50d 0b3c 219f 973c a242 543d
000000f0: 14a3 413c 931d e0bc caee 4abd 6c2f d7bc
00000100: b2b9 e03d 96fb a9bc 2557 453e 3c29 70bc
00000110: cea0 d4bc 9be9 703e 22fb 99bd 16fc 573d
00000120: 299f 403e 3662 14be 8680 05be fcde 353d
00000130: 5e79 243d 0ee1 b0bb ef2a 97bd c1ad d5bc
00000140: 72b6 bfbd 31f7 7f3d 8c88 2dbe 2064 cebd
00000150: d9c2 893d 513a f73d c14c 97bd 7260 0dbd
00000160: 47fc e3bc f47c 8b3c 974d 0e3e 73be 10bc
00000170: 98ae 04bc 3eb8 ab3d bb24 a23d 8bd4 1b3e
00000180: 15e6 81bc c27e 77bd b02a b6bc 0c9c 393e
00000190: 6742 b83d cd69 4ebc dc56 ecbc 61e2 813a
000001a0: 8872 4cbd 73b3 5abd 11b9 073e e83a c6bd
000001b0: 0374 41bc c067 613c 005c 12be 9b6e 16ba
000001c0: 5e6b 14be a3fa 1a3e 0721 9d3b b746 35bc
000001d0: be6c e53d 3abc 373e 1afe a93d ace2 fbbd
000001e0: 3aa5 e4bc e863 f43d 780e 473e bcc6 1cbe
000001f0: e937 113e e050 1ebc a0c9 94bd bf1c eabd
00000200: 6015 563e 9556 15bd e622 8f3d 5c38 c0bd
00000210: 62e4 a6bc 182e 023c 17ce 243b f1c4 1c3d
00000220: b3ba 4b3d 2f19 4ebc a712 2cbe 1ba4 723d
00000230: 1bb0 00bd 6c38 f23d 7a21 6f3d c6ea 93bc
00000240: c6e1 d43a f047 f83d d9bb 4f3d 3e24 08be
00000250: f0c6 eb3c ed3c bbbd 0813 fc3d b73b 89be
00000260: f325 063e 4267 7cbd cb57 d73d 9b05 203e
00000270: f99a 353c 5a6d c13d 4bda a6bd 6d86 c1bd
00000280: a42b 2e3d d289 89be bf52 69be 56ae 97bb
00000290: 57a4 6cbd d42a 50bc 0d02 09be 6f86 b83c
000002a0: 32ed 9fbd 0f63 aa3c 59e9 093d 0f54 9bbd
000002b0: 7b2b 3abd 9c46 ff3d 8895 163e 2503 babc
000002c0: ce09 983d a9ec 093c dc24 c3bd f245 103d
000002d0: 4e17 91bd dbc6 d73d 0ecb 073d df84 9fbd
000002e0: 6d3c 203d d994 413b 2471 24be 7b56 abbd
000002f0: f3b7 dd3d ac1f 1b3d 6e9d 96bc 5df1 ae3d
00000300: 2068 313e 39c0 b4bd 6ea4 b93c 525a 853d
00000310: 7a8d 933d 5af1 14be c18f bbbd 0299 e13d
00000320: a176 283e af29 8abd 76f6 173e 6ba6 9f3d
00000330: e98b 87bd f0c0 9ebc 8d33 3a3e cf0e 58be
00000340: f4aa 92bd f11e 163e b667 dd3d 830d 2c3e
00000350: 3a46 a23d baa1 0d3c 70fd 523d 9458 cdbd
00000360: b144 3bbd fa8b 82bd bf32 b6bc 0518 cd3d
00000370: 432f 863d afce 833c cf61 09bd 367b 2fbd
00000380: 3f65 22bc 9df3 e03d 4df4 bd3c b968 c4bd
00000390: 153a 993d e978 ed3d d726 a53b 3d4d afbc
000003a0: 9f47 0fbb f5ea 76bd e61d 98bd e603 f0bd
000003b0: 1190 62bd 9855 a43d 9b5e 3fbc ef36 213c
000003c0: 6daf 84bd 8c39 f9bc 7056 c5bc 32af a4bc
000003d0: aa64 09bc cc58 9a3c 0ea5 52bd 8ba6 c2bd
000003e0: f0b6 87bd dcc1 3a3d 1fe1 22bd 9b47 c2bc
000003f0: 790a 2bbd b902 33bd 380a e7bc 7835 21be

rate_f.2.bias f4 [24]
-0.008037512 0.017201383 -0.008053506 -0.0023100658 -0.014307917 0.021210141 0.018525802 0.011606974
0.0058400156 -0.0012712128 0.0 -0.006594462 0.0018159561 -0.019423682 0.0039400985 -0.002079546
0.0036244919 0.011029428 0.008075215 -0.012330154 -0.0115383575 0.0022631339 -0.00029593997 -0.030107949
00000000: c5af 03bc eae9 8c3c daf2 03bc 7964 17bb
00000010: c16b 6abc e4c0 ad3c 6cc3 973c 2d2b 3e3c
00000020: 9a5d bf3b d39e a6ba 0000 0000 5b16 d8bb
00000030: 6005 ee3a 6a1e 9fbc f11b 813b fe48 08bb
00000040: e288 6d3b c6b4 343c e84d 043c 6a04 4abc
00000050: 610b 3dbc 1651 143b 6428 9bb9 f2a4 f6bc

rate_f.4.weight f4 [3, 24]
-0.15910946 -0.05963689 -0.018761422 0.080580644 -0.08225899 0.13247727 0.21343663 0.1671702
-0.1080857 -0.008296246 -0.01189885 -0.056442786 -0.012630223 0.0058722766 -0.19199485 -0.19460218
-0.06872887 0.05566943 0.031021802 -0.0224877 -0.06702985 0.06388471 -0.019432977 0.017387928
-0.018648589 -0.074699245 0.0020661838 0.034004595 0.04304193 0.063939564 -0.051527113 0.067601345
-0.084388226 0.028772244 0.08342662 -0.17574967 0.12692474 -0.16404156 0.008727915 0.24454437
-0.09367749 -0.034527697 0.15493114 0.05117231 -0.05142672 0.0019330492 -0.10841961 0.16386229
-0.012197162 -0.028696364 0.101716444 0.02940511 0.09851426 0.13151334 0.028195072 -0.08130857
-0.08381872 -0.03125482 -0.12342498 -0.055999774 0.12010904 -0.1554362 0.17673779 -0.05760335
-0.07318001 -0.13126585 0.029238934 0.02907873 0.0072155907 0.02746036 -0.08643208 0.076057225
00000000: 97ed 22be d045 74bd 8eb1 99bc 7707 a53d
00000010: 6777 a8bd 1fa8 073e 228f 5a3e aa2e 2b3e
00000020: 095c ddbd faec 07bc 65f3 42bc 8d30 67bd
00000030: ffee 4ebc 3a6c c03b 4c9a 44be cb45 47be
00000040: b9c1 8cbd a105 643d 6f21 fe3c 2038 b8bc
00000050: f246 89bd fdd5 823d e831 9fbc 2171 8e3c
00000060: edc4 98bc ebfb 98bd d068 073b 6748 0b3d
00000070: bc4c 303d bff2 823d 180e 53bd 9372 8a3d
00000080: bcd3 acbd c5b3 eb3c 93db aa3d b9f7 33be
00000090: 8ff8 013e 83fa 27be 87ff 0e3c d769 7a3e
000000a0: fcd9 bfbd ea6c 0dbd 45a6 1e3e 0e9a 513d
000000b0: d3a4 52bd 5e5e fd3a 1a0b debd 84cb 273e
000000c0: 9bd6 47bc a314 ebbc b650 d03d fce2 f03c
000000d0: d8c1 c93d 6fab 063e 5af9 e63c 1c85 a6bd
000000e0: 26a9 abbd 0e05 00bd 3cc6 fcbd 0560 65bd
000000f0: bafb f53d ab2a 1fbe c0fa 343e 7ef1 6bbd
00000100: 67df 95bd 8e6a 06be 7d86 ef3c 8436 ee3c
00000110: c370 ec3b 8df4 e03c 4d03 b1bd e4c3 9b3d

rate_f.4.bias f4 [3]
0.010746835 -0.004563175 -0.0031026849
00000000: 7e13 303c b086 95bb 6a56 4bbb
