output/B_C2_S10_D15.pth (torch, 5591 bytes, 6 tensors)

rate_f.0.weight f4 [24, 7]
-0.07688752 -0.051781632 -0.12831186 -0.032956686 0.020770038 0.10714097 -0.13123988 0.0055487817
-0.07311662 0.095074266 0.12473944 -0.024534816 0.020339668 -0.0016060596 0.0956626 -0.058549687
0.062153507 0.054885767 -0.022057634 -0.10187413 0.0029529494 0.29116777 -0.1436652 -0.04288791
0.046279896 0.05828087 -0.110546745 -0.08068284 0.11490719 -0.029609606 0.1765513 0.08346191
-0.028490758 -0.01909496 -0.021164194 0.035086926 0.23178586 -0.06256338 -0.0918992 0.06918227
0.08825878 -0.06138596 -0.009978235 0.19060962 -0.08508934 0.013962302 -0.040954363 -0.11197191
0.07511639 -0.098427884 -0.2510437 0.14395782 0.081100695 -0.05651405 0.13625751 0.2711914
-0.09493407 0.030695062 -0.04840093 0.05877196 0.10961278 0.10488374 0.09920937 -0.09458548
0.052608147 -0.25316155 -0.083033614 0.03246858 -0.14032239 0.113578886 0.03136186 -0.26235843
-0.19145092 0.07637828 0.07931778 0.024209661 -0.052697856 0.0125747835 0.08874843 0.2440885
0.10684294 0.07908515 0.2694388 -0.054689657 0.076124586 0.09675642 -0.18354285 -0.03322876
-0.00883561 0.008734701 0.16979916 0.25869638 -0.07728171 0.19839989 0.026110195 -0.15125659
-0.061654143 -0.07363347 0.054148242 0.011155508 0.08462284 0.16122983 -0.11133305 0.22601533
-0.25956964 -0.05513298 0.02016437 0.2174239 -0.06366946 0.049071908 -0.0135319065 -0.024393773
0.17103387 0.00036911 6.200662e-06 0.07710034 -0.031712744 0.021807471 -0.13401589 -0.21583357
-0.09144733 -0.084095925 0.10220462 0.19771434 0.04388107 -0.03601096 0.13334908 0.004520881
-0.20325966 0.060460635 0.12262044 0.10614115 -0.13852589 -0.034135126 -0.02251095 -0.026868392
-0.0104874475 0.066417046 -0.15312207 0.008134184 0.10275147 -0.16675016 -0.021547621 -0.16754864
0.14722359 0.097205035 -0.100995645 0.06320755 0.10286172 -0.008178361 0.035502993 -0.12239657
-0.044723913 -0.15505245 -0.123234674 0.13828668 0.0045192502 0.054447193 -0.02729307 -0.014520655
0.031718154 0.021769792 -0.08598297 -0.25486642 0.09148947 0.012246606 0.11025256 -0.016832253
00000000: 3477 9dbd fa18 54bd 2f64 03be 97fd 06bd
00000010: ed25 aa3c ba6c db3d bf63 06be 8ed2 b53b
00000020: 2bbe 95bd 4cb6 c23d 6477 ff3d 3dfd c8bc
00000030: 609f a63c 6b82 d2ba c1ea c33d ccd1 6fbd
00000040: ad94 7e3d e6cf 603d 36b2 b4bc 62a3 d0bd
00000050: 4586 413b f113 953e f81c 13be 3cab 2fbd
00000060: fd8f 3d3d ecb7 6e3d 5566 e2bd 0b3d a5bd
00000070: 7654 eb3d d88f f2bc ddc9 343e 14ee aa3d
00000080: 7365 e9bc 096d 9cbc 8860 adbc 4fb7 0f3d
00000090: 4659 6d3e 3b21 80bd a635 bcbd 6faf 8d3d
000000a0: 05c1 b43d d86f 7bbd c07b 23bc 2b2f 433e
000000b0: 5243 aebd 24c2 643c c3bf 27bd 8751 e5bd
000000c0: 9fd6 993d 8f94 c9bd cd88 80be ae69 133e
000000d0: 1f18 a63d 477b 67bd 1787 0b3e 99d9 8a3e
000000e0: cb6c c2bd 3674 fb3c 0e40 46bd deba 703d
000000f0: aa7c e03d 49cd d63d 482e cb3d 08b6 c1bd
00000100: a47b 573d 649e 81be 870d aabd c6fd 043d
00000110: acb0 0fbe 0c9c e83d 4b75 003d d853 86be
00000120: b60b 44be 376c 9c3d 5c71 a23d 5753 c63c
00000130: b5d9 57bd 7706 4e3c bdc1 b53d 56f2 793e
00000140: 79d0 da3d 65f7 a13d e2f3 893e 4302 60bd
00000150: 35e7 9b3d 3b28 c63d a8f2 3bbe e11a 08bd
00000160: 3cc3 10bc fe1b 0f3c d5df 2d3e da73 843e
00000170: e045 9ebd 5729 4b3e 0ce5 d53c 02e3 1abe
00000180: 0e89 7cbd 25cd 96bd 8cca 5d3d 98c5 363c
00000190: bd4e ad3d 6f19 253e 9502 e4bd 9070 673e
000001a0: 50e6 84be 1fd3 61bd c02f a53c 5fa4 5e3e
000001b0: 2265 82bd a0ff 483d eeb4 5dbc 73d5 c7bc
000001c0: 8123 2f3e 1b85 c139 480f d036 c8e6 9d3d
000001d0: 39e5 01bd 95a5 b23c 763b 09be 7a03 5dbe
000001e0: bd48 bbbd 7c3a acbd a850 d13d a175 4a3e
000001f0: a3bc 333d 3a80 13bd a98c 083e e623 943b
00000200: 4d23 50be 92a5 773d 6d20 fb3d 8860 d93d
00000210: bbd9 0dbe 46d1 0bbd e268 b8bc 1a1b dcbc
00000220: 8bd3 2bbc a905 883d 08cc 1cbe 3e45 053c
00000230: 5d6f d23d 8ec0 2abe a384 b0bc df91 2bbe
00000240: c8c1 163e 6f13 c73d ced6 cebd f672 813d
00000250: 2aa9 d23d 88fe 05bc 966b 113d 0eab fabd
00000260: 6c30 37bd 12c6 1ebe 7662 fcbd 069b 0d3e
00000270: 3816 943b 0504 5f3d b795 dfbc 0be8 6dbc
00000280: e5ea 013d 9056 b23c d717 b0bd da7d 82be
00000290: d55e bb3d fda5 483c 18cc e13d cbe3 89bc

rate_f.0.bias f4 [24]
-0.008431228 -0.00071646634 -0.00044893523 0.012339839 0.006123061 0.01387508 0.0072460603 0.027706021
0.008346898 0.006766698 0.01738456 -0.027571313 -0.0074716727 -0.008908121 -0.01985263 0.053903457
-0.050611187 0.06846687 0.0057491907 -0.026502531 0.06460141 0.018977342 -0.005369711 0.069003284
00000000: 2223 0abc 3ed1 3bba 115f ebb9 092d 4a3c
00000010: f5a3 c83b 4e54 633c 5c70 ed3b bdf7 e23c
00000020: 6dc1 083c 2dbb dd3b 116a 8e3c 3cdd e1bc
00000030: efd4 f4bb 5ef3 11bc fca1 a2bc dfc9 5c3d
00000040: ad4d 4fbd 5c38 8c3d b563 bc3b d61b d9bc
00000050: be4d 843d 5f76 9b3c 67f4 afbb 9851 8d3d

rate_f.2.weight f4 [24, 24]
-0.09081193 0.06365407 -0.10337859 -0.13328752 -0.0011078056 -0.08225401 0.051959425 0.109310314
-0.01804413 -0.055504534 0.059131503 0.011411426 -0.15535049 -0.009703943 0.029167784 0.23850316
-0.1946697 0.090857275 0.023960302 -0.05395556 -0.034287877 0.010749478 0.20636304 -0.04016421
-0.17064969 0.072 -0.16799545 -0.0503962 0.03726082 -0.032218438 0.049288925 0.1129794
0.0561596 -0.18967406 -0.009648282 -0.15902008 0.05289629 -0.14343436 -0.06482241 0.18269795
0.052593645 0.22325936 -0.2130575 0.18431652 -0.058099035 -0.008154931 0.06636119 -0.17228049
-0.04526096 -0.18889044 0.030145852 0.003566258 -0.054242555 0.015508118 0.102122284 0.045697298
-0.03305906 -0.05465723 -0.05805352 0.030438833 0.05601741 -0.14339745 0.07657116 -0.16888537
0.016748339 -0.21414283 0.17411838 -0.08915675 0.028644586 -0.04565688 -0.032867663 -0.10252095
-0.06290269 -0.14486156 -0.015352139 0.007303002 -0.0513404 0.017194213 0.12725121 -0.26294005
0.005035459 0.007710004 0.04591226 0.1747276 -0.038340803 0.013950548 0.07382075 -0.082336344
0.10481986 -0.013769529 0.007819587 0.16173832 0.15997832 0.110624045 -0.18281488 0.036582824
0.124415696 0.062825 0.10973313 -0.13385954 -0.12449513 0.009440722 -0.09277855 -0.07298974
-0.08705964 0.15665415 0.19529769 -0.09268327 -0.018551707 0.07765188 0.028661335 0.0478601
-0.01670612 0.07301942 -0.05421559 0.0723867 0.18624939 -0.065540686 -0.0024130107 0.033332374
-0.010938699 -0.08696802 0.023780905 -0.03320712 -0.24381523 -0.030284246 0.035719424 0.056988243
-0.0022964748 0.01049746 0.042386036 -0.06422346 -0.005978044 -0.028356709 0.075457364 0.035680316
-0.09808578 0.010631603 -0.058629222 0.049689014 -0.012355924 0.11581156 0.08382175 0.06740219
-0.0608333 -0.018623408 0.007527404 0.058175635 0.06762349 0.02374659 0.036657948 -0.05484664
-0.08875119 -0.041880153 -0.045809727 -0.015220027 -0.021804338 0.0034434886 -0.15158992 0.16253555
0.044668343 0.01944089 0.086549625 -0.05508458 0.1795373 0.031210206 -0.06702089 0.07423966
-0.12503879 0.06413629 0.08672448 -0.062564775 -0.03908949 -0.04390478 -0.0719531 0.11320832
-0.038260113 -0.028519245 0.039772708 -0.0496801 -0.10223603 0.036724754 0.04278232 0.12973675
-0.011385186 0.27582532 -0.0858835 0.030621443 -0.062014505 -0.04965341 -0.11465841 -0.057080604
0.06550701 -0.155396 0.042230565 -0.05940683 0.02540724 0.1654508 -0.12394462 0.07353164
0.033529695 0.002552352 -0.055991124 -0.04540077 0.21132454 0.10538094 0.06056317 -0.09411371
-0.07171943 0.047344007 -0.12033309 -0.011351925 -0.090823695 0.039408814 -0.029594265 -0.02363365
0.031354494 -0.08916357 -0.088759676 0.10719081 0.023114441 0.13410889 -0.11226005 0.037405256
0.04825853 0.079317324 0.15339401 0.0015902049 -0.10788354 0.0058036647 0.058587138 -0.14587867
0.016510244 0.116389275 0.35288692 0.055365536 0.19849615 -0.15822054 0.055277415 0.06386349
0.14940965 -0.028177703 0.015598538 -0.07103806 -0.16098458 -0.020367105 -0.005623025 0.031584416
-0.058619507 0.022265077 0.05361835 0.056292612 0.032255374 -0.091307364 -0.0087792585 -0.019924631
00000000: 9bfb b9bd 115d 823d 27b8 d3bd 867c 08be
00000010: ca33 91ba ca74 a8bd 68d3 543d 16de df3d
00000020: 49d1 93bc b958 63bd e033 723d fdf6 3a3c
00000030: 3314 1fbe 49fd 1ebc 47f1 ee3c 2c3a 743e
00000040: 7e57 47be 6113 ba3d 6548 c43c 8100 5dbd
00000050: 7271 0cbd 941e 303c d550 533e 3a83 24bd
00000060: cbbe 2ebe bc74 933d 0007 2cbe 3f6c 4ebd
00000070: cd9e 183d 7bf7 03bd 2fe3 493d be61 e73d
00000080: 9c07 663d eb39 42be d413 1ebc 29d6 22be
00000090: c8a9 583d 75e0 12be 9dc1 84bd 2c15 3b3e
000000a0: 6f6c 573d 1a9e 643e bf2b 5abe 78bd 3c3e
000000b0: 41f9 6dbd 429c 05bc 60e8 873d 4c6a 30be
000000c0: 8e63 39bd 7f6c 41be 6ff4 f63c e1b7 693b
000000d0: 712d 5ebd c315 7e3c 7d25 d13d 172d 3b3d
000000e0: f068 07bd 42e0 5fbd 87c9 6dbd dc5a f93c
000000f0: 8372 653d c8d6 12be 57d1 9c3d 49f0 2cbe
00000100: d033 893c 4248 5bbe 174c 323e d097 b6bd
00000110: 0da8 ea3c b502 3bbd 3ea0 06bd 81f6 d1bd
00000120: 20d3 80bd 9756 14be 8a87 7bbc 054e ef3b
00000130: 504a 52bd e1da 8c3c 244e 023e 14a0 86be
00000140: 7e00 a53b 34a4 fc3b 7e0e 3c3d cbeb 323e
00000150: 3f0b 1dbd d790 643c 552f 973d f59f a8bd
00000160: cbab d63d 9799 61bc ba1d 003c bb9e 253e
00000170: 5bd1 233e dc8e e23d d333 3bbe dfd7 153d
00000180: a8cd fe3d 65aa 803d c3bb e03d 7a12 09be
00000190: 4df7 febd 42ad 1a3c ae02 bebd a57b 95bd
000001a0: 534c b2bd f269 203e 1efc 473e bad0 bdbd
000001b0: c0f9 97bc f307 9f3d 2dcb ea3c f408 443d
000001c0: 46db 88bc 358b 953d 2b11 5ebd 7a3f 943d
000001d0: 29b8 3e3e 323a 86bd 9a23 1ebb 8787 083d
000001e0: 3b38 33bc 4a1c b2bd 2cd0 c23c 3004 08bd
000001f0: b3aa 79be ab16 f8bc 884e 123d 816c 693d
00000200: 7480 16bb 8afd 2b3c fb9c 2d3d 9787 83bd
00000210: 78e3 c3bb 544c e8bc 6489 9a3d 8625 123d
00000220: 33e1 c8bd 2d30 2e3c 3225 70bd b586 4b3d
00000230: 8070 4abc 9c2e ed3d bdaa ab3d 290a 8a3d
00000240: 572c 79bd 1e90 98bc 71a8 f63b 9349 6e3d
00000250: 2f7e 8a3d 3588 c23c a526 163d dfa6 60bd
00000260: 2fc3 b5bd 868a 2bbd fba2 3bbd 6c5d 79bc
00000270: 039f b2bc 27ac 613b 633a 1bbe b86f 263e
00000280: 27f6 363d 8042 9f3c ee40 b13d 5ea0 61bd
00000290: a0d8 373e 8cac ff3c 4042 89bd f60a 983d
000002a0: 2b0a 00be e359 833d 9b9c b13d f621 80bd
000002b0: 4d1c 20bd 80d5 33bd 265c 93bd c4d9 e73d
000002c0: a3b6 1cbd 31a1 e9bc b5e8 223d 5c7d 4bbd
000002d0: 2061 d1bd b26c 163d 843c 2f3d b6d9 043e
000002e0: ee88 3abc fa38 8d3e b0e3 afbd d2d9 fa3c
000002f0: ec02 7ebd 6061 4bbd 07d2 eabd 5acd 69bd
00000300: 8a28 863d 2120 1fbe f5f9 2c3d 9454 73bd
00000310: d822 d03c ef6b 293e add6 fdbd c297 963d
00000320: 6f56 093d 5c45 273b f356 65bd 28f6 39bd
00000330: 7665 583e f6d1 d73d 1611 783d b0be c0bd
00000340: a3e1 92bd caeb 413d 3271 f6bd 6dfd 39bc
00000350: c601 babd 236b 213d ac6f f2bc 5b9b c1bc
00000360: 926d 003d 649b b6bd a2c7 b5bd db86 db3d
00000370: 7f5a bd3c d753 093e 99e8 e5bd 4136 193d
00000380: bdaa 453d 1f71 a23d 5213 1d3e 6c6e d03a
00000390: 0cf2 dcbd ab2c be3b 11f9 6f3d 3861 15be
000003a0: 7e40 873c 805d ee3d 98ad b43e f9c6 623d
000003b0: 9342 4b3e 9104 22be 926a 623d ddca 823d
000003c0: d8fe 183e edd4 e6bc 0391 7f3c 677c 91bd
000003d0: 24d9 24be ead8 a6bc 5a41 b8bb a95e 013d
000003e0: 021b 70bd 4065 b63c ea9e 5b3d 1593 663d
000003f0: 361e 043d 5bff babd e1d6 0fbc fb38 a3bc

rate_f.2.bias f4 [24]
0.018656598 -0.017406046 -0.012231351 -0.022654006 -0.01828057 0.012358023 0.018020526 0.029519664
0.041867997 0.007503149 0.016143607 -0.0026718995 -0.0020680807 -0.0067498432 -0.020784227 0.045849327
-0.024562355 -0.0031641303 0.0021182417 0.0061005633 -0.0263962 -0.007691405 0.011868728 0.0
00000000: b9d5 983c 2097 8ebc 0166 48bc e594 b9bc
00000010: 22c1 95bc 4e79 4a3c c89f 933c 39d3 f13c
00000020: c77d 2b3d fadc f53b 993f 843c 091b 2fbb
00000030: a388 07bb ca2d ddbb af43 aabc 81cc 3b3d
00000040: fe36 c9bc 4c5d 4fbb 33d2 0a3b 3ce7 c73b
00000050: d83c d8bc 2e08 fcbb 0e75 423c 0000 0000

rate_f.4.weight f4 [3, 24]
0.16105974 0.0391636 0.07731059 -0.10108002 -0.066617824 0.13977928 -0.1633896 0.25369236
-0.0818292 -0.092633255 0.15142466 -0.16070214 -0.02551617 0.14006351 -0.058372814 -0.0750496
-0.03763496 0.035337813 0.067333005 -0.079119846 0.09585653 -0.075588524 -0.09366983 -0.031534113
0.046804074 -0.0771168 0.043748587 0.011096443 -0.034168642 -0.04035743 0.061538372 0.11852823
-0.02316029 0.05890496 -0.02509186 -0.13637596 0.08472931 -0.038586073 0.21600284 -0.22972192
0.18652801 0.035755794 -0.0367544 0.15704523 0.043768313 0.024290865 -0.0043468927 -0.08964586
-0.07757408 0.04830841 -0.10276131 0.0029765095 -0.1349943 0.14895321 -0.03303154 -0.08317574
0.049670827 0.02163211 0.19715333 0.018480774 -0.13097608 0.039696556 0.10385314 -0.13156344
0.010357033 0.06903066 0.021962008 0.084229745 0.24529871 -0.24183555 0.10667857 0.0010081074
00000000: d8ec 243e 036a 203d 0455 9e3d 0b03 cfbd
00000010: ed6e 88bd 4d22 0f3e 9a4f 27be f7e3 813e
00000020: 1196 a7bd 81b6 bdbd 110f 1b3e 1a8f 24be
00000030: 4907 d1bc cf6c 0f3e 5518 6fbd 9bb3 99bd
00000040: 1e27 1abd 62be 103d e3e5 893d 9609 a2bd
00000050: 6e50 c43d 28ce 9abd f8d5 bfbd ea29 01bd
00000060: a1b5 3f3d 6aef 9dbd b831 333d dbcd 353c
00000070: 6bf4 0bbd d54d 25bd a90f 7c3d eebe f23d
00000080: a6ba bdbc 5446 713d 728d cdbc 24a6 0bbe
00000090: 8f86 ad3d 6e0c 1ebd d92f 5d3e 393c 6bbe
000000a0: 3301 3f3e ab74 123d c88b 16bd 77d0 203e
000000b0: 6746 333d a3fd c63c 6170 8ebb 4098 b7bd
000000c0: 29df 9ebd 0adf 453d 8674 d2bd 8b11 433b
000000d0: f23b 0abe 3187 183e 154c 07bd 0b58 aabd
000000e0: a373 4b3d d335 b13c 90e2 493e fe64 973c
000000f0: 981e 06be db98 223d f4b0 d43d 91b8 06be
00000100: 8cb0 293c f25f 8d3d abe9 b33c a580 ac3d
00000110: 962f 7b3e bda3 77be 4b7a da3d 7922 843a

rate_f.4.bias f4 [3]
0.004370901 0.008024715 0.00973841
00000000: c639 8f3b 187a 033c da8d 1f3c
