output/B_C_S5_D10.pth (torch, 5591 bytes, 6 tensors)

rate_f.0.weight f4 [24, 7]
-0.019253567 -0.12988883 0.07023123 -0.022193834 -0.038631756 0.049328074 -0.035099376 0.17967066
0.1172991 -0.044974044 0.0739211 0.1727418 -0.08579892 -0.031290475 -0.10505018 0.059923526
0.03519689 0.076827236 0.07083726 0.16640489 -0.020942075 -0.034746837 -0.09605011 0.024695478
-0.092489906 0.0698592 0.05416888 -0.13939486 -0.15135665 0.05548492 0.24897583 -0.05000687
0.12294078 0.061626025 0.023556514 0.06487024 -0.10097351 -0.23267242 0.110843144 0.21802299
-0.034252882 0.05397534 0.09791738 0.07831207 -0.14612852 0.019752888 -0.07493405 0.22353949
0.043447573 0.18302348 0.15629429 0.04275435 0.05145453 -0.017203245 -0.20515594 -0.0034251313
0.16205531 -0.10565553 0.0829623 -0.020943059 -0.024786934 0.15279119 -0.030985089 0.11788156
-0.043996774 0.11913993 0.026448429 -0.038376443 -0.09240181 0.21817583 0.12607467 0.03207426
-0.009899932 0.033030406 0.024606496 -0.14039296 0.035742577 -0.06414557 -0.023588108 -0.06145821
0.044064436 -0.20836051 -0.12736559 -0.004738287 0.08078294 -0.04990993 -0.027317977 -0.034003433
-0.047196355 -0.020212755 0.081814766 -0.041803177 0.12471842 0.06705465 0.13583508 0.036249757
-0.052534074 0.1063912 -0.06156383 0.14723237 -0.12444409 0.04920095 -0.039322264 -0.044843975
0.05806235 0.03721638 0.057194926 -0.07721093 -0.054956153 0.020027265 -0.04697744 0.08672149
0.027682299 0.009164266 -0.04168266 -1.0522835e-05 0.09665973 0.2141172 -0.082569785 0.03556821
0.035977237 -0.04334652 -0.055995468 -0.0029510579 -0.0114689665 -0.0057449522 0.04992628 0.14399272
0.018541312 -0.05263781 0.058601525 0.07812123 -0.10245438 -0.11350611 0.113245115 -0.033936657
0.06287421 0.04174011 0.055579342 -0.08639223 0.014304987 -0.08416103 0.014476369 -0.07162209
-0.072394736 -0.09166531 0.0031263288 0.01605764 0.025323724 0.1836404 -0.08195327 -0.13937438
0.024379466 0.0058942568 0.005230371 0.048758287 -0.097627565 0.011221797 0.23949736 0.023523072
-0.14337598 -0.13215162 -0.071759455 0.033030786 0.14439087 0.16012529 0.01295242 0.03813607
00000000: a8b9 9dbc 9401 05be 64d5 8f3d d8cf b5bc
00000010: 553c 1ebd 3c0c 4a3d 5dc4 0fbd 96fb 373e
00000020: 833a f03d b436 38bd f263 973d 3ae3 303e
00000030: 58b7 afbd 712a 00bd 8c24 d7bd 5f72 753d
00000040: 9d2a 103d 9957 9d3d 2013 913d 0b66 2a3e
00000050: b78e abbc b352 0ebd ecb5 c4bd 2c4e ca3c
00000060: 596b bdbd 5712 8f3d 30e0 5d3d 87bd 0ebe
00000070: 3dfd 1abe 2844 633d 85f3 7e3e 01d4 4cbd
00000080: 60c8 fb3d 926b 7c3d 97f9 c03c b0da 843d
00000090: 33cb cebd ae41 6ebe bb01 e33d 6b41 5f3e
000000a0: c04c 0cbd 3f15 5d3d e888 c83d 1462 a03d
000000b0: b7a2 15be cfd0 a13c 0677 99bd 89e7 643e
000000c0: 15f6 313d 826a 3b3e 9c0b 203e 2f1f 2f3d
000000d0: fcc1 523d d2ed 8cbc 6614 52be 2b78 60bb
000000e0: d4f1 253e ed61 d8bd 23e8 a93d c790 abbc
000000f0: f80d cbbc 4b75 1c3e 71d4 fdbc e36b f13d
00000100: f635 34bd a3ff f33d 60aa d83c 9e30 1dbd
00000110: 293d bdbd 7c69 5f3e b819 013e 4d60 033d
00000120: 5333 22bc e44a 073d 9093 c93c 2cc3 0fbe
00000130: cf66 123d c15e 83bd d93b c1bc 9bbb 7bbd
00000140: e97c 343d 755c 55be 206c 02be a243 9bbb
00000150: 8771 a53d 5b6e 4cbd f3c9 dfbc 2f47 0bbd
00000160: f750 41bd 3895 a5bc 808e a73d cf39 2bbd
00000170: 5f6c ff3d f353 893d 5a18 0b3e a07a 143d
00000180: f82d 57bd a1e3 d93d 5b2a 7cbd 15c4 163e
00000190: 8bdc febd ef86 493d 6210 21bd 51ae 37bd
000001a0: c9d2 6d3d 3470 183d 3a45 6a3d c420 9ebd
000001b0: b419 61bd 3810 a43c 6b6b 40bd 099b b13d
000001c0: fdc5 e23c b825 163c 70bb 2abd 3b8b 30b7
000001d0: 89f5 c53d 8a41 5b3e 591a a9bd f9af 113d
000001e0: de5c 133d 1f8c 31bd 815b 65bd 8966 41bb
000001f0: 55e8 3bbc 2740 bcbb 807f 4c3d d472 133e
00000200: f3e3 973c bf9a 57bd 2708 703d 06fe 9f3d
00000210: 9ad3 d1bd e475 e8bd 0eed e73d 2a01 0bbd
00000220: 32c4 803d adf7 2a3d 2aa7 633d 69ee b0bd
00000230: 775f 6a3c 9e5c acbd 4b2e 6d3c 9aae 92bd
00000240: b143 94bd 06bb bbbd 18e3 4c3b 508b 833c
00000250: b373 cf3c 3b0c 3c3e 1ed7 a7bd 28b8 0ebe
00000260: 72b7 c73c 9c24 c13b 8863 ab3b c5b6 473d
00000270: f6f0 c7bd a1db 373c cc3e 753e 75b3 c03c
00000280: 27d1 12be c152 07be 9ff6 92bd 4a4b 073d
00000290: 33db 133e e2f7 233e 6336 543c 9134 1c3d

rate_f.0.bias f4 [24]
0.007927688 0.0054863007 0.051986024 0.004923766 0.0020816566 0.01949926 0.018191453 -0.013790856
0.0029374496 -0.004179035 0.0076570287 -0.0067652124 -0.009255909 -0.0001654418 0.00056433026 -0.004983667
0.008921208 3.3919663e-05 -0.021729974 0.025895271 0.0 0.007056339 -0.030131996 0.019530883
00000000: 22e3 013c 6dc6 b33b 4cef 543d 8b57 a13b
00000010: 676c 083b e9bc 9f3c 3e06 953c 0bf3 61bc
00000020: 3a82 403b 49f0 88bb d0e7 fa3b b7ae ddbb
00000030: 19a6 17bc 727a 2db9 90ef 133a 074e a3bb
00000040: 422a 123c f644 0e38 0f03 b2bc 5222 d43c
00000050: 0000 0000 dd38 e73b 60d7 f6bc 3bff 9f3c

rate_f.2.weight f4 [24, 24]
-0.077087864 0.10252223 0.09366855 -0.025756441 0.09123366 -0.028684614 0.016350232 0.023703776
0.02311119 0.16783321 -0.06787996 0.01783515 0.06732503 0.056153975 0.023732325 -0.049799513
0.056154177 -0.17363156 0.2175188 -0.10903298 0.082199626 0.0063644857 0.020791357 -0.019040704
0.17574647 -0.046753198 -0.02736864 -0.04545177 -0.031879038 -0.06397658 0.10533956 0.051793326
0.09962007 0.029805796 0.116939 -0.0623613 0.0449876 0.06383621 0.024577478 -0.08153994
-0.0017187772 0.12110544 0.1360323 0.0011633433 -0.15206692 0.06334863 -0.13413188 -0.14644077
-0.1279537 -0.0026826405 0.20543188 -0.13145857 0.17819431 -0.01372316 -0.039140273 -0.04533175
-0.1869672 0.035858825 0.12468011 -0.0073074508 -0.014846869 0.076811016 -0.20258246 0.102812216
0.059647564 0.029677823 -0.18516634 0.12919739 0.044542424 -0.04424233 -0.032890074 0.065240934
0.07321719 0.08288296 0.17567906 0.058462203 0.046429496 -0.10339021 0.086272106 0.008314979
-0.30808312 -0.16095077 -0.088408284 0.011826415 -0.009115899 0.0498999 0.18963581 0.053267214
0.07035747 0.08520896 -0.18123978 0.008418386 0.0011461577 -0.013034942 0.038637146 0.26630446
0.031827483 0.078115165 -0.047696576 0.12841609 0.054608848 -0.1349575 -0.073632225 -0.12175466
0.11150469 0.12229426 0.09280518 -0.0040008756 0.013213646 -0.09758823 -0.060669534 -0.07659519
0.0071430677 0.047024015 -0.19349088 0.005943621 -0.05572954 0.036901314 0.042406585 0.0099423705
-0.045028053 -0.106182374 -0.06551743 -0.033339977 0.057678595 -0.10295764 -0.015116716 -0.077983156
0.0105689615 -0.012694655 -0.0011109824 0.056726035 -0.032655206 -0.1379492 0.094005734 -0.048395347
0.0019120432 -0.020615108 -0.17559345 0.15978432 -0.016084375 -0.06041605 0.06536419 -0.01557721
-0.15537882 0.06333341 0.03038425 0.008827037 -0.000510078 0.14132987 -0.01105364 0.11724673
0.054539457 -0.046148505 0.018734718 -0.11881612 0.0291696 -0.16669627 0.108607665 -0.029648863
0.027889894 0.009448946 0.11317228 -0.030671565 -0.06721363 -0.015428899 0.09950512 -0.079572216
0.036880195 -0.11946648 0.06533389 -0.10399073 0.124445975 0.023743674 0.011037093 -0.053480487
0.040196203 -0.0738708 -0.020851495 -0.004310488 0.12395107 -0.07025491 -0.0190019 0.0074032904
-0.041300986 -0.01719497 -0.13736895 0.058128733 -6.0941005e-05 0.0072772894 -0.0737711 -0.074308746
-0.052373447 0.092266314 -0.09512571 0.049430717 -0.07928099 0.027610822 0.021703266 0.16131148
0.24558678 -0.048862632 0.09962996 -0.01720106 0.04734201 -0.0051359455 -0.17401877 0.025048675
0.005282533 0.10680998 -0.13567941 -0.048340783 -0.027964026 0.06184568 0.057249676 -0.009343392
0.03422644 0.0141925765 -0.040583137 -0.1332029 -0.04123719 -0.07027767 0.016158648 0.013464491
-0.026214894 0.0100093745 0.03653632 -0.009452353 0.05490833 -0.030675232 -0.036165845 -0.033303604
0.002689925 0.01674039 0.03768827 0.0033767414 0.07457074 -0.012957973 0.032783862 -0.08681106
0.018156828 3.366772e-05 0.03383576 -0.18792564 0.06882909 0.021054354 -0.1368071 -0.19312577
0.1880123 0.057260707 0.05656589 0.050410073 -0.040443767 0.13800704 -0.02850103 0.097813606
00000000: 3ee0 9dbd 2df7 d13d 4cd5 bf3d 2cff d2bc
00000010: b7d8 ba3d fffb eabc ecf0 853c 6c2e c23c
00000020: ae53 bd3c 78dc 2b3e a604 8bbd 051b 923c
00000030: b5e1 893d b601 663d 4b6a c23c 93fa 4bbd
00000040: ec01 663d 79cc 31be 40bd 5e3e af4c dfbd
00000050: 4758 a83d 2d8d d03b a352 aa3c 40fb 9bbc
00000060: e2f6 333e 4880 3fbd 3334 e0bc a32b 3abd
00000070: 9893 02bd 2706 83bd 44bc d73d 3d25 543d
00000080: 9b05 cc3d 492b f43c b77d ef3d 906e 7fbd
00000090: eb44 383d 8fbc 823d b556 c93c 69fe a6bd
000000a0: 9848 e1ba 2106 f83d 0d4c 0b3e 537b 983a
000000b0: 6eb7 1bbe edbc 813d de59 09be 92f4 15be
000000c0: 4b06 03be 3dcf 2fbb bc5c 523e 139d 06be
000000d0: 9278 363e 1bd7 60bc 8d51 20bd c9ad 39bd
000000e0: 5474 3fbe b4e0 123d 4958 ff3d 5773 efbb
000000f0: 4840 73bc 184f 9d3d c771 4fbe 368f d23d
00000100: 0151 743d e81e f33c 3f9c 3dbe 524c 043e
00000110: 1e72 363d 7237 35bd beb7 06bd 0a9d 853d
00000120: e5f2 953d 8bbe a93d 36e5 333e 1076 6f3d
00000130: db2c 3e3d 3fbe d3bd 6eaf b03d 8d3b 083c
00000140: 12bd 9dbe 47d0 24be 670f b5bd 94c3 413c
00000150: da5a 15bc d663 4c3d e42f 423e b92e 5a3d
00000160: 9417 903d 0982 ae3d ec96 39be 45ed 093c
00000170: ac3a 963a 8290 55bc fc41 1e3d 0f59 883e
00000180: 895d 023d d8fa 9f3d 7c5d 43bd 827f 033e
00000190: 87ad 5f3d 4d32 0abe 7ecc 96bd 825a f9bd
000001a0: 925c e43d 6a75 fa3d a410 be3d c719 83bb
000001b0: 0c7e 583c 57dc c7bd 9e80 78bd f0dd 9cbd
000001c0: 6510 ea3b 419c 403d 7922 46be b5c2 c23b
000001d0: a844 64bd d525 173d 87b2 2d3d 53e5 223c
000001e0: 566f 38bd 2576 d9bd 012e 86bd 808f 08bd
000001f0: 6440 6c3d 75db d2bd 1aac 77bc a2b5 9fbd
00000200: 7029 2d3c 3efd 4fbc 629e 91ba 8f59 683d
00000210: 77c1 05bd 8e42 0dbe 1486 c03d 333a 46bd
00000220: 869d fa3a 04e1 a8bc c5ce 33be 809e 233e
00000230: 61c3 83bc d276 77bd a9dd 853d 8e37 7fbc
00000240: a01b 1fbe f2b4 813d 64e8 f83c 479f 103c
00000250: c1b6 05ba c7b8 103e 541a 35bc 0e1f f03d
00000260: c464 5f3d 3706 3dbd 8d79 993c de55 f3bd
00000270: 16f5 ee3c 6db2 2abe b26d de3d 2ce2 f2bc
00000280: 5979 e43c c1cf 1a3c dec6 e73d ef42 fbbc
00000290: 4da7 89bd 7ec9 7cbc 57c9 cb3d c2f6 a2bd
000002a0: b00f 173d d8aa f4bd c6cd 853d 18f9 d4bd
000002b0: 88dd fe3d 1882 c23c ecd4 343c 5b0e 5bbd
000002c0: c6a4 243d 9349 97bd c1d0 aabc fe3e 8dbb
000002d0: 0fda fd3d cee1 8fbd dfa9 9bbc 4d97 f23b
000002e0: 392b 29bd 77dc 8cbc 72aa 0cbe 6518 6e3d
000002f0: e89a 7fb8 5476 ee3b 4d15 97bd 2f2f 98bd
00000300: 8a85 56bd 1ff6 bc3d 45d1 c2bd dd77 4a3d
00000310: 125e a2bd 1730 e23c 0ccb b13c d62e 253e
00000320: 1a7b 7b3e 2f24 48bd cb0a cc3d 3de9 8cbc
00000330: b2e9 413d 6f4b a8bb fa31 32be e132 cd3c
00000340: 1919 ad3b 31bf da3d 8bef 0abe fc00 46bd
00000350: d014 e5bc e551 7d3d a37e 6a3d 0715 19bc
00000360: 0631 0c3d fb87 683c 813a 26bd 5766 08be
00000370: 54e8 28bd bded 8fbd 245f 843c 2b9a 5c3c
00000380: 9ec0 d6bc 5cfe 233c 1ca7 153d 0bde 1abc
00000390: 8fe7 603d a04a fbbc a322 14bd 5c69 08bd
000003a0: 7449 303b 2423 893c 045f 1a3d 524c 5d3b
000003b0: 8bb8 983d ae4d 54bc 5f48 063d ffc9 b1bd
000003c0: a1bd 943c 7036 0d38 5e97 0a3d 946f 40be
000003d0: 44f6 8c3d 2e7a ac3c 2917 0cbe c3c2 45be
000003e0: 4c86 403e 348a 6a3d a2b1 673d cb7a 4e3d
000003f0: 5da8 25bd b851 0d3e fe7a e9bc 8052 c83d

rate_f.2.bias f4 [24]
-0.02000973 -0.0040536113 0.012681576 0.019011488 0.0025089348 0.0 -0.0018924966 -0.008124952
-0.004189986 0.00012289596 -0.016640037 0.010552634 -0.010353741 -0.02953582 -0.0019979964 0.0
-0.013404503 0.009635274 0.004261155 -0.004560804 -0.0066174725 0.016161077 -0.009459959 -0.005756848
00000000: 72eb a3bc 28d4 84bb 63c6 4f3c fbbd 9b3c
00000010: f16c 243b 0000 0000 a60d f8ba 851e 05bc
00000020: 264c 89bb a2dd 0039 b050 88bc f4e4 2c3c
00000030: bda2 29bc 1bf5 f1bc d1f0 02bb 0000 0000
00000040: 909e 5bbc 45dd 1d3c 29a1 8b3b cc72 95bb
00000050: 62d7 d8bb 3c64 843c f2fd 1abc f1a3 bcbb

rate_f.4.weight f4 [3, 24]
-0.06643156 -0.21400806 0.08009084 0.24824993 0.04236709 0.15643747 -0.12895603 -0.04607925
-0.25260013 -0.00070669485 -0.074152 -0.11555481 -0.21159823 -0.036898248 -0.14753391 0.018213525
-0.016988527 -0.02477195 0.020357292 0.04507512 0.06760631 -0.116010614 -0.03485194 0.047177624
-0.045145687 -0.1176216 0.05774076 0.018975481 -0.042160228 -0.1194934 0.0026188956 0.050746866
-0.0055650496 0.10655877 0.07010321 -0.15841591 -0.10941193 -0.011164676 0.2174784 -0.0827156
-0.13936278 0.117115796 -0.02888912 -0.052468248 -0.0005082923 -0.04916465 0.122501515 -0.039631914
0.011231403 0.09364155 -0.1292563 -0.0137557 0.1424681 -0.036022767 0.2391335 -0.05336235
0.061459996 0.011052267 0.00789955 -0.07687607 0.2428019 0.031755153 -0.09986978 -0.10184999
-0.0945957 0.28316513 0.08235504 -0.050011385 -0.0146608995 -0.033990804 -0.036889177 -0.014897907
00000000: 450d 88bd ee24 5bbe ab06 a43d 3b35 7e3e
00000010: 1d89 2d3d 2531 203e 0d0d 04be 98bd 3cbd
00000020: ce54 81be 7d41 39ba 01dd 97bd 00a8 ecbd
00000030: 35ad 58be 9e22 17bd 2113 17be 8834 953c
00000040: 862b 8bbc 8bee cabc 56c4 a63c b0a0 383d
00000050: 2d75 8a3d f996 edbd e8c0 0ebd 533d 413d
00000060: afea 38bd 98e3 f0bd 9381 6c3d 7872 9b3c
00000070: 34b0 2cbd f5b8 f4bd c7a1 2b3b f2db 4f3d
00000080: 055b b6bb 7c3b da3d 4692 8f3d c837 22be
00000090: 5d13 e0bd 0cec 36bc a8b2 5e3e cc66 a9bd
000000a0: 1eb5 0ebe 68da ef3d e0a8 ecbc f2e8 56bd
000000b0: eb3e 05ba df60 49bd 13e2 fa3d 1355 22bd
000000c0: eb03 383c 24c7 bf3d c35b 04be 965f 61bc
000000d0: 28e3 113e 9c8c 13bd 6adf 743e 7b92 5abd
000000e0: 7abd 7b3d 9114 353c 1d6d 013c 3371 9dbd
000000f0: 10a1 783e b111 023d 8788 ccbd ba96 d0bd
00000100: 64bb c1bd 05fb 903e c2a9 a83d bdd8 4cbd
00000110: 4534 70bc f139 0bbd 1b19 17bd 5a16 74bc

rate_f.4.bias f4 [3]
0.016241679 0.0014706277 -0.0073330933
00000000: 450d 853c 14c2 c03a 724a f0bb
