output/B_C_S20_D15.pth (torch, 5591 bytes, 6 tensors)

rate_f.0.weight f4 [24, 7]
0	0xbded1c5e	-0.11577676
1	0x3c5215e0	0.012822598
2	0x3d50e210	0.05099684
3	0xbe11513e	-0.14191148
4	0x3d3f0936	0.046639644
5	0xbd007b7e	-0.03136777
6	0x3d9c0844	0.07618764
7	0x3de9d249	0.11417062
8	0x3c754bd4	0.014971692
9	0x3bddff0d	0.006774789
10	0xbd066b16	-0.03281697
11	0xbd951b3b	-0.072805844
12	0xbd38d374	-0.045123532
13	0x3e14f709	0.14547361
14	0x3da78492	0.08179583
15	0x3da0e9d8	0.07857102
16	0x3cd9a6a2	0.026568715
17	0xbdfe8319	-0.12427349
18	0x3caa7a63	0.020810312
19	0x3d8fe44e	0.070259675
20	0x3d2e7c4e	0.042599015
21	0x3d47409c	0.0486456
22	0xbdcca2a3	-0.09991958
23	0x3d1a492c	0.03766744
24	0x3ce4814e	0.027893689
25	0xba3b754e	-0.00071509636
26	0x3dbfcfd8	0.09365815
27	0xbcdbabba	-0.026815284
28	0xbe4e272f	-0.20132135
29	0x3ddb943d	0.107216336
30	0x3db7e1bf	0.089786045
31	0xbd4d345d	-0.050098766
32	0xbda12b0f	-0.07869541
33	0xbd7e77ff	-0.062126156
34	0xbdb80561	-0.08985401
35	0xbd0c8ac8	-0.03431204
36	0x3e1110a9	0.14166512
37	0x3d26c835	0.040718276
38	0x3dfa1dbf	0.12212705
39	0x3cd123c9	0.025529759
40	0x3de5729e	0.11203502
41	0x3d06e5e1	0.032934073
42	0xbdf31424	-0.11869076
43	0x3e5a2c22	0.21305898
44	0xbd0427d5	-0.03226455
45	0x3d21cfd1	0.03950483
46	0xbd2a6bf4	-0.04160686
47	0xbe20388a	-0.15646568
48	0xbdd4addd	-0.10384724
49	0xbd651230	-0.055925548
50	0x3d85be6a	0.06530459
51	0x3d249fda	0.04019151
52	0xbd107268	-0.035265356
53	0x3db90d2b	0.09035715
54	0x3d23d0a7	0.03999391
55	0x3d7eac93	0.0621763
56	0xbc89c9b6	-0.016819816
57	0x3c12b241	0.008953632
58	0xbd986cc9	-0.07442624
59	0xbd35334c	-0.044238374
60	0xbd9bfa66	-0.07616119
61	0xbcddab7b	-0.027059307
62	0xbc0e4877	-0.008684269
63	0x3e1d100a	0.1533815
64	0x3c7fe719	0.015619063
65	0xbd17fcb9	-0.03710625
66	0x3da12ceb	0.078698955
67	0xbd939caa	-0.07207616
68	0x3d6d879b	0.05799065
69	0x3d9ebbb3	0.077506445
70	0x3be9d014	0.0071354005
71	0xbbc72288	-0.0060771145
72	0x3de1fbb9	0.110343404
73	0x3d8f03eb	0.06983169
74	0x3d42e65f	0.04758298
75	0xbd01eadf	-0.03171813
76	0x3d3047dd	0.043037284
77	0x3e4faaa2	0.20279935
78	0x3d6092c2	0.05482746
79	0xbdbb6e2e	-0.091518745
80	0xbd92c45d	-0.071663596
81	0x3e535eec	0.20641679
82	0x3d2b1259	0.041765545
83	0x3e249e12	0.16075924
84	0x3c15bef9	0.00913977
85	0xbab117f0	-0.0013511162
86	0xbe23d11b	-0.15997736
87	0x3d866b6b	0.06563457
88	0xbce77589	-0.028254287
89	0x3e13c2d2	0.14429787
90	0x3d4d9a15	0.050195772
91	0xbe52f84e	-0.20602533
92	0x3d9928d0	0.074784875
93	0x3cd826e2	0.026385728
94	0x3e1671ac	0.146918
95	0x3e0a60af	0.13513444
96	0xbdf9559d	-0.121745326
97	0xbd9963c8	-0.07489735
98	0xbc8d1577	-0.01722215
99	0xbc8b5829	-0.017009811
100	0x3d072080	0.03298998
101	0xbde0f63a	-0.10984464
102	0xbcc58b7c	-0.024114363
103	0xbc3e5c86	-0.011618739
104	0xbdc611e7	-0.09671383
105	0x3c986e42	0.018607263
106	0xbd1cd96c	-0.038293287
107	0xbd5f7291	-0.05455262
108	0x3d979fea	0.07403548
109	0x3db299f2	0.08720769
110	0xbac79dc1	-0.001522951
111	0xbcead06f	-0.028663842
112	0x3ce8151f	0.028330384
113	0x3d0d9032	0.034561343
114	0x3de215d6	0.11039321
115	0xbdb2cc2f	-0.08730351
116	0x3d1f08f2	0.03882689
117	0x3e08cf54	0.1336034
118	0xbdc4b1e2	-0.09604241
119	0x3d92d847	0.07170158
120	0x3df85d44	0.12127164
121	0xbdd2159f	-0.1025803
122	0xbd4edfe0	-0.050506473
123	0x3dbec042	0.09314014
124	0xbd649e8b	-0.05581526
125	0xbe07cea3	-0.1326242
126	0xbcc39644	-0.023875363
127	0xbd23b808	-0.039970428
128	0x3e1d0c49	0.15336718
129	0xbdb63ea4	-0.088986665
130	0x3dd502de	0.104009375
131	0xbd192856	-0.037391983
132	0x3dc521fa	0.09625621
133	0x3da89fb8	0.08233589
134	0x3d19b58e	0.03752666
135	0x3df0d324	0.11759022
136	0x3dbec948	0.09315735
137	0xbdb4e3c1	-0.08832503
138	0xbdf85189	-0.121249266
139	0xbcc81c81	-0.024427654
140	0x3e016eea	0.12639967
141	0x3e599404	0.2124787
142	0x3e19674b	0.1498081
143	0xbd8f63e1	-0.07001472
144	0xbce89bfd	-0.028394694
145	0xbe216df6	-0.15764603
146	0x3e2b112e	0.16705772
147	0xbd8da5d4	-0.06916395
148	0xbd9a676d	-0.07539258
149	0x3d0fb124	0.035081044
150	0xbca0c9af	-0.01962742
151	0x3c265498	0.010152005
152	0x3caea5d7	0.021319313
153	0xbca4ef57	-0.020133657
154	0xbb87eb1a	-0.0041478993
155	0xbd711e76	-0.05886694
156	0x3e0be585	0.13661774
157	0x3e04311b	0.12909357
158	0xbdb91c92	-0.090386525
159	0x3e05172b	0.12997119
160	0x3d7d43f3	0.06183238
161	0x3e470ab2	0.19437674
162	0xbc7bda1c	-0.015371826
163	0x3d367c5b	0.04455219
164	0x3b61fb4f	0.0034482067
165	0x3d9dcade	0.077047095
166	0xbe02ead6	-0.12784895
167	0xbe407ff9	-0.18798818

rate_f.0.bias f4 [24]
0	0xbbd395cd	-0.0064570666
1	0x3cf830b0	0.030296654
2	0xbbbd979a	-0.0057858946
3	0xbbbea877	-0.0058184224
4	0xbbe114b7	-0.0068689245
5	0xbc04907a	-0.0080910865
6	0xbb631f24	-0.0034656012
7	0xbc1b9461	-0.0094958255
8	0x3b419193	0.0029536232
9	0xbc1edc17	-0.009696028
10	0xbc36d7b4	-0.011159826
11	0xbb7ac3be	-0.0038263644
12	0x3be3f9a3	0.0069572493
13	0xb9d9e073	-0.00041556693
14	0x00000000	0.0
15	0x3c200c9e	0.009768633
16	0x3d025d8f	0.031827506
17	0x3a039a8d	0.0005020283
18	0x3c9e0290	0.019288331
19	0xbc1f561a	-0.009725118
20	0x3d3ee570	0.046605527
21	0x3b97f844	0.00463775
22	0x3c3b1910	0.01141955
23	0x3c911163	0.017708486

rate_f.2.weight f4 [24, 24]
0	0xbc79da31	-0.015249775
1	0xbca8a585	-0.020586738
2	0x3a9657a1	0.0011470207
3	0xbe0424d8	-0.1290468
4	0xbccf80bf	-0.025329946
5	0xba88b0e4	-0.0010428694
6	0xbc66ff6e	-0.014098985
7	0x3de72521	0.11286379
8	0x3d2a7735	0.04161759
9	0xbd707b07	-0.058711078
10	0x3d97e47a	0.07416625
11	0xbdebc2bf	-0.11511754
12	0xbdea3260	-0.114353895
13	0x3bb1b3f5	0.005423064
14	0x3d120782	0.03565169
15	0x3c1b38a0	0.00947395
16	0x3c74815d	0.014923421
17	0x3d90215a	0.07037611
18	0x3dd4782c	0.103744835
19	0xbcd6d1c4	-0.02622307
20	0xbd084404	-0.03326799
21	0xbab17b2e	-0.0013540739
22	0x3c8fc31f	0.017549096
23	0xbdd30b49	-0.10304887
24	0x3dc001ca	0.09375341
25	0x3e03f69a	0.1288704
26	0xbd952c23	-0.07283809
27	0x3e19b96d	0.1501214
28	0xbdc40078	-0.09570402
29	0xbca0cf3f	-0.019630073
30	0xbd1de007	-0.038543727
31	0xb89d364b	-7.496456e-05
32	0x3d12bb0f	0.035822924
33	0x3d88fe07	0.06689077
34	0xbe25050c	-0.16115206
35	0x3b8d2e96	0.004308532
36	0x3e17b288	0.14814198
37	0x3e0b4c67	0.13603364
38	0x3d90a810	0.070633054
39	0x3dfa8a8f	0.12233459
40	0xbdaa1772	-0.08305253
41	0x3d156c4d	0.036480237
42	0xbc498f7f	-0.012302279
43	0xbd849a05	-0.064746894
44	0xbd07023e	-0.032961123
45	0x3c2b1337	0.010441593
46	0xbd9557a0	-0.07292104
47	0xbdd1f4ee	-0.10251795
48	0xbda5193d	-0.080614544
49	0x3cd73ab8	0.026273116
50	0x3cd9c0eb	0.026581248
51	0xbd95fbf3	-0.07323446
52	0xbd2fee92	-0.042952128
53	0xbd6b70af	-0.05748051
54	0x3d6e5d9e	0.05819475
55	0xbd0ea1fa	-0.03482244
56	0xbd98a81c	-0.07453939
57	0xbd3413a3	-0.04396404
58	0xbdbd74ff	-0.09250831
59	0xbe072499	-0.13197555
60	0xbd1270cc	-0.035752103
61	0xbdc0fa68	-0.09422761
62	0x3c5cf695	0.013486524
63	0x3de34ed2	0.11099018
64	0xbdcfe8d6	-0.10151832
65	0xbda0d8da	-0.07853861
66	0xba0c0efe	-0.000534281
67	0x3d911767	0.07084542
68	0x3d21cb43	0.039500486
69	0x3dbdfd21	0.09276796
70	0x3ddc8aee	0.10768686
71	0xbe276441	-0.16346838
72	0xbd19b4b1	-0.037525836
73	0x3e61b141	0.22040273
74	0x3d03cf7b	0.03218029
75	0xbdc32ebb	-0.095303975
76	0x3d932738	0.07185215
77	0x3cb8c834	0.022556402
78	0x3ddeedd4	0.10885206
79	0x3e5aed34	0.21379548
80	0xba8d88b9	-0.0010798193
81	0x3d94bd23	0.072626375
82	0x3dbe97bd	0.093062855
83	0xbcceca7a	-0.025243033
84	0xbdc5ed6e	-0.09664427
85	0x3df53a4f	0.11974012
86	0x3c727d2f	0.014800354
87	0xbe3949d3	-0.18094568
88	0x3e05db43	0.13071923
89	0xbd96418c	-0.07336721
90	0x3e0dba8c	0.13840693
91	0x3d0bde05	0.03414728
92	0x3db63983	0.08897688
93	0x3d4e4d20	0.05036652
94	0x3d7fe050	0.06246978
95	0x3e1a5a01	0.15073396
96	0x3d976bc1	0.07393599
97	0x3d5c02b7	0.053713527
98	0x3e5b658c	0.21425456
99	0xbe3c1238	-0.18366325
100	0x3d497f33	0.049193572
101	0x3cde2a45	0.027119765
102	0xbcfa9b8e	-0.030591752
103	0x3d785179	0.060624573
104	0xbd43921f	-0.047746774
105	0x3e1d5685	0.15365036
106	0x3b074362	0.0020639529
107	0x3e142872	0.14468554
108	0x3dfdc7d3	0.12391629
109	0xbd996182	-0.07489301
110	0x3d559a83	0.052149307
111	0xbc5aa80b	-0.013345729
112	0x3dd1acff	0.102380745
113	0xbcae71e8	-0.02129455
114	0x3e06b452	0.13154724
115	0x3d699853	0.057030033
116	0x3dc77dbc	0.09740779
117	0xbdeb2fc1	-0.11483718
118	0xbd9573c2	-0.0729747
119	0x3ce8a8f6	0.02840088
120	0xbdb49b67	-0.08818703
121	0x3e56679b	0.2093796
122	0x3d93146b	0.07181629
123	0xbcbc316c	-0.022972785
124	0xbd74fc24	-0.059810773
125	0xbd2fe49d	-0.042942632
126	0xbd095fa1	-0.033538464
127	0x3d69bcf2	0.057064958
128	0x3cd5c279	0.026093708
129	0x3df1ecac	0.1181272
130	0x3df384e8	0.11890584
131	0x3d060fe2	0.03272999
132	0xbd3dc63d	-0.046331633
133	0xbceafda2	-0.028685395
134	0xbd076c25	-0.03306212
135	0xbdf7b89b	-0.120957576
136	0xbc410b13	-0.011782425
137	0x3df6e3bc	0.12055156
138	0xbdae51e0	-0.0851171
139	0xbc621d91	-0.0138009945
140	0x3df78550	0.12085974
141	0xbd6a83f9	-0.057254765
142	0xbd4823b7	-0.048862185
143	0x3e2620a3	0.16223387
144	0x3d87ba93	0.06627383
145	0xbdd4b242	-0.103855625
146	0x3d67605d	0.056488384
147	0xbd802f28	-0.06258994
148	0xbd167688	-0.036734134
149	0xbe44419d	-0.19165654
150	0x3dc8cf00	0.09805107
151	0xbde2f03c	-0.11080977
152	0xbd971877	-0.07377713
153	0xbe093977	-0.13400827
154	0x38caa7b6	9.663349e-05
155	0xbdf610de	-0.12014936
156	0xbe051b6a	-0.12998739
157	0xbc274517	-0.010209343
158	0x3c8bd465	0.017069051
159	0x3d9a037c	0.07520196
160	0x3d512a0f	0.0510655
161	0x3b966f2d	0.00459089
162	0xbd377c00	-0.04479599
163	0x3e348b3f	0.17631243
164	0x3d6c65b3	0.057714175
165	0x3dcd0188	0.10010058
166	0x3d766189	0.06015161
167	0xbdcc1063	-0.09964063
168	0xbc9edeaf	-0.019393293
169	0xbc409d9e	-0.011756329
170	0xbdb14e44	-0.08657506
171	0x3de9425d	0.11389611
172	0xbd6cbcb3	-0.057797145
173	0xbe4e49ca	-0.20145336
174	0xbcf92226	-0.030411791
175	0xbd9a2b09	-0.075277396
176	0x3d0bdcbd	0.03414606
177	0x3deedce7	0.116632275
178	0x3cab5353	0.020913756
179	0x3cff048b	0.031130096
180	0xbe69da8a	-0.22837272
181	0x3d9c7a47	0.0764051
182	0x3c364f89	0.011127361
183	0xbd9abd95	-0.07555691
184	0x3e473953	0.19455461
185	0x3de1ce91	0.110257275
186	0x3df00b58	0.11720914
187	0x3e7c644e	0.24647638
188	0x3e0f44f5	0.13991149
189	0xbcbdd465	-0.023172567
190	0x3d76d756	0.060263954
191	0x3e29d371	0.16584565
192	0x3dd46458	0.103707016
193	0xba7651fe	-0.0009396373
194	0xbcbd0f9c	-0.023078732
195	0xbd61a107	-0.05508521
196	0x3dbd5618	0.09244937
197	0xbc8f48f8	-0.017490849
198	0x3be71c23	0.0070529147
199	0xbdb6c5dd	-0.08924458
200	0xbd845589	-0.06461627
201	0x3cd86b75	0.026418427
202	0x3e867f46	0.26268977
203	0x3d185413	0.037189554
204	0x3df4a054	0.11944643
205	0xbd17567d	-0.036947716
206	0x3e17e9cf	0.14835285
207	0x3e649b04	0.22324759
208	0x3e2b66eb	0.16738479
209	0x3d639183	0.055558693
210	0x3c441a8e	0.011969222
211	0xbd181a35	-0.037134368
212	0xbdbd760a	-0.0925103
213	0xbd65aa74	-0.05607076
214	0xbe72534d	-0.23664589
215	0x3e01277f	0.12612723
216	0xbd769d12	-0.060208388
217	0x3df02189	0.11725146
218	0xbc3e5ee2	-0.0116193015
219	0xbc4fc9fa	-0.012682432
220	0x3d4e2c82	0.050335415
221	0xbdea1a9f	-0.11430859
222	0x3ddfec3d	0.10933731
223	0xbcfff271	-0.031243535
224	0xbd1d81ea	-0.038453974
225	0x3e0da457	0.13832222
226	0xbdc34554	-0.09534708
227	0xbc34b421	-0.011029274
228	0x3ce73c8e	0.028227117
229	0xbe1223dd	-0.14271493
230	0xbd2ab8ed	-0.041680265
231	0x3e65bd7e	0.22435567
232	0xbcdd0e20	-0.026984274
233	0xbc2a6cea	-0.010401944
234	0x3dc7a024	0.09747341
235	0x3d86549e	0.06559108
236	0xbddecb35	-0.108786024
237	0xbd9b8ead	-0.075955726
238	0xbe1d86fc	-0.15383524
239	0xbd4626e0	-0.048376918
240	0xbd6f3a6f	-0.058405336
241	0xbdfc9401	-0.12332917
242	0xbd9987f1	-0.07496632
243	0xba7e1d7c	-0.00096937246
244	0xbd4e40b8	-0.05035469
245	0x3d807741	0.06272746
246	0xbdadd2a2	-0.08487441
247	0x3d0d0e77	0.034437623
248	0xbc84a148	-0.016190186
249	0xbda3e4a6	-0.080025956
250	0xbe1763e1	-0.14784195
251	0xbd41b58b	-0.047292273
252	0x3e000e10	0.12505364
253	0xbaa074ea	-0.0012241874
254	0x3d2a1476	0.04152342
255	0x3c24e4df	0.010064333

rate_f.2.bias f4 [24]
0	0x3be0d622	0.006861464
1	0x3c468e89	0.012118944
2	0xbbccfb3b	-0.006255535
3	0xbc0271d6	-0.007961711
4	0xbb91f810	-0.00445462
5	0x3c7ed5da	0.015553916
6	0xbc2c0a68	-0.010500528
7	0xbc42b4c4	-0.011883918
8	0xbc896096	-0.016769689
9	0xbbf239bc	-0.0073921364
10	0xbc0eac05	-0.008708005
11	0x3cb2c552	0.021822605
12	0x3b0dcc40	0.0021636635
13	0x3c901d9b	0.017592242
14	0x3c2645cf	0.01014848
15	0x3bb2db5c	0.0054582786
16	0xbba03a22	-0.0048897425
17	0xbc60188b	-0.0136777265
18	0xbc17fde7	-0.009276844
19	0x00000000	0.0
20	0x3bd2376f	0.0064152996
21	0xbbec2050	-0.0072060004
22	0x3ce213f0	0.027597398
23	0x00000000	0.0

rate_f.4.weight f4 [3, 24]
0	0x3e55e0b2	0.20886496
1	0x3e65003a	0.22363368
2	0xbc41547d	-0.011799929
3	0xbb477a3f	-0.0030437855
4	0xbda9bbe1	-0.08287788
5	0xbe1fc2cd	-0.15601654
6	0xbd9ed0ba	-0.07754655
7	0xbdea45e5	-0.114391126
8	0xbe0b7949	-0.13620485
9	0x3e2e5fc8	0.17028725
10	0xbd9e98cc	-0.077439874
11	0x3e41ad59	0.18913783
12	0xbc42ddf8	-0.011893742
13	0x3dd50825	0.10401944
14	0xbe0707a6	-0.13186511
15	0xbdefa6b8	-0.11701721
16	0x3c7eee13	0.015559691
17	0xbd756fd1	-0.05992109
18	0x3b86d4b0	0.00411471
19	0xbcd78fff	-0.02631378
20	0xbc8444f1	-0.016146155
21	0x3e584fec	0.21124238
22	0x3e4402d0	0.19141698
23	0x3d81763a	0.06321378
24	0xbe1e8501	-0.15480424
25	0x3de782c9	0.11304242
26	0x3d60fade	0.054926746
27	0x3d0cc0a0	0.03436339
28	0xbddca2be	-0.10773228
29	0xbe3a3200	-0.18183136
30	0xbd1f5ae5	-0.038905043
31	0x3dbe789f	0.093003504
32	0x3e26edfa	0.16301718
33	0x3d1695c4	0.03676392
34	0x3dc62922	0.09675814
35	0xbd29e05a	-0.041473724
36	0xbd56f1e4	-0.05247678
37	0xbcfda317	-0.030961556
38	0xbde466bb	-0.11152407
39	0xbd0ded9a	-0.034650423
40	0x3cd9f7f9	0.0266075
41	0xbdbc96b2	-0.0920843
42	0xbe139309	-0.14411558
43	0x3dd4ad8d	0.10384665
44	0x3dc0ca3e	0.09413575
45	0x3cd4080d	0.025882745
46	0xbda3aad6	-0.07991569
47	0x3d068614	0.03284271
48	0xbb8c70ad	-0.004285893
49	0x3dd5af9d	0.10433886
50	0x3da23398	0.07919997
51	0xbdac4552	-0.08411659
52	0x3d487ece	0.048949055
53	0xbd40ce6b	-0.047071856
54	0x3b53d6a3	0.0032323978
55	0xbd884bd2	-0.066550866
56	0x3e31466a	0.17312017
57	0xbcf10252	-0.029420052
58	0x3d0ed2ab	0.034868877
59	0xbe655456	-0.22395453
60	0xbe5a9bf1	-0.2134855
61	0x3d32b36a	0.043628134
62	0xbd867565	-0.0656536
63	0x3cab341f	0.020898877
64	0xbd26cd3a	-0.040723063
65	0xbe1fedaf	-0.15618013
66	0x3d099fed	0.033599783
67	0x3d1babc1	0.038005594
68	0x3d238b9a	0.039928056
69	0x3dd8c50d	0.105844595
70	0xbd00c6b0	-0.031439483
71	0x3c9d57ce	0.019206908

rate_f.4.bias f4 [3]
0	0x3cbda279	0.023148762
1	0x3c53668c	0.012902867
2	0x3bb0a074	0.0053902213
