output/B_C_S10_D20.pth (torch, 5591 bytes, 6 tensors)

rate_f.0.weight f4 [24, 7]
00000000: 2721 4f3b 7cb0 e2bc 2965 d4bc eb23 d53d
00000010: 703a 9b3d 71b3 b13d faa2 1f3e 6099 a9bd
00000020: 2cb1 35bd 475e 88bc d6c9 22bc 50da 333d
00000030: aca5 79bd 1fdf f6bd fe76 163e abb0 2d3d
00000040: 47da 443d 4325 e9bc c66f 483c 36f2 513d
00000050: 49ae 1fbc f289 9f3c 416f 61be 7ff9 59bd
00000060: 0f6d cd3d 6341 d83d 9dfc 64bd 2762 563d
00000070: 016c 28bc 990b 913c 648f 673c 01d9 ddbd
00000080: 7615 88bd ad27 e73c 9ef3 2d3b 1b60 ed3d
00000090: e7d6 5e3d 07fe 1d3d fb90 243d ae97 cabb
000000a0: eb94 70be 33e3 0e3d 49fe 3e3c c63d 81bd
000000b0: d3d2 e0bd 786d 32be 6fa1 213e 1041 3dbd
000000c0: bdda 373c ba08 913d 217c 2c3d 1ea6 7b3e
000000d0: 9c41 8d3d 51f7 18bd 19ba 09be 89d5 903c
000000e0: 13bf 3b3e e147 003d 4ff3 a43d 1bd5 f8bd
000000f0: d528 84bd fae3 90bd 9e57 b53d d314 103e
00000100: 7d63 22bd 1152 023e a589 093c 6efb 43bd
00000110: 4d02 783d d215 223e d78e 4ebe 1656 09be
00000120: 9783 1f3e 2e84 843d f1b2 b73d 8ef2 d33b
00000130: d6d3 693c 3157 b63d e021 693c 8f6a 5abd
00000140: 14a2 37bd cf89 dbbc fc79 23be 10f1 bf3c
00000150: 4770 fcbd 3e5b 123e d06e 943d 2cf5 563e
00000160: 8b57 a73d fbc0 fdbd c991 8a3e f1f9 903d
00000170: 2487 413e f487 89bd 1a63 06bc 9cac 80bd
00000180: c15f 00bb dea2 e03d e209 8f3c e11d dabd
00000190: 74a6 433d 5a4b 2438 80be b3bb 5060 5fbe
000001a0: 39c5 3ebd fb0c 773e 19c3 99bd b5af 9bbd
000001b0: 6795 673d abfc ef3b 95d2 053e 831f 073e
000001c0: 1c20 ab3d 1123 03bc 6eb5 1fbe 1b05 14be
000001d0: fad7 21bb e2a5 563d 4c4a ad3d a7b5 e03c
000001e0: 2b34 21bd c529 1b3d 93a0 253c 23a7 f83d
000001f0: 9182 8f3c 4f93 833d e139 b0bc 6b9e 913d
00000200: bdfc 00bd 5443 953b 2366 22bd 7283 efbd
00000210: aa42 d6bd 9c45 783d 59c8 ee3c 18f2 f0bb
00000220: d1ff 963d fd22 d0bc 5b5d a6bd f07c 38be
00000230: 97bf 0e3e 52f1 49bd 5e60 1f3d e0c1 09be
00000240: 3dd8 903d 699f 42be 03ed 19bd 7030 1dbe
00000250: b1a8 2abe b5fa bcbb 27ad acbd c870 603d
00000260: e863 733d 3024 88bd 9c8b 253d b1e6 53bc
00000270: 294d f1bc 4554 963d 6b85 933d 1364 5c3e
00000280: 9197 bc3d 8894 5d3c da61 2cbd 7342 483e
00000290: 12d6 c43d d3d7 c33d 09c6 0c3d 2acc 1b3e
0.0031605454 -0.027672045 -0.025927143 0.104072414 0.075795054 0.08676804 0.15589514 -0.08281207
-0.044358417 -0.016646517 -0.009935817 0.04390937 -0.060949013 -0.12054276 0.1469383 0.04240481
0.048059728 -0.02846015 0.01223368 0.05125638 -0.009746143 0.019474957 -0.22015096 -0.053216454
0.10030567 0.105593465 -0.055904973 0.0523397 -0.010279656 0.017705726 0.014133308 -0.10832406
-0.06644718 0.028217161 0.0026542912 0.11590596 0.054404166 0.038572337 0.040177327 -0.0061826324
-0.23494308 0.034884643 0.011657306 -0.063106105 -0.109777115 -0.17424572 0.15784238 -0.046204627
0.011221585 0.070817426 0.042110566 0.24575087 0.068972796 -0.037345234 -0.13449897 0.017679946
0.18334608 0.03131855 0.0805422 -0.12150022 -0.064531006 -0.07074733 0.08854602 0.14070444
-0.03964566 0.12726618 0.008394633 -0.047847204 0.06054907 0.15828636 -0.20171677 -0.13411745
0.15577541 0.06470524 0.08969677 0.0064681238 0.014271697 0.08903349 0.014229268 -0.05332428
-0.044832304 -0.02679911 -0.15964502 0.023430377 -0.12326103 0.14292619 0.07247698 0.20991963
0.08170994 -0.12390324 0.2706435 0.070789225 0.18899208 -0.06715384 -0.008202339 -0.062829226
-0.0019588324 0.109685645 0.017460767 -0.1065023 0.047766164 3.9170824e-05 -0.005485356 -0.21814084
-0.046574805 0.24126045 -0.07507915 -0.07601873 0.056538966 0.0073238215 0.13068612 0.13195615
0.08355734 -0.008003966 -0.15596554 -0.14455073 -0.0024695382 0.052404292 0.08461437 0.027430369
-0.039356392 0.03788163 0.010109085 0.12141254 0.017518314 0.06424581 -0.021511974 0.07110294
-0.03149103 0.0045551453 -0.039648186 -0.11694993 -0.10461934 0.06061326 0.029148268 -0.0073530786
0.07373012 -0.025407309 -0.08123275 -0.1801641 0.13940273 -0.049302407 0.038910262 -0.13452864
0.07072494 -0.19006123 -0.037579548 -0.15350509 -0.16665913 -0.0057671913 -0.08431464 0.054795057
0.05942145 -0.06647527 0.040416345 -0.012933419 -0.029455738 0.07340292 0.07203182 0.2152255
0.092085965 0.013524182 -0.042085506 0.19556598 0.09611143 0.095626496 0.03436855 0.15214601

rate_f.0.bias f4 [24]
00000000: b90a 933b 75d5 c9bc f5cb 263c e8a7 933d
00000010: 999a 5ebc 8505 3abb 96ba 2fbd 0ecd 843b
00000020: 6d21 973d 360b 5d3b e958 4e3d 5688 0cbd
00000030: 37c0 833a 82c4 683d 6e98 79bc a60b 48bc
00000040: d429 613b 553e 1dbc dd4f 48bc 98a3 d4bc
00000050: 500f 503d d954 363c e50b 0ebc 1442 573b
0.004487362 -0.024637917 0.010180463 0.0720976 -0.013586664 -0.0028384638 -0.04290255 0.0040527647
0.07379422 0.0033728606 0.05037776 -0.034309708 0.0010051791 0.05682803 -0.015234096 -0.012209808
0.0034357207 -0.009597381 -0.012226072 -0.025956914 0.050795853 0.011128628 -0.008669828 0.0032845782

rate_f.2.weight f4 [24, 24]
00000000: 6447 a23d a2e6 00bd e2e5 f13d 1fd5 01be
00000010: e263 3a3d 8995 a23d 7524 8f3d 9c5d d03d
00000020: 7c3d 823e fd37 c73c 6549 06be 44b6 12be
00000030: 2bd6 6e3d 3fcf c23d 760b 02bd 3fb9 debd
00000040: 6eb1 12ba ac9d 35bd c74e bbbd e248 833d
00000050: 8d4c 62bd b8f5 983c e48f d9bd 3ed5 ce3c
00000060: bbec 6f3d 6179 763d 3a96 64bd b55d 36be
00000070: 97bd 1b3c 4598 b6bd d78e 673d 06f8 1c3d
00000080: b94f c13c 221e 59bd 28e0 16be 1431 613d
00000090: 6974 173d d7a2 03be 6eb0 1a3c 2fcb 8ebc
000000a0: c3be 523d 6ee9 173d bf61 473d fa54 9b3d
000000b0: 80b1 923d 4056 09bc 7f5e 133d 04ce 9fbd
000000c0: 4c2a 8dbd b921 28be e94c dc3d c71b 04be
000000d0: ba95 1e3d 5ed6 593e 8552 6fbd 000f 9f3d
000000e0: 5a1a 923e bbec d63c ea6c 063c c289 8a3b
000000f0: 351f 233e e27f 433e c4ba 873b 33e7 163d
00000100: 0c80 73bd 40e5 4abe 8841 fbbb ecaa 0ebe
00000110: 8541 12be 2a6c aebd 2902 bbbd df92 e2bc
00000120: d434 03be 180d e03b ceb7 d93d 40c9 10be
00000130: a75d 4d3d 6f40 803d f3e0 fa3d d3cc af3c
00000140: cecf 9abd a7f6 dc3d 0e67 15be a082 55bd
00000150: 66e1 13bd 1d2c 5abd a142 283d 01ae a7bc
00000160: 2ff2 7fbb d0c2 91bc d8cd 60bd 14d3 9a3d
00000170: 8f50 38bd 73b3 373e 022f dbbd e9f5 01bd
00000180: 9032 87bd ebc9 9abd d224 93bd 30b0 a5bd
00000190: 672b ea3b e9e4 a43d b54a eb3b de22 783d
000001a0: 87fb f5bc 32db 84bb 3a82 91bd fba3 8cbc
000001b0: 3c49 b6bd 1ee8 62bd 4dc4 4bbc a85c f5bc
000001c0: 1ec2 1abd 6faf 993d ec9c f73c 7ece e4bc
000001d0: 7dc1 06bd 0d81 2abb afea 1e39 eeea 24bd
000001e0: b39a 0cbe b4df 0fbe 2992 d7bc 872f 87bd
000001f0: 448d 743c 6683 3b3d 030d c3bd 9d4a 20be
00000200: 8a03 e23d a70c f8bd a5e5 61bc 783f 5a3d
00000210: c589 b4bd c412 8b3c a99f 98bd 320e 0b3e
00000220: a99a 5cbd 7576 173e 2d92 82bc fe95 8f3c
00000230: 48b5 213d e4a2 9cbd 813d 043e 4134 b8bd
00000240: 6206 013e 8824 843b 607b ee3a ce0e e8bd
00000250: 40a4 0dbe 17de d73c 0c59 413d 4192 fa3c
00000260: 4d1d fbbc ce07 923b 8b3a 2b3d 0aeb 873d
00000270: 7da1 e23d be69 3c3e 4f1f 86bc 7089 3fbd
00000280: b2e6 99bd 2a1c abbd 2557 283e e633 fe3d
00000290: 0595 02be d2fd 4ebc 52ae 4e3d 7c46 0dbd
000002a0: 0daa 023e cfbb 0d3c 41f2 d1bd b8e5 ac3d
000002b0: c650 b13d f2cd a2bd c61e 30bb 7b04 8f3c
000002c0: d173 21bb 4895 f3b9 e436 583e 4cf1 a33d
000002d0: e7fc 3c3e bf62 e3bd 067d 7dbc f6d5 093d
000002e0: b6fc 31be d65c 6abd b02c cdbd 497e 84bd
000002f0: f5e6 40be 15c4 953d bafe 2f3d 98c9 95bd
00000300: 7a2e 06be ef36 ac3e 8b46 133e 0224 113d
00000310: 24c2 043e b716 063e b62f 5cbe ada2 bf3d
00000320: 063b d93b e9e6 153e 5155 5cbc 6a85 d5bd
00000330: 5126 103d 9109 89bc bebd d3bd 935d 7b3b
00000340: 73bf c9bd e18a f7bc 3ec8 e2bc aa45 6c3d
00000350: f523 263e 27e6 ae3d 3ac5 d8bc 32f1 813d
00000360: fc8c aebd b001 69bd 4e6f 8dbd 8551 aebd
00000370: 1626 9a3d 50b0 04be ea19 3b3d 5030 49bd
00000380: 76ae 17bd 3ed4 02be d144 46bd de04 34bc
00000390: b204 bb3d d4fc 2fbd 71c6 69bd 17d3 853c
000003a0: 2a12 1ebd c472 223c 0672 d3bc 3c81 27bc
000003b0: d1c9 e8bd d024 103d 6116 393b be69 48bd
000003c0: 5858 8ebc 61c0 b6bc 659b d73c 945c b13c
000003d0: bb08 6e3d a456 fc3c 5040 66bd 71c5 1c3d
000003e0: 5a09 bfbd be4f 13be f64e fb3d 4d7b f7bc
000003f0: 65db a1bd abf5 63bd e922 b3bd 026d 473d
0.07923773 -0.03146995 0.11811425 -0.12678955 0.045505412 0.07938678 0.069893755 0.101741046
0.25437534 0.02431869 -0.13113935 -0.14327341 0.058309715 0.09512185 -0.03174921 -0.10875177
-0.0005595897 -0.04433982 -0.09145885 0.06410386 -0.055248786 0.018671855 -0.10623148 0.025248166
0.058575373 0.06017435 -0.05580733 -0.17809184 0.009505651 -0.08915762 0.056532707 0.03832247
0.023597585 -0.053007253 -0.14733946 0.054978445 0.03697625 -0.12855087 0.009441478 -0.01743087
0.051451456 0.03708785 0.048677202 0.07584567 0.07162762 -0.00838238 0.03597879 -0.07802966
-0.06892833 -0.16419114 0.10756857 -0.12901221 0.03871701 0.21273181 -0.058428306 0.07766533
0.2853573 0.026235929 0.008204678 0.004227848 0.15929873 0.19091752 0.0041421372 0.036841583
-0.059448287 -0.19814014 -0.007667724 -0.13932389 -0.14282806 -0.085167244 -0.091312714 -0.027657924
-0.12813121 0.0068374984 0.10630761 -0.14139271 0.050138142 0.0626229 0.12249937 0.021459972
-0.07559167 0.10789233 -0.14590093 -0.052126527 -0.03610363 -0.053264726 0.041079167 -0.020468714
-0.0039054265 -0.01779309 -0.054883808 0.07559791 -0.0449987 0.17939548 -0.107023254 -0.03172866
-0.06601441 -0.07558044 -0.07184757 -0.08090246 0.0071462872 0.08051474 0.0071805366 0.060580127
-0.030027164 -0.0040544504 -0.07104917 -0.017168036 -0.08900687 -0.055397145 -0.0124369385 -0.029951409
-0.03778278 0.075041644 0.030226193 -0.027930494 -0.03289937 -0.0026016862 0.0001515548 -0.04026311
-0.13730888 -0.1405018 -0.026314812 -0.06600862 0.0149262585 0.04577961 -0.09523966 -0.15653463
0.11035831 -0.12111788 -0.013787662 0.053283185 -0.0881534 0.016976722 -0.07452328 0.13579634
-0.053858433 0.14791282 -0.015938843 0.017527577 0.039479524 -0.076482564 0.12914087 -0.08994342
0.12600091 0.004032675 0.0018194728 -0.11330949 -0.13832188 0.026351018 0.047204062 0.030587317
-0.03065362 0.004456497 0.041803878 0.06636627 0.11065958 0.18399712 -0.016372351 -0.04676193
-0.07514705 -0.08354981 0.16439493 0.124122426 -0.12752159 -0.012633758 0.050459214 -0.034491047
0.12760182 0.008650734 -0.102512844 0.08442253 0.086579844 -0.07949437 -0.002687381 0.017458191
-0.0024635682 -0.00046459795 0.21114689 0.08005008 0.1845585 -0.11102819 -0.015471702 0.033651315
-0.17381558 -0.05721744 -0.10018289 -0.064693995 -0.18838103 0.0731279 0.042967536 -0.073138416
-0.13103667 0.3363566 0.14382379 0.03543473 0.12964684 0.13094603 -0.21502575 0.093572
0.0066293506 0.14638866 -0.013448075 -0.10425837 0.03519279 -0.016728194 -0.10338925 0.0038355335
-0.09850969 -0.03021759 -0.027683374 0.057683624 0.16224654 0.08539992 -0.026461232 0.063448325
-0.085229844 -0.056886375 -0.06905995 -0.08511642 0.075267956 -0.12957883 0.04567901 -0.04911834
-0.037031613 -0.12776276 -0.048405472 -0.010987489 0.09131755 -0.042965725 -0.057074014 0.016336007
-0.03859154 0.009915058 -0.025811207 -0.010223683 -0.113666184 0.035191357 0.0028242099 -0.04892897
-0.01737611 -0.02230853 0.026319215 0.02165059 0.058113795 0.030803032 -0.056213677 0.038274232
-0.093279555 -0.14385888 0.1227092 -0.030210162 -0.07903174 -0.05565421 -0.08746893 0.048687942

rate_f.2.bias f4 [24]
00000000: 64da 2d3b baba 86bc a5ff fb3c e3cc cbbc
00000010: 0000 0000 c809 bdbc 29df 0a3c 7a56 973c
00000020: 0120 33bc 5868 28bc 0000 0000 a47f 70bc
00000030: a31a c9bb 6f5f 9fbc 0e6b 7abc 88be d93b
00000040: e7fb 933c 5a9f 063d 7682 42bc 7162 94bc
00000050: 3753 173b d7fb 97bc 0edf 2dbc 5517 97bc
0.0026527876 -0.01644646 0.03076155 -0.024877971 0.0 -0.023075953 0.008476057 0.018473852
-0.010932923 -0.010278784 0.0 -0.014678869 -0.0061372085 -0.019454686 -0.015284313 0.0066450275
0.018064452 0.032866813 -0.011871925 -0.018113347 0.0023090371 -0.018552704 -0.010612262 -0.018443743

rate_f.4.weight f4 [3, 24]
00000000: 41af 4cbd 3095 98bd 539f d9ba 117b 6dbd
00000010: fb80 f6bd 99a4 b33c 538f b93d e36f e43d
00000020: 2690 79be 5241 99bd b115 0a3d e401 a6bd
00000030: c9f2 67bd f903 a5bc 5ed2 35be 0fac 5f3e
00000040: a2e7 c93d 909c 073e b4e5 d3bd 117e d2bc
00000050: 4686 b63d a46f 22be 29de 493b 7885 43bd
00000060: 434b 7abd 8980 d73c aafd 0dbe 8470 18bd
00000070: 9e9b 4abd 4794 9abd 46a3 09be 147c a63d
00000080: 4025 883d 09b6 003e 383d 60bc eb20 37bd
00000090: 2ca9 ff3d c915 d2bb 91ac 15bb 878d 2dbc
000000a0: 8c88 a4bd 658e 0b3e debc 563d 3b3c bbbd
000000b0: 59ce 45bd 237e 85bd e46f 8d3d 3693 5cbd
000000c0: ecb2 c8bb 2f2b 12bd c6d7 febd ffe7 edb9
000000d0: 3c96 91bd 1723 dfbd d2b4 453d fd0b 863d
000000e0: 761b 37be 0625 bcb9 ab0a 133d a1e4 2cbe
000000f0: 75f6 bc3d ac7d 01bc 7ab7 48bc 1cd7 a93d
00000100: 263d fdbd 19a4 21be 81cc 413e 97c1 24bd
00000110: cbc4 3ebe bfbe 1fbe da5f 153e e6f5 10bc
-0.049971823 -0.0745033 -0.0016603268 -0.057978693 -0.1203632 0.021929072 0.0906054 0.11154153
-0.24371395 -0.07483162 0.033712093 -0.08105829 -0.056628022 -0.020143496 -0.1775603 0.21842979
0.098586336 0.13243318 -0.10346547 -0.025694879 0.089123294 -0.158629 0.0030802584 -0.047734708
-0.06110693 0.026306408 -0.13866296 -0.03721668 -0.049464814 -0.07547813 -0.1344119 0.08129135
0.0664773 0.12569441 -0.013686471 -0.044709127 0.12483439 -0.0064112884 -0.0022838453 -0.010592825
-0.08033857 0.13628538 0.05242621 -0.091423474 -0.04829249 -0.06518199 0.06906107 -0.05385133
-0.006124845 -0.035685714 -0.12443499 -0.00045377013 -0.07108733 -0.10895365 0.048268147 0.06545255
-0.1788157 -0.0003588574 0.035898846 -0.1688409 0.092266954 -0.007903498 -0.0122507755 0.08292982
-0.12365179 -0.15785255 0.18925668 -0.040223684 -0.18629758 -0.15600108 0.14587346 -0.008847689

rate_f.4.bias f4 [3]
00000000: 068d a23c dc3d 8b3b 4cb5 503b
0.019842636 0.0042493176 0.0031846343
