output/B_P2_S20_D10.pth (torch, 5591 bytes, 6 tensors)

rate_f.0.weight f4 [24, 7]
0.10221814 0.021953803 0.09557969 0.16182727 0.034600433 -0.10094834 0.04262326 0.07345251
0.07521369 0.0674142 0.014761927 -0.0523339 -0.032460213 -0.12274488 -0.003980598 -0.0077457507
-0.094277486 -0.015440577 -0.04699125 0.13222979 0.030280085 -0.11846554 0.055236124 -0.04299241
0.20896159 0.046690233 -0.056989364 0.1348754 -0.027384738 -0.07865142 -0.043270666 -0.011335241
-0.10679789 0.05315222 0.10447447 0.06323163 0.016002318 -0.055274334 -0.13345745 -0.041598957
-0.031415753 0.015739882 0.13059479 -0.11271021 -0.067369595 -0.054930698 0.11630164 -0.066959016
0.06664029 0.022517575 0.17993961 -0.046182506 0.17478067 -0.03578829 0.043771945 0.034410834
0.1002512 -0.16790465 0.0839692 0.11504913 0.08319908 0.056811392 -0.004555287 -0.012616424
-0.09955478 -0.15853207 -0.1873702 0.056799605 -0.13568512 0.048942886 0.0641528 -0.24932201
-0.057805214 0.11916157 0.05093868 0.11729039 -0.08897611 -0.08256943 -0.051806137 0.09668592
0.0640717 0.058029514 0.031153947 0.049639925 0.01684795 0.11302952 0.13604738 0.059597425
-0.0014568373 -0.068108335 0.07218137 -0.012669773 -0.09959611 0.1712853 -0.18084764 0.10069118
-0.09420955 0.08292431 0.2205459 0.06900906 -0.15500993 0.10976606 0.029917497 0.037078887
-0.0041223485 -0.105354235 -0.059317276 0.1824089 -0.09607343 0.053355217 -0.08880191 -0.030219305
-0.18110879 -0.08901208 0.020535517 -0.022880271 -0.026178101 -0.18699905 0.08815874 -0.15745349
0.09936254 -0.1454855 0.017961401 0.0887016 -0.0046379347 0.08985904 -0.13304083 -0.12311924
0.08771717 0.05110226 0.092121504 -0.15107936 -0.05641482 0.08751383 0.14728999 -0.04043515
-0.06420197 0.09449429 -0.03330702 -0.01377263 -0.019803664 0.11719171 0.11865021 -0.066299275
-0.041311413 0.054913893 -0.030166637 -0.067414984 0.11988259 -0.04336941 0.21240176 -0.11920958
-0.1932025 0.16441059 0.00626306 0.036653847 -0.037805513 0.023625528 0.067353606 -0.15948929
0.05248268 -0.09373788 -0.051471528 -0.075873144 -0.024012351 0.119445734 -0.0484441 0.16356073
00000000: bf57 d13d 76d8 b33c 49bf c33d 0cb6 253e
00000010: 2fb9 0d3d 01be cebd ba95 2e3d 456e 963d
00000020: a309 9a3d 7510 8a3d 02dc 713c 125c 56bd
00000030: 00f5 04bd ab61 fbbd ad6f 82bb 11d0 fdbb
00000040: 8e14 c1bd 79fa 7cbc e679 40bd 3f67 073e
00000050: f10d f83c 109e f2bd 463f 623d cf18 30bd
00000060: 07fa 553e 423e 3f3d ae6d 69bd c71c 0a3e
00000070: f555 e0bc ff13 a1bd 953c 31bd 72b7 39bc
00000080: dab8 dabd 24b6 593d b6f6 d53d 967f 813d
00000090: 4b17 833c 5767 62bd 12a9 08be ab63 2abd
000000a0: cead 00bd edf0 803c a4ba 053e 9cd4 e6bd
000000b0: 12f9 89bd 03ff 60bd 8e2f ee3d cf21 89bd
000000c0: b47a 883d c776 b83c 1742 383e de29 3dbd
000000d0: b4f9 323e be96 12bd 364a 333d 60f2 0c3d
000000e0: 8050 cd3d 32ef 2bbe 0bf8 ab3d e19e eb3d
000000f0: 4764 aa3d 10b3 683d 8444 95bb 1eb5 4ebc
00000100: 60e3 cbbd 3b56 22be f9dd 3fbe b4a6 683d
00000110: 0af1 0abe 5678 483d 8b62 833d 454e 7fbe
00000120: 29c5 6cbd fb0a f43d 14a5 503d f235 f03d
00000130: 1b39 b6bd 291a a9bd ac32 54bd 4503 c63d
00000140: 0638 833d 5bb0 6d3d 9036 ff3c 3c53 4b3d
00000150: b604 8a3c 057c e73d 0150 0b3e 6e1c 743d
00000160: 59f3 beba 627c 8bbd d3d3 933d e194 4fbc
00000170: 0cf9 cbbd 6a65 2f3e 2030 39be 2d37 ce3d
00000180: f0f0 c0bd 38d4 a93d c9d6 613e 9f54 8d3d
00000190: ecba 1ebe 07cd e03d 8a15 f53c 08e0 173d
000001a0: c414 87bb f6c3 d7bd acf6 72bd 66c9 3a3e
000001b0: 25c2 c4bd 008b 5a3d c7dd b5bd 7a8e f7bc
000001c0: 9574 39be f74b b6bd 1a3a a83c 686f bbbc
000001d0: 7573 d6bc ae7c 3fbe 928c b43d 7d3b 21be
000001e0: 967e cb3d 27fa 14be ca23 933c 2fa9 b53d
000001f0: d1f9 97bb 0408 b83d db3b 08be f125 fcbd
00000200: 0fa5 b33d 9a50 513d 33aa bc3d 8cb4 1abe
00000210: 3a13 67bd 733a b33d 30d3 163e 549f 25bd
00000220: 537c 83bd 3986 c13d f16c 08bd 99a6 61bc
00000230: 4b3b a2bc 3502 f03d e2fe f23d eac7 87bd
00000240: 2836 29bd 64ed 603d 0620 f7bc de10 8abd
00000250: 0185 f53d 1fa4 31bd d97f 593e 2724 f4bd
00000260: e0d6 45be 405b 283e 5b3a cd3b 5822 163d
00000270: f4d9 1abd 538a c13c b0f0 893d 2951 23be
00000280: 14f8 563d a5f9 bfbd cfd3 52bd 6163 9bbd
00000290: 8db5 c4bc f79f f43d 526d 46bd 777c 273e

rate_f.0.bias f4 [24]
-0.017198753 0.005011818 0.006802077 -0.0013058918 -0.017749142 -0.013605308 0.015905704 0.005252791
0.020399453 -0.017955057 0.033936154 0.0027513066 -0.009146394 0.006831072 -0.034778498 0.03738992
0.016216014 0.001807871 -0.018364627 0.017159477 0.00064227084 -0.015161504 -0.020945348 -0.028606344
00000000: 66e4 8cbc 2d3a a43b f5e3 de3b 752a abba
00000010: a666 91bc cce8 5ebc ae4c 823c 9b1f ac3b
00000020: c11c a73c 7c16 93bc a300 0b3d 444f 343b
00000030: c2da 15bc 2fd7 df3b e673 0ebd 2c26 193d
00000040: 72d7 843c 16f6 ec3a 6a71 96bc 0892 8c3c
00000050: 115e 283a f567 78bc 9495 abbc da57 eabc

rate_f.2.weight f4 [24, 24]
-0.034430988 -0.19049926 -0.09786488 0.31300646 -0.06619788 -0.064777315 -0.13218325 0.036035687
0.08365546 -0.096327044 0.0072925487 -0.009236122 -0.035524257 0.22750323 -0.074349 0.010660775
0.06681936 -0.030380068 -0.031133568 0.004011339 -0.072098956 0.09754589 0.14499363 -0.0068703024
0.0051732236 -0.1704563 -0.024714263 -0.08991904 0.001298215 0.0068657165 0.050380416 0.0150851095
0.16914596 0.033838447 0.04992903 0.12432689 0.23041014 0.008819195 0.0018977795 0.020477133
0.0021846632 -0.029041171 0.009094654 -0.14481246 -0.03547697 -0.1788255 -0.07566747 -0.046725817
-0.04709741 -0.021362526 0.006993322 -0.11237642 -0.1095648 0.019915793 -0.0037030955 -0.09538207
-0.029756188 0.19010548 0.015772711 0.01558985 0.0012389286 -0.04735937 0.020247957 -0.16325578
-0.14642233 0.046748113 0.19028117 -0.0040547852 0.16046105 0.024681894 -0.03914869 -0.008956831
-0.123088226 -0.050949357 0.016036244 -0.09113232 0.0821493 -0.000599568 -0.039161794 0.058401328
0.01988739 0.056019384 0.026258776 0.014733161 0.0017139908 0.028084094 0.045802996 -0.034408946
-0.11320277 0.04861841 0.045387454 0.3173366 0.1137001 -0.026023814 -0.06922269 0.07713358
-0.049899895 0.026129661 0.08015988 -0.037665054 -0.007400023 -0.019221254 -0.038902227 -0.04237408
0.03661789 -0.05792617 -0.08455365 -0.012466585 -0.06472836 -0.003578856 0.007087508 -0.022981564
-0.029340686 -0.042608317 0.020510906 0.09751747 0.016440857 0.031150738 -0.012012715 0.010510991
0.018894358 -0.17987801 -0.019504905 -0.14218928 0.07366291 -0.040792152 -0.16112591 0.1267714
-0.030107379 0.006729187 0.06844189 0.08818534 0.10224206 -0.13881575 0.109404445 0.0058276923
-0.019766914 0.0044421726 -0.12727892 0.13607317 -0.17844254 -0.08105341 -0.018466841 0.16055383
0.19257678 -0.019757655 -0.12193445 0.064313255 -0.018016003 -0.021323655 -0.005882695 -0.13375866
0.031416215 -0.09661611 0.18036303 -0.07123087 -0.04515898 0.035365324 0.087686025 -0.019182928
0.06849695 -0.04759723 -0.15021865 0.06978599 0.00018979763 -0.06511078 0.06250528 0.04835231
-0.07093005 -0.08000824 -0.0153628625 -0.06538316 0.018840872 0.028394813 0.026898462 0.010305318
0.025763357 -0.087247916 -0.026327867 0.008933069 -0.0022365854 -0.077050544 -0.026895216 0.052266117
-0.03277479 -0.0016874638 -0.006540747 0.03926785 -0.07855676 -0.005500559 -0.010825679 0.03718676
0.0717327 0.04173063 -0.02446311 -0.10637997 0.12350847 0.10730786 -0.018121028 -0.042497817
0.009335259 0.029173864 0.050481264 0.02577919 0.14224583 -0.07119231 -0.0073874244 -0.16497886
0.03664139 -0.25718525 -0.07748481 0.15680343 0.117162295 0.098366246 0.05273235 0.009359751
0.14610523 -0.21236305 0.06629407 0.11811928 0.04478686 0.048390847 0.10165491 0.018540714
0.016429283 0.03131935 0.12009935 0.047472637 -0.013460679 -0.11071114 0.06354748 0.0261885
-0.018776353 0.009791013 0.04742377 0.0063791913 0.01861477 0.052073482 -0.017054813 0.038781647
-0.037536852 -0.033325758 -0.11236226 -0.12557448 0.045769572 0.09357779 0.02100012 -0.007989624
-0.021727998 -0.017851006 0.106284834 0.13854986 -0.13525863 0.12948512 0.16052186 -0.03351893
00000000: 8207 0dbd 3d12 43be 626d c8bd 6242 a03e
00000010: c192 87bd f8a9 84bd 0c5b 07be 289a 133d
00000020: 8e53 ab3d 1d47 c5bd 55f6 ee3b 1a53 17bc
00000030: e281 11bd 9bf6 683e 4a44 98bd 88aa 2e3c
00000040: 97d8 883d 9fdf f8bc d30b ffbc 8d71 833b
00000050: 9ea8 93bd 24c6 c73d 3679 143e 4620 e1bb
00000060: 2584 a93b 198c 2ebe 9175 cabc 7927 b8bd
00000070: de28 aa3a cef9 e03b b25b 4e3d 8927 773c
00000080: 9934 2d3e 2f9a 0a3d 6282 4c3d 199f fe3d
00000090: a3f0 6b3e 637e 103c eabe f83a a9bf a73c
000000a0: 912c 0f3b c0e7 edbc be01 153c b849 14be
000000b0: 4d50 11bd 081e 37be 8cf7 9abd 9263 3fbd
000000c0: 37e9 40bd 7700 afbc 3d28 e53b 9c25 e6bd
000000d0: 8363 e0bd 7226 a33c a2af 72bb ad57 c3bd
000000e0: 40c3 f3bc 03ab 423e c635 813c 926c 7f3c
000000f0: 8c63 a23a e6fb 41bd 0bdf a53c 862c 27be
00000100: bcef 15be f37a 3f3d 11d9 423e 01de 84bb
00000110: e74f 243e af31 ca3c 605a 20bd acbf 12bc
00000120: ae15 fcbd 46b0 50bd 715e 833c 95a3 babd
00000130: e43d a83d 542c 1dba 1e68 20bd 3b36 6f3d
00000140: e1ea a23c 9574 653d a51c d73c 5b63 713c
00000150: fda7 e03a 9d10 e63c ec9b 3b3d 65f0 0cbd
00000160: dbd6 e7bd 1924 473d 32e8 393d f179 a23e
00000170: 99db e83d e52f d5bc a0c4 8dbd 36f8 9d3d
00000180: d563 4cbd df0d d63c dd2a a43d ac46 1abd
00000190: e47b f2bb e475 9dbc f157 1fbd 7190 2dbd
000001a0: a4fc 153d fe43 6dbd 772a adbd a640 4cbc
000001b0: 4d90 84bd 3d8b 6abb 543e e83b d543 bcbc
000001c0: e15b f0bc 0f86 2ebd 7d06 a83c 3db7 c73d
000001d0: faae 863c d52f ff3c fbd0 44bc 4b36 2c3c
000001e0: 57c8 9a3c f131 38be c0c8 9fbc 119a 11be
000001f0: 94dc 963d ac15 27bd 31fe 24be 5dd0 013e
00000200: c0a3 f6bc 8380 dc3b 432b 8c3d 849a b43d
00000210: 4964 d13d b725 0ebe 700f e03d 3af6 be3b
00000220: 39ee a1bc a58f 913b 6855 02be c456 0b3e
00000230: a4b9 36be 55ff a5bd c647 97bc 3968 243e
00000240: d932 453e ceda a1bc c5b8 f9bd abb6 833d
00000250: 4c96 93bc f2ae aebc 9fc3 c0bb 08f8 08be
00000260: 4aae 003d abde c5bd 16b1 383e 7ee1 91bd
00000270: 9ff8 38bd 3bdb 103d bb94 b33d 8425 9dbc
00000280: 2148 8c3d 50f5 42bd ebd2 19be f5eb 8e3d
00000290: 6a04 4739 cd58 85bd c502 803d 120d 463d
000002a0: c643 91bd 5cdb a3bd 84b4 7bbc 9be7 85bd
000002b0: 2c58 9a3c 3d9c e83c 2a5a dc3c a3d7 283c
000002c0: ad0d d33c 09af b2bd 8aad d7bc 025c 123c
000002d0: ad93 12bb adcc 9dbd 5b53 dcbc ff14 563d
000002e0: dc3e 06bd e42d ddba c353 d6bb 53d7 203d
000002f0: 5ee2 a0bd 093e b4bb 305e 31bc 2551 183d
00000300: 98e8 923d bded 2a3d dc66 c8bc bedd d9bd
00000310: 02f2 fc3d 39c4 db3d 8d72 94bc 3112 2ebd
00000320: eaf2 183c 07fe ee3c 71c5 4e3d e12e d33c
00000330: e4a8 113e 46cd 91bd 3512 f2bb 38f0 28be
00000340: 4815 163d c9ad 83be 5bb0 9ebd 1491 203e
00000350: c9f2 ef3d 3e74 c93d e0fd 573d a459 193c
00000360: 9c9c 153e b375 59be 2fc5 873d 85e8 f13d
00000370: 6d72 373d 7b35 463d 7330 d03d b2e2 973c
00000380: b496 863c b848 003d a6f6 f53d ab72 423d
00000390: 2e8a 5cbc 86bc e2bd 2e25 823d 4489 d63c
000003a0: ded0 99bc 7c6a 203c 6d3f 423d 8908 d13b
000003b0: 017e 983c 014b 553d 89b6 8bbc 81d9 1e3d
000003c0: 3ec0 19bd 9780 08bd 2f1e e6bd 9996 00be
000003d0: e078 3b3d b6a5 bf3d 7208 ac3c e9e6 02bc
000003e0: eafe b1bc 463c 92bc ddab d93d 04e0 0d3e
000003f0: 3d81 0abe bf97 043e d85f 243e 254b 09bd

rate_f.2.bias f4 [24]
0.0082555 0.00826564 -0.017412312 -0.0034440777 0.0 0.007046506 -0.0011032049 0.0
-0.011248035 -0.011557241 -0.0050588883 0.003175029 -0.023720555 0.005112384 -0.009959286 0.024319882
0.037125863 0.02118826 -0.0105604 -0.0035627212 0.0 0.0022416625 -0.0017079893 0.0023345929
00000000: 1442 073c 9b6c 073c 44a4 8ebc 09b6 61bb
00000010: 0000 0000 60e6 e63b 6a99 90ba 0000 0000
00000020: ae49 38bc 955a 3dbc 08c5 a5bb 2614 503b
00000030: 9c51 c2bc c985 a73b 462c 23bc 7d3a c73c
00000040: 4a11 183d 0093 ad3c 8705 2dbc 8b7c 69bb
00000050: 0000 0000 dbe8 123b 9cde dfba f8ff 183b

rate_f.4.weight f4 [3, 24]
0.08440715 -0.02987655 -0.049204767 0.041634392 -0.0050046854 -0.022438487 -0.19291416 -0.01709684
-0.15478952 -0.17711586 0.009745641 0.17542337 0.09323826 -0.11711284 -0.035595976 0.113368586
0.07718029 0.017221572 0.00605267 0.11165075 -0.009561272 0.10726877 -0.008708649 -0.08684804
0.06027122 0.19316895 0.19416839 -0.12778647 0.05720806 -0.10119982 0.01315665 -0.011752566
0.07153147 -0.03907923 -0.05767525 0.016614616 0.036090694 -0.22951369 0.037963357 -0.12327243
0.17684531 -0.038044546 0.055993743 0.12150867 -0.009582116 -0.036664803 -0.076566525 -0.016662955
0.017044213 0.012053364 0.11561584 -0.008659549 0.059925757 0.1983597 0.085685305 -0.004965491
-0.009570133 0.1659346 0.021193726 -0.030800587 -0.11984377 0.075300254 -0.020031225 -0.30512032
0.0400309 -0.04834188 0.11280414 -0.018177388 0.03317622 0.010204836 0.06875352 -0.08982561
00000000: a8dd ac3d abbf f4bc f08a 49bd d388 2a3d
00000010: 58fe a3bb ebd0 b7bc 4a8b 45be ac0e 8cbc
00000020: 2581 1ebe dc5d 35be 2eac 1f3c 2fa2 333e
00000030: b3f3 be3d dbd8 efbd 16cd 11bd ca2d e83d
00000040: b310 9e3d 4114 8d3c 7a55 c63b 26a9 e43d
00000050: e2a6 1cbc bbaf db3d b9ae 0ebc 63dd b1bd
00000060: f4de 763d 15ce 453e 14d4 463e 75da 02be
00000070: 0053 6a3d da41 cfbd fd8e 573c d68d 40bc
00000080: 177f 923d 8b11 20bd e23c 6cbd 601b 883c
00000090: d6d3 133d a305 6bbe 777f 1b3d 4176 fcbd
000000a0: f016 353e 99d4 1bbd b259 653d 8ad9 f83d
000000b0: 4ffe 1cbc d52d 16bd e9ce 9cbd c080 88bc
000000c0: 4ea0 8b3c 797b 453c ffc7 ec3d c8e0 0dbc
000000d0: b674 753d ce1e 4b3e c77b af3d 8fb5 a2bb
000000e0: 0ccc 1cbc c3ea 293e 779e ad3c 8351 fcbc
000000f0: a770 f5bd 0537 9a3d 8618 a4bc bb38 9cbe
00000100: 71f7 233d 2302 46bd db05 e73d bfe8 94bc
00000110: cae3 073d 2f32 273c a5ce 8c3d 7df6 b7bd

rate_f.4.bias f4 [3]
0.0050308914 -0.015050741 -0.015478918
00000000: 2dda a43b 6297 76bc 4a9b 7dbc
