output/B_P2_S5_D10.pth (torch, 5591 bytes, 6 tensors)

rate_f.0.weight f4 [24, 7]
000000 0d 28 89 bd 58 f4 42 bb ff d9 f1 bd 61 33 cc 3d
       -0.06697092 -0.002974769 -0.118091576 0.09970737
000010 f3 36 8e bc d8 91 f9 3c 40 92 ac bd 13 8b 8a 3d
       -0.017360186 0.030465052 -0.084263325 0.067648076
000020 37 e6 25 3e 3c 28 c7 bc c3 df 11 be 27 f0 de 3d
       0.16201101 -0.024311177 -0.14245515 0.10885649
000030 e4 da ae 3d b7 c4 ee bc b7 e1 74 3d 44 04 94 3d
       0.08537844 -0.029146535 0.05978557 0.07227376
000040 58 9b d6 3d 9c 84 da 3d 55 bb 80 bc 2c c8 9b bb
       0.10478848 0.106698245 -0.015714327 -0.004754087
000050 67 ec 62 bd 1b aa 9b bc 58 f2 7c 3e 08 6a 1d be
       -0.055401232 -0.019002011 0.24701822 -0.15372479
000060 63 46 00 3e 0c 18 27 3d c8 75 7f be 0b e9 22 3d
       0.1252685 0.040794417 -0.24947274 0.03977303
000070 d6 23 9b bd e6 1c df 3c 25 44 cf 3c 77 d0 00 3d
       -0.075751945 0.02723546 0.025301049 0.031448808
000080 1b 9c c9 3c 65 31 c1 3d 5b 6e 2a 3e 47 6c 4b be
       0.02461057 0.094332494 0.1664366 -0.19865523
000090 38 e9 fc 3c 3a ac 6a 3d 71 94 94 3d e6 0c d0 bd
       0.030872926 0.057293154 0.072548755 -0.1015871
0000a0 4e 52 55 be 1d 16 61 bc 1a 2a 6e 3d 47 35 b6 bd
       -0.20832178 -0.013738182 0.05814562 -0.088968806
0000b0 57 e6 07 bd 21 00 c0 bc b4 bb df ba 37 5e 6b 3e
       -0.033178654 -0.023437561 -0.001706949 0.22985159
0000c0 fc 3b 86 3e 34 c0 10 3e c4 76 25 3d 25 11 06 3e
       0.2621764 0.1413582 0.040396467 0.13092478
0000d0 53 a8 b7 3d 17 8c 5d bd 78 48 ea bc 3c fd 01 bd
       0.08967652 -0.05408868 -0.028599009 -0.031735644
0000e0 f5 47 02 bd e7 e2 fa bd 15 5d a3 bd eb 9d 0c bd
       -0.031806905 -0.122503094 -0.07976738 -0.03433029
0000f0 86 ea 84 be 0a 38 bd bd 4e 9f fd bd 8c df 35 3e
       -0.25960177 -0.09239204 -0.123839006 0.17761058
000100 92 84 9e bd 1c 87 d1 3c 2d bf 91 3d b6 52 82 be
       -0.077401295 0.02557712 0.07116542 -0.25453728
000110 c4 cf 26 bd 04 25 50 3d b8 c6 ae 3d 2a 64 c4 bd
       -0.040725484 0.05081655 0.08533996 -0.09589417
000120 85 7d 8e 3d 03 a6 ff 3d 6d 27 89 3d 60 da 0c 3e
       0.06957535 0.12482836 0.06696973 0.13755178
000130 13 ef c3 3d ab 43 a9 bd a8 7a 41 3d 09 98 a0 bd
       0.09567084 -0.0826486 0.047236115 -0.078414984
000140 28 12 a0 bd 21 46 2e be 67 8a a4 bd d1 d3 e1 3b
       -0.07815963 -0.1701894 -0.08034211 0.0068917056
000150 4f fc dc 3c f8 b3 b9 bd 72 bf 52 be f6 8a 8e 3d
       0.026975779 -0.090675294 -0.20580843 0.069600984
000160 52 29 c5 3d 8c 7f 89 3d f3 b2 57 3d 15 f5 d2 3d
       0.09627022 0.06713781 0.052660894 0.10300652
000170 ef 12 88 bd b6 2b 9a bd 7a e3 e9 bc 89 99 fe bd
       -0.06644236 -0.075278684 -0.028550852 -0.12431628
000180 dc 3f 88 bd a1 1e 8d 3d 2f a5 8c 3e f0 fb 16 3d
       -0.06652805 0.068906076 0.27469775 0.03686136
000190 5a 83 f2 3d 82 3f 1f be ce b2 56 bd 11 10 b4 bd
       0.118414596 -0.1555157 -0.052416615 -0.08792127
0001a0 30 cc 39 3e 51 08 cc 3b 86 f7 d9 3d 5b f6 b9 bc
       0.18144298 0.0062265773 0.106429145 -0.02270048
0001b0 51 ae 1d 3e e8 2c d2 bc 20 26 3a 3d 0c 85 2d be
       0.15398528 -0.025656179 0.045446515 -0.16945285
0001c0 ae 0c 4b be 72 06 1d bd 10 9c ac bd e0 25 db bd
       -0.19829056 -0.038336225 -0.08428204 -0.107005835
0001d0 88 d3 95 bd 7a 83 f4 bc 52 c2 67 3d c2 f6 31 be
       -0.07315737 -0.02984785 0.056581803 -0.17379287
0001e0 c5 4b a4 3d 22 7a 25 bc dc f4 67 be ca 78 f7 3d
       0.080222644 -0.0100999195 -0.22652 0.120835856
0001f0 72 48 c8 3d 4f b5 3b bc 29 66 37 3e 7a 49 4f 3e
       0.09779443 -0.011456802 0.17910065 0.20242873
000200 c4 ba 35 3e a9 32 27 bd 1c cb bd bb 43 2d 07 be
       0.17747027 -0.040819798 -0.005792035 -0.1320086
000210 82 ad f3 3b 43 3a e4 bd b7 82 38 be cf 38 6d 3d
       0.007436455 -0.11143925 -0.18018614 0.057915505
000220 cb 73 b6 bd fc b5 67 3d 31 79 73 3d 66 42 13 bd
       -0.089088045 0.05657004 0.05944175 -0.035951994
000230 8e 82 ee bc 02 a7 04 be 95 0e 9f 3d cf 20 de bc
       -0.029114988 -0.12954333 0.07766453 -0.027115254
000240 38 1c 28 3b 4c b7 08 3e 4b c7 7f 3d 7f 49 82 3d
       0.0025651585 0.13351172 0.06244592 0.063616745
000250 ff 3c 31 be e0 df b7 3c 0f 2f cc 3d 38 b7 0f 3d
       -0.17308424 0.02244562 0.09969913 0.03508684
000260 64 e9 19 bd 58 cc df 3b 03 09 38 be 69 e9 10 3c
       -0.037576094 0.0068297796 -0.17972188 0.008844712
000270 2b fd 4a 3c 91 c3 6a bc ab 2c 34 be 88 03 51 bd
       0.0123894615 -0.014328853 -0.17595164 -0.05102876
000280 99 cc b3 bb 58 0a 15 3d 06 2a d5 3d 09 9e 22 bd
       -0.0054870364 0.036386818 0.10408406 -0.039701495
000290 c0 aa dc bd 77 15 4d bd c2 de 06 bd 92 dd 88 bd
       -0.107747555 -0.0500693 -0.032927282 -0.06682886

rate_f.0.bias f4 [24]
000000 15 db ac bb b3 e8 35 3d a4 98 c2 bb 24 2b c4 bb
       -0.00527514 0.044411372 -0.0059386063 -0.005986588
000010 97 4e c5 bb 38 89 a2 3c 7d 01 c9 3b 5c b4 37 bc
       -0.0060213315 0.019840822 0.0061342106 -0.011212435
000020 e8 da d4 3a 2e bc 64 3c ab 5b be bc 11 58 c6 bb
       0.0016239556 0.013960881 -0.02323707 -0.006052979
000030 32 6f 23 3c 2e 6b 81 bc 91 20 06 3e e5 25 b8 3b
       0.0099752415 -0.015798178 0.1309836 0.0056197518
000040 06 5b 19 bb 1a 7d 59 3b c7 ed a6 3a d6 44 43 3c
       -0.0023400201 0.0033186139 0.0012735658 0.011918267
000050 0b 8c 1b 3c 05 1a 9a bc e7 e7 ff 3b 03 a9 d9 bc
       0.009493838 -0.018811235 0.0078096273 -0.026569849

rate_f.2.weight f4 [24, 24]
000000 1e 69 5d bc e5 8c 0e bd 6b b8 9e bd bf 61 bf 3d
       -0.013513831 -0.034802336 -0.07750019 0.093448155
000010 46 6a 93 be e4 fc 53 be f4 05 33 3e a3 83 6e bd
       -0.28792018 -0.20701939 0.1748274 -0.058231007
000020 e5 0e 88 3e 68 fa a1 3b bd 59 d0 bd 1e c3 0a bd
       0.26573864 0.004943181 -0.10173366 -0.033877485
000030 b9 4a 83 bd 79 8c a7 bc c8 7c e6 3d 17 a2 60 3d
       -0.064107366 -0.020452725 0.11254269 0.05484208
000040 50 5c a0 3d f5 4a 2f 3e 16 e5 6f 3c 8c dc 2e bc
       0.07830107 0.17118438 0.014642021 -0.0106727
000050 47 b9 81 3d 14 69 83 3d f8 d0 35 be f6 99 36 3d
       0.06334167 0.064165264 -0.17755497 0.044580422
000060 8b d2 d7 bd a6 98 9f 3d 34 fc 70 3c 1a da 23 bd
       -0.10538205 0.07792787 0.014708567 -0.04000292
000070 3f 39 69 bd bd 3a 8f 3d 70 e7 fd 3c 7b e6 31 3c
       -0.05693936 0.06993625 0.030994147 0.0108581735
000080 a5 31 97 bc 6b 33 2a 3c 1c 94 a9 bd 66 fd 90 3d
       -0.01845629 0.010388236 -0.08280203 0.07079582
000090 85 96 3d bc dd 6f 8f 3d 47 2a af bd 2b 19 c8 3d
       -0.011571531 0.07003758 -0.08552986 0.097704254
0000a0 60 f1 20 be f3 0b 67 bd 33 fb f8 b9 56 90 37 bd
       -0.15717077 -0.05640788 -0.00047489404 -0.044815384
0000b0 ea e4 27 bd 08 c8 4b bc eb 9b b5 bc ae 63 91 3d
       -0.040989794 -0.012437828 -0.022169074 0.070990905
0000c0 da 29 aa bb f2 96 3f bd fd 66 03 3b c8 33 1f bd
       -0.0051929774 -0.046774812 0.00200504 -0.03886774
0000d0 af 6d 6d bd 6d 44 9d bd 64 c4 a8 bc 4e fd 8d bd
       -0.05796593 -0.07679067 -0.020601459 -0.0693308
0000e0 fd 0b 9d 3c de ba a8 bd c2 3a 08 bd 07 43 bf bd
       0.019170756 -0.08238767 -0.03325916 -0.09338956
0000f0 50 09 f4 bd ce 7c 9b bc 6b a9 d4 3c ae 7a 7d b9
       -0.11915839 -0.01898041 0.025959691 -0.00024173662
000100 57 01 fa bd 4e d0 82 bc 35 ac 18 be 77 a0 05 bd
       -0.12207287 -0.015968468 -0.14909442 -0.032623734
000110 6c fd 3f 3c 45 89 81 bc e6 6a be bc cc 6e c3 bc
       0.011718135 -0.015812526 -0.023244333 -0.023856543
000120 63 19 c7 3c 53 4b b9 bc 2c 82 97 bc a0 98 b1 3d
       0.024304098 -0.022618925 -0.018494688 0.08671689
000130 81 6b bc bd 53 7c 42 bd 09 89 32 3e 61 4c 01 3d
       -0.09200192 -0.047481846 0.17435087 0.03156698
000140 f5 ad 33 3e d4 80 21 be 58 30 05 3e bb 01 da bc
       0.17546828 -0.157718 0.13006723 -0.026612153
000150 f2 4b 1d 3e 5b 16 82 3d ca 33 3d bd 99 3b e4 bd
       0.15361002 0.0635192 -0.046191968 -0.1114418
000160 5c 4f a7 3d 80 b0 27 be 51 5a 93 3d 11 b5 f3 bd
       0.081694335 -0.16375923 0.07194961 -0.1189977
000170 1a 49 3b 3d 66 c3 52 3d 04 8d 58 bb fb 71 4f 3d
       0.045724012 0.051455878 -0.0033043036 0.05064581
000180 de 63 48 3e 66 ce c5 bb 12 d3 b9 bd b7 06 db 3d
       0.19569346 -0.0060365675 -0.090734616 0.1069464
000190 3a 88 c8 bb 3d a9 b2 3d 6f f1 f5 3d c7 a8 8b 3d
       -0.006119755 0.08723686 0.120089404 0.06819301
0001a0 1a f7 d7 bd 9d 12 26 bd a1 d7 cb bd fb fd 69 3e
       -0.10545178 -0.040545095 -0.09953237 0.22850792
0001b0 d9 6c d6 3b e4 94 6f bd b9 7d 1c bd 64 a2 00 bd
       0.0065437374 -0.058491603 -0.038205836 -0.031404868
0001c0 f8 51 cd bc 61 01 74 be c2 95 fc bd d6 9f e0 3d
       -0.0250635 -0.23828651 -0.123332515 0.10967986
0001d0 08 bc 36 3e f2 2c 0d bd 15 6d 99 3c ce 5d 85 3d
       0.17845166 -0.03446669 0.018728772 0.065120324
0001e0 80 63 74 3e 68 25 8e 3d 5b 54 b6 3c 8f d2 9f bd
       0.23866081 0.069407284 0.02225702 -0.07803833
0001f0 56 5d cc 3d ed 25 5a 3d 09 8b 24 be dc 52 fd bc
       0.0997874 0.053258825 -0.16068663 -0.0309233
000200 2f 85 0b be d7 fd a7 bd 94 db 7e 3d 46 8c ca 3d
       -0.13625024 -0.08202713 0.062221125 0.09890036
000210 7b 1e 97 3d c1 a3 3e be 7f b6 1a be ae 54 03 3e
       0.073788606 -0.18617155 -0.15108679 0.12825271
000220 48 47 0f 3e 32 1a 5c 3e 30 c8 07 bc fe b4 f8 bc
       0.13992035 0.21494368 -0.0082874745 -0.030359741
000230 a2 06 87 bc b3 4d 92 bd 7b 08 0a be 12 39 f1 3c
       -0.016482655 -0.07143726 -0.13479798 0.029446159
000240 96 ee 09 be bc f4 78 bd 00 3d 61 3d 36 02 e0 3b
       -0.1346992 -0.060780272 0.054989815 0.006836201
000250 d6 43 fa bb 8d 3f d4 bc 48 25 7a bd 28 1a cc bc
       -0.007637481 -0.02590921 -0.06107071 -0.024914816
000260 a9 32 9b bd be fe b4 bc 31 a5 54 bc 59 d6 25 3e
       -0.07578022 -0.022094127 -0.012978838 0.16195048
000270 41 6e c9 bc ca f9 f2 bd db a7 53 bc 69 37 0b 3d
       -0.024588706 -0.1186405 -0.012918438 0.03398839
000280 8b a6 1f 3d 42 a7 35 3d 2c b3 9e bd b8 8e 7b 3d
       0.038977187 0.044348963 -0.07749018 0.061415404
000290 ff e4 cd 3d f6 e1 46 3d fa f7 ba bd 0d 05 1d 3e
       0.10053443 0.048555337 -0.09129329 0.15333958
0002a0 d9 56 8d bd 45 bd ac 3d 45 e8 ce 3d b8 9c 21 bd
       -0.069013305 0.08434538 0.10102896 -0.0394561
0002b0 73 de c6 3b 3b df 44 3d f6 dc a2 3d 06 2b e9 3b
       0.0060689985 0.04806445 0.07952301 0.0071157245
0002c0 f7 93 2e 3e 64 e6 6e bd 0c c5 96 3d 1e 2d 69 3d
       0.17048632 -0.058325186 0.073618025 0.056927793
0002d0 5c 9a 55 3d ab e8 b7 bc 48 3a 80 bc cd 14 a7 3c
       0.05214916 -0.022449812 -0.01565279 0.02039566
0002e0 4a a0 3b 3e 4e 09 60 bd e5 b8 2d be 4f 22 a7 bd
       0.18322864 -0.054696374 -0.16965063 -0.08160841
0002f0 80 84 c9 bd eb 86 bc 3c bb 96 1d 3e f2 2c 2b 3d
       -0.098397255 0.023013553 0.1538953 0.04179091
000300 8f be bc bd 90 85 3f be 23 8e 39 bd 52 3c 59 3d
       -0.09216034 -0.18703294 -0.045301568 0.05303604
000310 30 d7 38 3d 6d 4b 3f 3e 45 68 84 3d 76 4f bf 3d
       0.045127094 0.18681116 0.064652 0.09341328
000320 0a 59 88 bd 43 a3 41 3d 83 00 14 3e 00 ed 14 be
       -0.06657608 0.04727484 0.1445332 -0.14543533
000330 a0 06 7b bd a4 9e c0 3d cd 1b 88 3d 89 46 1d be
       -0.061285615 0.09405258 0.066459276 -0.15358938
000340 23 61 6f be a8 f5 fc bc 4e ee f3 bb 6d 18 ac 3c
       -0.23376898 -0.030878857 -0.0074441796 0.02100774
000350 d9 6f e3 bc aa b3 12 3e a9 71 a1 3d 74 7d 84 bd
       -0.027763294 0.14326349 0.07883007 -0.06469241
000360 6c bb 18 be 90 91 23 be b5 db 06 3e 1e 36 41 3c
       -0.14915246 -0.15973496 0.13169749 0.011792688
000370 0a 12 b5 3d 2b 24 03 3e 6b 08 94 bd 5d f0 a8 bd
       0.08841331 0.12806766 -0.07228168 -0.08248971
000380 4e 19 10 3e d4 4d b9 3c ee 71 5b bc 46 22 c4 3c
       0.14072153 0.02262012 -0.013393862 0.023942124
000390 aa 9c 8d bd 45 be 92 3d 49 66 23 be 6a b0 85 3d
       -0.06914647 0.07165197 -0.15956987 0.06527789
0003a0 90 b2 e6 3d d9 5d dd bd 2a 9b 0a 3e 42 8e 51 bd
       0.11264527 -0.10808916 0.13535753 -0.05116106
0003b0 68 9a e4 3c 22 d0 32 3d 55 d7 8c bc fe 76 6c ba
       0.027905658 0.043655522 -0.017192522 -0.0009020417
0003c0 cd 23 05 3e d0 97 b6 3d ed 49 fe bc f9 60 3c be
       0.13001938 0.08915675 -0.03104111 -0.18396367
0003d0 c9 b5 33 3e 2d 0f 72 bb 0f 08 c0 bd a9 72 e9 3c
       0.17549814 -0.0036935315 -0.09376537 0.028497057
0003e0 2f e0 a6 3d 01 c4 ac 3d 21 fe 89 3d 32 49 f7 bd
       0.081482284 0.08435822 0.06737924 -0.12074508
0003f0 a4 76 1c be 45 e8 01 3d 05 b3 86 3c 2b 2e 56 3c
       -0.15279633 0.03171565 0.016442785 0.013072531

rate_f.2.bias f4 [24]
000000 d4 bc 9d bb 3e 3b c8 bb 00 00 00 00 46 a6 31 bc
       -0.00481377 -0.006110578 0.0 -0.010842865
000010 41 1b 1e 3c 6a 92 41 3c f2 93 06 3b 60 a4 6b 3c
       0.0096500525 0.011814693 0.002053496 0.014382452
000020 72 a4 30 bc f1 4c 1c bb 3f 35 99 bc 3d ba 48 bc
       -0.010781394 -0.0023849572 -0.018702148 -0.012251434
000030 01 9a 94 bb 1e 73 ae bd 07 d8 c0 3b f6 1d 4f 3c
       -0.0045349603 -0.085180506 0.0058851275 0.012641421
000040 3d c7 42 bc d3 30 0a 3a 5a 87 30 ba 0b 70 a0 bb
       -0.011888322 0.00052715576 -0.0006734036 -0.004896169
000050 8a 4c 28 bb 00 00 00 00 22 a8 fa 3b 00 00 00 00
       -0.0025680386 0.0 0.0076494375 0.0

rate_f.4.weight f4 [3, 24]
000000 4b 6c e7 3d 86 3f 95 bc bd 04 8a 3d ea 54 fd bb
       0.11299952 -0.018218767 0.06739185 -0.00773107
000010 bc d0 27 3e 29 56 5f 3d 4b d4 48 3b 89 d3 a6 3d
       0.1638822 0.054525528 0.0030644115 0.08145816
000020 ce 2f 8d bd f7 8d 18 3e 70 fe c0 bd da 43 99 bd
       -0.06893884 0.14897905 -0.0942353 -0.07483645
000030 74 c1 b6 bd 87 27 05 3e 06 e6 22 ba 43 9f f4 bc
       -0.08923617 0.1300336 -0.0006214086 -0.029861098
000040 bd aa 1b be 3e af 46 3d 23 3f 94 bc 5b 62 a4 bd
       -0.1520185 0.048506968 -0.018096512 -0.08026572
000050 f0 08 96 bc 25 49 19 3c 4d 11 1d 3d 41 17 2a bc
       -0.018314809 0.009355818 0.038346577 -0.010381521
000060 b2 9c 38 bc 1b 78 02 3e 8d 25 41 3d 9c 49 f0 3d
       -0.011267828 0.12741129 0.04715495 0.1173279
000070 5a 29 20 3e 3d 74 91 3d e4 93 84 3d de 01 f1 3d
       0.15640774 0.07102249 0.064735204 0.11767934
000080 e3 44 f4 3d fe 11 5d 3c 45 9a 10 be b2 28 f6 3d
       0.119272016 0.013493059 -0.14121349 0.12019481
000090 92 79 a5 3d 1d 42 fc 3d f8 94 5d 3d c0 3f cc 3d
       0.08079828 0.123172976 0.054097146 0.09973097
0000a0 84 5e 55 bd a2 d3 46 3d 23 d5 04 3e f4 64 a8 bd
       -0.05209209 0.048541673 0.1297193 -0.0822238
0000b0 1b eb 58 bd 0e eb d6 3a bc 23 df bd d4 1b 2a bd
       -0.05295859 0.0016396956 -0.10895488 -0.041530445
0000c0 24 37 d6 3c 33 74 f2 3d 1e 0b 1a 3d 11 68 aa 3d
       0.02614934 0.118385695 0.03760826 0.0832063
0000d0 68 66 ff bd eb 39 36 3e e5 f1 8c 3c 84 ac fd 3d
       -0.12470704 0.17795531 0.017205188 0.1238642
0000e0 c8 0a 05 be fe 25 28 3e 69 ed 32 3b be e7 2f 3d
       -0.12992394 0.16420743 0.0027302152 0.042945616
0000f0 ae 63 99 3c 04 a5 f7 3d 7d 4c 09 be 7f 59 b1 3d
       0.018724289 0.12092021 -0.13408084 0.08659648
000100 e0 1e 0d be 60 d3 c6 3d de 56 94 39 05 36 b5 3c
       -0.13781309 0.09708285 0.0002829348 0.022120485
000110 37 ae 4e be 89 9d a2 3d 51 cc c0 bc 77 65 76 3c
       -0.20183645 0.07940204 -0.023534926 0.01503884

rate_f.4.bias f4 [3]
000000 23 d8 d9 3b bf ac 9f bb b5 68 17 3b
       0.00664808 -0.004872888 0.0023103182
