output/B_P2_S10_D20.pth (torch, 5591 bytes, 6 tensors)

rate_f.0.weight f4 [24, 7]
0	0x3cd950a0	0.026527703
1	0xbd0a7799	-0.033805463
2	0x3bf729e1	0.007542834
3	0x3c3e9f4f	0.011634662
4	0x3dc60594	0.09669033
5	0x3c6e80c7	0.01455707
6	0xbde1e6d4	-0.11030355
7	0xbd869c7d	-0.065728165
8	0xbc634166	-0.013870573
9	0xbe034c6d	-0.12822123
10	0xbc4318dd	-0.011907783
11	0xbd2531ca	-0.040330686
12	0x3aad3e8d	0.0013217494
13	0xbd21ebfb	-0.03953169
14	0x3da11fa4	0.07867363
15	0xbddd3946	-0.1080194
16	0x3e5bfb8a	0.21482673
17	0x3db1b9bc	0.08678004
18	0x3d12e449	0.03586224
19	0x3d1e231e	0.03860771
20	0xbdb6b46d	-0.08921132
21	0x3d89e0a1	0.06732298
22	0x3b9a4a28	0.004708547
23	0xbc27fbde	-0.010252921
24	0xbd59431f	-0.053042527
25	0xbe313b2d	-0.1730773
26	0x3d6b1f85	0.057403106
27	0xbd4a314b	-0.049363416
28	0xbb504445	-0.0031778973
29	0xbdd59b7b	-0.10430046
30	0xbd807115	-0.06271569
31	0xbd47a93f	-0.04874539
32	0x3e1272c4	0.14301592
33	0xbd3428c1	-0.04398418
34	0xbd56a920	-0.052407384
35	0x3d9526d5	0.07282797
36	0xbd488627	-0.048956063
37	0x3e56874b	0.20950048
38	0xbe030b18	-0.127972
39	0x3c879c2a	0.016553957
40	0x3ddd4127	0.108034424
41	0x3e2c7c7a	0.16844359
42	0x3e277179	0.1635188
43	0x3c756fa8	0.014980234
44	0xbe3c2595	-0.18373711
45	0x3db608dd	0.08888409
46	0xbdaf47e8	-0.08558637
47	0x3d5267e4	0.05136861
48	0xbdefdb9a	-0.117118075
49	0xbdc79f39	-0.09747166
50	0x3a1db4ff	0.0006016045
51	0xbc45742a	-0.012051621
52	0x3e9e6dbd	0.309431
53	0xbeb066e8	-0.3445351
54	0xbdc9360a	-0.0982476
55	0xbe50ec26	-0.20402583
56	0xbe639f4d	-0.22228737
57	0xbe128fff	-0.14312743
58	0x3e0d5a88	0.13804066
59	0x3d49bd4c	0.049252793
60	0x3df2b278	0.118504465
61	0x3e0e9e1b	0.139275
62	0x3d1c31bd	0.03813337
63	0x3d343694	0.043997362
64	0x3dfb893e	0.12282036
65	0x3dba3521	0.09092165
66	0xba1daf74	-0.0006015219
67	0xbc5511be	-0.013004718
68	0xbd913d59	-0.07091779
69	0xbd857941	-0.06517268
70	0xbde97b6e	-0.114004955
71	0x3d91137b	0.07083794
72	0xbbee0f27	-0.00726499
73	0x3e008fba	0.12554827
74	0xbcd21141	-0.025642993
75	0xbd3218d1	-0.043480698
76	0xbd54f8ff	-0.051995274
77	0xbcb7e756	-0.022449177
78	0xbdd3a3c7	-0.103339724
79	0xbc280187	-0.01025427
80	0x3df41076	0.11917202
81	0xbcb53eb0	-0.022124618
82	0xbc51bc82	-0.012801291
83	0xbd177040	-0.036972284
84	0x3deae799	0.11469955
85	0x3cdb7fe0	0.026794374
86	0xbd4eeec8	-0.05052069
87	0xbdaf6732	-0.08564605
88	0xbc08f824	-0.008359943
89	0xbe041141	-0.12897207
90	0x3c5c5ec7	0.013450331
91	0x3d5efcb6	0.054440223
92	0xbc04ed76	-0.008113256
93	0xbb464489	-0.0030253252
94	0x3d9956ed	0.07487283
95	0x3cea390a	0.028591651
96	0x3c343243	0.010998311
97	0x3e179863	0.14804225
98	0x3d530213	0.05151565
99	0x3e7853a4	0.24250656
100	0x3d9508ab	0.07277044
101	0xbd1e786d	-0.038689066
102	0x3dd8efff	0.105926506
103	0xbc791cab	-0.015204589
104	0x3c335183	0.010944727
105	0xbde4ba65	-0.111683644
106	0xbd6b10d4	-0.057389095
107	0x3d23b8d3	0.039971184
108	0xbdb63272	-0.088963404
109	0xbda4e73c	-0.08051917
110	0xbe0cc59a	-0.13747254
111	0xbc3db39d	-0.011578468
112	0xbdecdec6	-0.11565928
113	0x3d28d6a9	0.04122034
114	0xbdd520fc	-0.10406682
115	0xbdc827d1	-0.097732194
116	0x3c87e41c	0.016588263
117	0x3d965d6e	0.07342039
118	0x3c509ec8	0.012733169
119	0x3cab6112	0.02092031
120	0x3da4ce30	0.0804714
121	0xb982d790	-0.0002495614
122	0x3d3133ea	0.0432624
123	0x3cab35e0	0.020899713
124	0xbce12d2f	-0.027487366
125	0xbdea1610	-0.11429989
126	0xbdd6031d	-0.104498126
127	0x3a441e26	0.0007481299
128	0x3ebd6e34	0.3699814
129	0xbc27009f	-0.010193019
130	0xbdb34785	-0.08753876
131	0xbe4dfb74	-0.20115453
132	0xbdfce200	-0.123477936
133	0x3d85c49f	0.06531643
134	0xbc8d5ddb	-0.017256668
135	0xbdaaf697	-0.083478145
136	0xbd82fbe6	-0.06395702
137	0x3d208cb6	0.039196692
138	0x3ce1e8c2	0.027576808
139	0xbd324916	-0.04352673
140	0x3d748ed1	0.059706513
141	0xbdb66ab0	-0.08907068
142	0x3e3076e4	0.17232853
143	0x3dbee169	0.09320337
144	0x3cd6393f	0.026150344
145	0xbd73a2fe	-0.059481613
146	0xbd56ba06	-0.0524235
147	0x3db9f178	0.0907926
148	0xbb418beb	-0.002953286
149	0x3d16c893	0.036812376
150	0xbe21f95b	-0.15817778
151	0xbe04ef6a	-0.12981954
152	0x3e44cadf	0.19218014
153	0xbbf1e5ce	-0.007382131
154	0xbd67bf09	-0.05657867
155	0x3e50e830	0.20401073
156	0x3e3ff263	0.18744807
157	0xbd4314f5	-0.047627408
158	0x3e06ab13	0.13151197
159	0xbd53ff1b	-0.05175696
160	0x3d0b7325	0.034045357
161	0xbc0e13c2	-0.008671703
162	0x3cb60b27	0.022222115
163	0x3d7cf07d	0.061752785
164	0x3d3da83a	0.04630301
165	0x3de8eeef	0.11373698
166	0x3dc27df8	0.09496683
167	0xbd396733	-0.045264434

rate_f.0.bias f4 [24]
0	0xbb919d7d	-0.004443823
1	0xbc34ea4e	-0.011042191
2	0xba0d9f14	-0.00054024276
3	0xbcad8760	-0.021182716
4	0x3d19e327	0.037570145
5	0x3d923a24	0.07139996
6	0xbd2607b2	-0.040534683
7	0xbcec5f08	-0.028853908
8	0x3d27892f	0.040902313
9	0x3c21cee9	0.009875991
10	0xbca51ab1	-0.020154329
11	0xbc9c4063	-0.01907367
12	0x3a821cb5	0.0009926768
13	0x3cb38bb2	0.021917198
14	0xbd1742f0	-0.03692907
15	0xbb966d04	-0.0045906324
16	0x3c7a1655	0.015264113
17	0x3ca34be2	0.019933645
18	0x3d76b633	0.060232352
19	0xbc71edc9	-0.014766165
20	0x3c81da44	0.015851147
21	0xbc4e5aba	-0.012594873
22	0x3bb10972	0.0054027373
23	0x3cd29e22	0.02571017

rate_f.2.weight f4 [24, 24]
0	0xbe241ae3	-0.16025881
1	0xbe29835f	-0.1655402
2	0x3c1c358d	0.009534252
3	0x3ceae68d	0.028674388
4	0xbd4a0b47	-0.04932716
5	0x3db8b2b9	0.09018464
6	0xbcfa6eb5	-0.030570367
7	0xbdb5ef99	-0.0888359
8	0xbdb786b0	-0.089612365
9	0x3cca936f	0.024728505
10	0xbe1cbe62	-0.15307
11	0xbcc0846f	-0.02350065
12	0x3d20d650	0.039266884
13	0x3dcd7329	0.10031731
14	0x3d8934e3	0.066995405
15	0x3daba0ef	0.08380305
16	0x3ce8cb91	0.02841738
17	0x3d4775ae	0.048696212
18	0xbda16814	-0.078811795
19	0xbe082627	-0.13295804
20	0xbe5dcc49	-0.2165996
21	0xbd7c7ee1	-0.06164444
22	0x3dbf99c2	0.09355499
23	0x3c22fba7	0.009947694
24	0x3ddb337a	0.10703178
25	0xbdec72f2	-0.115453616
26	0xbda1ca43	-0.078999065
27	0xbcf46aad	-0.029836023
28	0xbb7b3b63	-0.0038334958
29	0x3e55d8b7	0.20883451
30	0xbccaee85	-0.024771938
31	0x3d6907ad	0.056892086
32	0x3d6528ea	0.05594722
33	0x3d51ba10	0.051202834
34	0x3de188a4	0.1101239
35	0xbce81c3b	-0.028333774
36	0x3cc37323	0.023858612
37	0xbdce0822	-0.10060145
38	0x3c810618	0.015749976
39	0x3d713f07	0.058898
40	0xbdeb2a3a	-0.114826635
41	0x3ca11edf	0.01966804
42	0xbe75ba36	-0.23996815
43	0x3a9d488d	0.0011999771
44	0xbd616835	-0.05503102
45	0x3d35ef6e	0.04441779
46	0xbd28e224	-0.04123129
47	0x3e18c84b	0.14920156
48	0x3d52c6b2	0.051459022
49	0x3d41cf63	0.04731692
50	0xbde962ba	-0.11395784
51	0x3d2488df	0.040169593
52	0xbd293f33	-0.041320037
53	0x3e1ff102	0.15619281
54	0x3d4a8809	0.04944614
55	0xbd6688a3	-0.05628265
56	0x3c67b685	0.014142637
57	0xbca16655	-0.019702116
58	0x3de33f01	0.110960014
59	0xbdcdfcef	-0.10058009
60	0x3c8b7701	0.017024519
61	0x3b8885a0	0.00416632
62	0xbcddede2	-0.02709097
63	0xbc4a49a4	-0.012346659
64	0xbd456b9f	-0.04819834
65	0xbce85b66	-0.028363895
66	0xbd5ed0af	-0.054398235
67	0xbe0a25c6	-0.13490972
68	0xbd2b4e49	-0.041822705
69	0xbcf44bd3	-0.029821312
70	0xbe0f681c	-0.14004558
71	0x3be8e354	0.0071071777
72	0x3dc0d0eb	0.09414848
73	0xbda9b411	-0.08286298
74	0xbcd59ce3	-0.026075786
75	0xbdb1e8f8	-0.086870134
76	0x38b9351c	8.83138e-05
77	0xbd9d4578	-0.07679266
78	0x3cc6d999	0.02427368
79	0xbe8e87d6	-0.2783801
80	0xbd2d182a	-0.042259373
81	0x3d63b0f6	0.055588685
82	0xbe16b9c5	-0.14719303
83	0x3d43e405	0.04782488
84	0x3e0f7048	0.14007676
85	0x3cdfdd0d	0.027327085
86	0x3c4d662b	0.012536566
87	0xbd6fe5eb	-0.058568876
88	0xbbaa5994	-0.005198667
89	0x3cb13911	0.021633657
90	0x3df8b003	0.121429466
91	0x3da40ee7	0.08010655
92	0xbd95cbea	-0.07314284
93	0x3caa0e43	0.020758754
94	0xbd00c240	-0.03143525
95	0x3d494ca5	0.04914536
96	0x3dc28530	0.0949806
97	0xbc8f3458	-0.017481014
98	0x3d45d360	0.048297286
99	0xbd18e627	-0.037328865
100	0x3c89cc2e	0.016820993
101	0x3cd575c4	0.026057132
102	0xbdf5f2a2	-0.12009169
103	0x3e5e9e1f	0.21740006
104	0xbca5bc98	-0.02023153
105	0xbd998360	-0.07495761
106	0xbdca5ede	-0.09881376
107	0xbd1b9b90	-0.037990153
108	0x3e0a3237	0.13495718
109	0xbd114db2	-0.035474487
110	0xbdc0ccaa	-0.094140366
111	0xbd98c0d4	-0.07458654
112	0x3d982b7c	0.07430169
113	0x3cbdfb45	0.023191104
114	0x3cfd6e51	0.030936392
115	0xbe313985	-0.17307098
116	0xbda7c463	-0.08191755
117	0x3d94f825	0.07273892
118	0xbba8f038	-0.0051555894
119	0xbd6f72b9	-0.058459017
120	0xbd9ab5e6	-0.075542256
121	0xbe092189	-0.13391699
122	0x3c685715	0.014180918
123	0x3e0f6d2f	0.14006494
124	0x3d8d2f88	0.068938315
125	0xbe63f610	-0.22261834
126	0x3cf12146	0.029434811
127	0x3d5d7ff3	0.0540771
128	0xbdb97f9f	-0.09057545
129	0xbe43de09	-0.19127668
130	0xbc80aa7b	-0.015706291
131	0x3dc53af1	0.09630383
132	0x3e1fa356	0.15589651
133	0xbdb7aa83	-0.089680694
134	0x3d73c127	0.059510376
135	0x3c94c8d0	0.018162161
136	0xbccd9135	-0.025093654
137	0xbbedfa78	-0.007262524
138	0x3e4658db	0.19369833
139	0x3d3fa295	0.04678591
140	0x3d537071	0.051620904
141	0x3d80d96c	0.0629147
142	0x3cc621f3	0.02418611
143	0xbc28373a	-0.010267073
144	0xbd4c3202	-0.04985238
145	0xbd965ee7	-0.0734232
146	0xbe05d7ee	-0.13070652
147	0xbbe3b902	-0.006949545
148	0xbc547747	-0.012967891
149	0x3e1aeea5	0.15130098
150	0x3c7a3939	0.015272432
151	0xbb329fe1	-0.002725594
152	0x3e6b3643	0.22969918
153	0xbe06d48f	-0.13167022
154	0x3cd1aaef	0.025594203
155	0x3d56240e	0.05228048
156	0xbc924aef	-0.017857997
157	0x3da65919	0.08122463
158	0xbcd52a64	-0.02602119
159	0xbd878aab	-0.06618246
160	0x3e119ef1	0.14220788
161	0x3d38e4ac	0.045139953
162	0x3d512377	0.051059213
163	0xbd9f2498	-0.077706516
164	0xbdc439d0	-0.09581339
165	0x3dbcc8b3	0.09217968
166	0x3ca57343	0.020196563
167	0x3d6fd941	0.0585568
168	0x3dc5b9dd	0.09654591
169	0xbd70f3b0	-0.05882615
170	0x3d69d21f	0.057085153
171	0x3c82b2ee	0.015954461
172	0xbcb44a79	-0.022008168
173	0xbd2387e8	-0.039924532
174	0xbd9e361b	-0.077251635
175	0xbe03e276	-0.12879357
176	0x3d7657eb	0.06014244
177	0xbdb3f05e	-0.08786081
178	0x3e26139b	0.16218416
179	0x3d5203c9	0.05127314
180	0x3d9bd944	0.076097995
181	0xbd1fb9e1	-0.038995627
182	0xb954d0be	-0.00020295658
183	0x3c6ed209	0.0145764435
184	0xbd230bb9	-0.0398061
185	0xbdcfe67c	-0.10151383
186	0xbda45bb8	-0.080253065
187	0x3d86e0bd	0.06585834
188	0x3da4fa92	0.08055605
189	0x3d87f97d	0.06639383
190	0x3e0b7560	0.13618994
191	0xbd58a2bb	-0.052889567
192	0xbde10e3a	-0.109890416
193	0xbe0277ca	-0.12741008
194	0x3b6279d8	0.0034557488
195	0xbceb7e33	-0.0287467
196	0x3e3acc07	0.18241893
197	0x3db02b49	0.08602006
198	0x3d29574e	0.041343026
199	0xbd9fb27f	-0.07797717
200	0xbe047b7b	-0.12937729
201	0x3d188f92	0.037246294
202	0x3b400f60	0.002930604
203	0xbd2e59fb	-0.04256628
204	0xbd4876f4	-0.048941568
205	0xbd1044a0	-0.035221696
206	0x3cf59815	0.029979745
207	0x3df82939	0.121172376
208	0xbdd12dc7	-0.102138095
209	0xbe12f110	-0.1434977
210	0xbe2e3d30	-0.17015529
211	0xbdd0922f	-0.10184132
212	0x3e050764	0.129911
213	0xbcdbfe0f	-0.026854543
214	0x3ce25e44	0.02763284
215	0x3d7ed893	0.06221826
216	0xbe79d79d	-0.24398656
217	0x3d80cc7f	0.062890045
218	0xbdcf61f4	-0.10126105
219	0xbb99a67e	-0.004689037
220	0x3dc4bbce	0.096061334
221	0x3c93c36e	0.018037524
222	0xbc6de4a3	-0.014519843
223	0x3dbede5d	0.09319756
224	0x3d9911fc	0.07474133
225	0xbb4fea84	-0.0031725476
226	0x3d97648d	0.073922254
227	0x3d0d0289	0.034426246
228	0x3db154b9	0.08658738
229	0xbdecfd77	-0.11571782
230	0xbe80b3d1	-0.2513719
231	0x3d6798c7	0.056542184
232	0xbd928e46	-0.07156043
233	0xbd508019	-0.050903413
234	0xbcd6add4	-0.026205935
235	0x3d4a93b3	0.049457263
236	0xbe3be07f	-0.18347357
237	0xbd2458ed	-0.04012387
238	0x3c9c36e8	0.01906915
239	0xbd7ef8a7	-0.062248852
240	0xbd18d02d	-0.037307907
241	0xbdcc981e	-0.099899516
242	0xbe0c01ca	-0.13672557
243	0x3d3a102e	0.045425586
244	0xbbef22b4	-0.007297838
245	0xbdbbbb00	-0.09166527
246	0x3a068dbe	0.00051328156
247	0xbda6c7bf	-0.08143567
248	0xbd5e2f43	-0.05424429
249	0xbe06ded2	-0.13170937
250	0x3d1b466a	0.03790895
251	0xbd26d444	-0.040729776
252	0xbd0df920	-0.034661412
253	0x3cd87cc9	0.02642669
254	0x3d074cc0	0.03303218
255	0x3db317f5	0.08744804

rate_f.2.bias f4 [24]
0	0xbd14b6a9	-0.03630701
1	0x3c78e7f4	0.015192021
2	0xbc909969	-0.017651277
3	0x3d4a6455	0.04941209
4	0x3ba40266	0.0050051687
5	0x3c0205a2	0.007935913
6	0x3cd342f9	0.025788771
7	0xbcec523b	-0.028847804
8	0xbb691fbb	-0.0035571891
9	0xbce80500	-0.028322697
10	0xbb55034d	-0.0032503188
11	0xbcddd6da	-0.027079988
12	0x3be504de	0.0069891056
13	0x3d3d5856	0.04622682
14	0x3c8c449d	0.017122561
15	0x3bb8cbcc	0.005639529
16	0xbc08c859	-0.008348548
17	0x3be14d4f	0.006875671
18	0xbcb06eb0	-0.021537155
19	0x3c5990b0	0.013279125
20	0xbb984c98	-0.0046478026
21	0xbc287a88	-0.01028312
22	0x3c48b8c3	0.012251082
23	0xbd0f63c2	-0.035007246

rate_f.4.weight f4 [3, 24]
0	0x3d835607	0.06412893
1	0xbc9f7a89	-0.019467609
2	0xbae5c85a	-0.0017531023
3	0xbdf14fb1	-0.11782778
4	0x3c662bce	0.01404853
5	0x3da595a8	0.08085185
6	0x3e45c5e9	0.19313778
7	0x3d22d4c1	0.03975368
8	0x3c59771b	0.013273026
9	0x3e370903	0.17874531
10	0x3d6ebad6	0.05828365
11	0xbe18282c	-0.14859074
12	0xbdb6ac75	-0.08919612
13	0xbd3cea9f	-0.04612219
14	0x3e22d732	0.15902403
15	0xbc9400b5	-0.018066743
16	0x3da6490b	0.081194006
17	0x3dcd3b9d	0.10021136
18	0x3adacbf6	0.0016692865
19	0x3cbd6cc5	0.023123154
20	0xbd260c6a	-0.040539183
21	0xbc8b55af	-0.01700863
22	0xbd8d9862	-0.0691383
23	0x3d659749	0.05605248
24	0xbdb4478f	-0.08802711
25	0x3d04a9d6	0.03238853
26	0x3e299786	0.16561708
27	0x3c7e5645	0.015523498
28	0xbd8ac8e5	-0.06776599
29	0x3d167abb	0.03673814
30	0xbd0426df	-0.032263633
31	0xbdf60f0e	-0.1201459
32	0x3dc2ebdd	0.095176436
33	0x3d4b2135	0.049592216
34	0x3d9e0c8b	0.07717236
35	0xbb95c07c	-0.004570065
36	0xbe152a9e	-0.14567038
37	0xbc8792b7	-0.016549451
38	0x3dcc21ce	0.09967385
39	0xbc5feb87	-0.013666994
40	0x3c0f8543	0.008759799
41	0x3e45a1a3	0.19299941
42	0x3da90b4d	0.082541086
43	0xbdd50189	-0.104006834
44	0x3e20fc63	0.15721278
45	0x3cb73a58	0.022366688
46	0xbd60a6e2	-0.05484665
47	0x3e0a7836	0.1352242
48	0xbd34981f	-0.044090386
49	0x3e327c0e	0.17430136
50	0xbc101f28	-0.008796491
51	0x3dc1f441	0.09470416
52	0xbcc0ca00	-0.023533821
53	0xbcf0ade9	-0.029379802
54	0x3da61cc6	0.08110957
55	0xbd689843	-0.056785833
56	0x3df09109	0.11746413
57	0xbd8eaa7e	-0.069661126
58	0xbd981257	-0.07425373
59	0xbe17bec2	-0.14818862
60	0x3c865e4e	0.01640239
61	0xbd8124d0	-0.063058496
62	0x3d3cb91a	0.046074964
63	0x3e35a334	0.17738038
64	0x3dc7b832	0.09751929
65	0xbd552dfd	-0.05204581
66	0x3b89d8a9	0.004206736
67	0xbd9ffbae	-0.07811676
68	0x3c8b7e82	0.017028097
69	0x3c911a64	0.01771278
70	0xbd879e65	-0.06622008
71	0xbdb29cd1	-0.087213166

rate_f.4.bias f4 [3]
0	0x3b73403d	0.0037117146
1	0xbb9cb906	-0.0047827987
2	0xbb3c389a	-0.002872026
