output/B_r_1.pth (torch, 11415 bytes, 6 tensors)

rate_f.0.weight f4 [40, 11]
0.14218709 -0.14712225 0.09257244 -0.16068485 0.16463007 0.068304956 6.387115e-07 0.0020580168
7.516827e-05 0.03931123 -0.112573944 -0.05328162 -0.070137076 0.03613926 0.06806545 0.0118248975
0.0030550377 -0.0005907499 0.00014694032 -0.00085356453 -0.09440014 0.008256191 -2.8026252e-05 -0.098796174
0.02454069 0.026035849 -0.19370095 -0.029493717 0.00026534993 -9.720696e-07 -0.00053985923 -0.04669689
0.0018653768 -0.12250949 -0.19413559 0.024364166 0.061706718 0.06853661 -0.065299705 -3.577842e-07
-1.8010483e-06 -5.366944e-06 -0.039515328 -0.00057660363 0.1319291 0.019788822 -0.060885586 0.078651085
-0.07177508 -0.14821689 -6.9085223e-07 5.1218216e-09 1.4701672e-08 -0.05274334 -0.002426423 -0.021038193
0.10217507 -0.1157012 -0.21275242 0.065006495 0.09610546 4.078054e-06 -6.767739e-06 2.8992021e-08
0.034812346 -0.013649876 -0.021159142 0.08298803 0.05434646 -0.04384712 -0.165805 0.17191061
5.0351296e-08 5.3362164e-06 -3.2928136e-05 -0.20879526 0.026695324 0.03338916 0.19807728 0.08007478
-0.0021128939 -0.3724403 0.0123171965 0.0012167604 -1.2174443e-07 0.004521908 0.035018668 -0.007756823
-0.014728982 -0.03199337 0.2176542 -0.1815865 -0.037459206 0.024390213 -5.704512e-06 -1.5440332e-08
-2.4668981e-05 -0.13360058 0.03843739 -0.13010682 -0.037841 0.03271324 0.014937635 -0.06640655
-0.110872716 5.7054378e-05 -1.18929265e-05 0.000437716 0.097229354 0.026084227 0.0032723073 0.012260572
0.036246102 0.02269737 -0.025493432 0.04195312 -3.4823247e-06 -0.00010810708 -0.0010595589 -0.0642079
-0.019188168 0.0003930319 -0.12700756 0.02005708 -0.019017002 0.13208312 0.05560299 -5.8547704e-07
-7.9229085e-06 -4.168357e-05 -0.07549455 0.04284993 -0.08135484 0.05920846 -0.0014093 0.117238835
0.09145187 0.106170654 4.4308837e-07 2.9455776e-05 -6.7427216e-05 -0.09412493 0.1041065 -0.057955943
-0.025051372 0.099643506 -0.004739035 -0.1288065 0.09879911 3.4061468e-05 -4.3494115e-06 7.061396e-05
-0.2047636 0.004808118 -0.13114744 -0.09936147 -0.04741482 -0.17091502 0.052834608 0.036929023
2.910075e-07 6.0637714e-05 2.4055615e-05 -0.116868705 0.010017891 0.07607297 -0.006026462 -0.019592889
0.04614828 -0.049218964 -0.087092124 -1.4593556e-05 -3.7043346e-06 4.359646e-05 0.027904425 0.005056401
0.285824 0.2613851 0.053077374 0.046001222 0.15800165 -0.02997987 -3.1413838e-05 -0.00025594226
5.7382647e-05 -0.0049210186 0.085698314 0.13736454 -0.0004674054 0.12195423 0.089575134 7.235922e-05
-0.04836388 0.0012246963 -7.6498836e-08 6.846288e-05 0.08656377 -0.06535664 0.006416046 -0.25250864
0.07939339 -0.006530151 -0.07911347 0.10270746 1.3015597e-06 2.2040886e-06 -6.7499077e-06 0.015213799
-0.125807 -0.098008394 0.12835072 0.056742556 -0.024115762 0.06811947 0.069826245 6.8442405e-06
1.47529e-05 1.3015488e-05 -0.010247393 -0.036247306 0.19797975 0.016843384 0.019566232 0.092240915
-0.114818856 0.006165998 -1.3582226e-06 9.645113e-08 0.000585668 -0.03271389 0.007515921 0.0036646188
0.09432732 -0.025814433 -0.10269581 0.014889366 0.07376283 -0.00046475933 3.590233e-05 3.845204e-06
0.03267311 0.123193435 0.011756611 -0.06628779 -0.07347085 -0.01951885 0.012210738 0.09097055
0.000102040256 -7.8152266e-07 -1.8989092e-06 0.0054383185 -0.09492544 0.08301769 -0.06983939 -0.063313514
00000000: 7e99 113e 37a7 16be 9f96 bd3d 928a 24be
00000010: c994 283e 78e3 8b3d ec73 2b35 cbdf 063b
00000020: a8a3 9d38 d004 213d 2b8d e6bd d43d 5abd
00000030: 07a4 8fbd c306 143d e665 8b3d 37bd 413c
00000040: 0737 483b 8edc 1aba fe13 1a39 bfc1 5fba
00000050: dc54 c1bd fa44 073c eb19 ebb7 a655 cabd
00000060: 8f09 c93c 2249 d53c 8b59 46be cf9c f1bc
00000070: aa1e 8b39 0f78 82b5 5785 0dba 3d45 3fbd
00000080: a97f f43a 41e6 fabd 7bcb 46be 5c97 c73c
00000090: 2fc0 7c3d ec5c 8c3d dabb 85bd 7c15 c0b4
000000a0: 8cbb f1b5 b315 b4b6 d3da 21bd 3727 17ba
000000b0: 6c18 073e 2b1c a23c 2a63 79bd d213 a13d
000000c0: d0fe 92bd 2bc6 17be 0173 39b5 05fc af31
000000d0: a392 7c32 6709 58bd 9f04 1fbb 4a58 acbc
000000e0: 2a41 d13d c0f4 ecbd c5db 59be 2022 853d
000000f0: f0d2 c43d 38d6 8836 6f16 e3b6 210a f932
00000100: 6497 0e3d bba3 5fbc f055 adbc a1f5 a93d
00000110: 659a 5e3d 0a99 33bd c9c8 29be 5609 303e
00000120: d641 5833 c00d b336 511c 0ab8 6dce 55be
00000130: 27b0 da3c 12c3 083d c5d4 4a3e 3ffe a33d
00000140: 7a78 0abb 7fb0 bebe 11ce 493c b47b 9f3a
00000150: dbb8 02b4 832c 943b bc6f 0f3d f32c febb
00000160: d451 71bc 7b0b 03bd bee0 5e3e d0f1 39be
00000170: d36e 19bd fccd c73c 6369 bfb6 a6a1 84b2
00000180: 3cf0 ceb7 97ce 08be 8670 1d3d b93a 05be
00000190: 2aff 1abd 51fe 053d fbbc 743c 2800 88bd
000001a0: 3c11 e3bd ac4d 6f38 bb87 47b7 3f7d e539
000001b0: 2f20 c73d 97ae d53c 3574 563b 91e0 483c
000001c0: cb76 143d d6ef b93c 9ad7 d0bc 09d7 2b3d
000001d0: e2b1 69b6 8cb7 e2b8 e6e0 8aba 6e7f 83bd
000001e0: 8130 9dbc d90f ce39 450e 02be bf4e a43c
000001f0: 8bc9 9bbc cc40 073e f6bf 633d ad29 1db5
00000200: a2ec 04b7 64d5 2eb8 e39c 9abd 6883 2f3d
00000210: 5e9d a6bd 9284 723d 43b8 b8ba ea1a f03d
00000220: 1e4b bb3d 0070 d93d 9ae1 ed34 cc17 f737
00000230: b667 8db8 92c4 c0bd ca35 d53d 3663 6dbd
00000240: 8938 cdbc e511 cc3d e849 9bbb dae5 03be
00000250: 3057 ca3d 39dd 0e38 29f1 91b6 9516 9438
00000260: 8dad 51be 6b8d 9d3b 844b 06be 077e cbbd
00000270: 0b36 42bd 5904 2fbe 1a69 583d e342 173d
00000280: c43b 9c34 4055 7e38 0acb c937 dc58 efbd
00000290: 1522 243c 25cc 9b3d a179 c5bb 4481 a0bc
000002a0: fb05 3d3d d399 49bd 5b5d b2bd d9d6 74b7
000002b0: fc97 78b6 58db 3638 d297 e43c 2ab0 a53b
000002c0: 8657 923e 45d4 853e a967 593d c76b 3c3d
000002d0: 2fcb 213e 5898 f5bc 5ac2 03b8 fd2f 86b9
000002e0: 26ae 7038 7f40 a1bb 9982 af3d 4aa9 0c3e
000002f0: 170e f5b9 24c3 f93d 2b73 b73d 8fbf 9738
00000300: 3419 46bd fd85 a03a ae47 a4b3 bb93 8f38
00000310: 5948 b13d b4d9 85bd b23d d23b d048 81be
00000320: 0099 a23d e0fa d5bb 3e06 a2bd 4a58 d23d
00000330: 40b1 ae35 f4e9 1336 447d e2b6 4c43 793c
00000340: 8dd3 00be a0b8 c8bd 5f6e 033e e26a 683d
00000350: 6b8e c5bc 3882 8b3d 1001 8f3d 94a7 e536
00000360: 3983 7737 185d 5a37 aee4 27bc 0e78 14bd
00000370: 34bb 4a3e 23fb 893c 5d49 a03c cee8 bc3d
00000380: 2626 ebbd 240c ca3b 2c4c b6b5 9220 cf33
00000390: 8487 193a 00ff 05bd 1d48 f63b 1a2a 703b
000003a0: af2e c13d ca78 d3bc 2e52 d2bd 87f2 733c
000003b0: f710 973d f1aa f3b9 d595 1638 0d06 8136
000003c0: 3dd4 053d d74c fc3d cd9e 403c e5c1 87bd
000003d0: e377 96bd ffe5 9fbc 8c0f 483c c54e ba3d
000003e0: 72fe d538 d4c9 51b5 06de feb5 ec33 b23b
000003f0: 4568 c2bd 2e05 aa3d f407 8fbd 84aa 81bd

rate_f.0.bias f4 [40]
0.0072225896 0.002774214 -0.010428346 -0.014283388 -0.021829061 0.019356249 0.06590892 0.0012861409
0.011659644 0.02060169 -0.023657834 0.033681493 0.023779117 0.041788235 0.007579763 0.016778242
0.060891684 -0.00053791376 -0.022972317 -0.0065486683 0.00366094 0.03882789 0.022260811 -0.0063645565
-0.006684322 0.083043896 0.007548449 -0.0073618693 0.04062677 0.023136772 0.10918415 0.022800798
0.0011362702 0.012533415 -0.038325727 -0.014983743 0.0033721912 -0.009028596 0.060779177 -0.016698692
00000000: 79ab ec3b 96cf 353b a7db 2abc df04 6abc
00000010: dcd2 b2bc ff90 9e3c 41fb 863d ba93 a83a
00000020: 1708 3f3c e0c4 a83c 13ce c1bc 9bf5 093d
00000030: 6ccc c23c 242a 2b3d a95f f83b 8672 893c
00000040: 8f69 793d c802 0dba 7130 bcbc 3696 d6bb
00000050: 62ec 6f3b fe09 1f3d 4e5c b63c c58d d0bb
00000060: 2808 dbbb eb12 aa3d fb58 f73b d63b f1bb
00000070: 4268 263d 5489 bd3c f19b df3d bdc8 ba3c
00000080: e7ee 943a f458 4d3c 70fb 1cbd 607e 75bc
00000090: fbff 5c3b adec 13bc 96f3 783d b2cb 88bc

rate_f.2.weight f4 [40, 40]
-0.02860764 -0.002792945 -0.014525867 -0.011405094 0.03348947 -0.06013015 -0.09327173 0.0201839
0.2496303 -0.01751097 0.0691305 0.0055210465 0.12787463 -0.028036222 -0.033365395 -0.073126525
-0.03923894 0.064604886 -0.15749882 0.06889343 -0.02555874 -0.04596881 0.05567592 0.051509317
-0.1235352 -0.009567003 0.051478192 0.056514714 -0.073503874 0.01684517 0.10612778 0.0024935703
-0.022359924 -0.06656154 0.0971078 -0.0048016645 -0.05814279 0.005586025 -0.019300364 0.00022477492
-0.029034993 -0.088557415 -0.09052546 0.032674115 0.00023436968 -0.029257774 -0.1293329 0.009883415
0.11635792 0.09809276 -0.04560114 -0.071553975 -0.025051216 0.037469834 -0.09353352 7.090427e-05
0.051730692 0.05210231 0.096016414 -0.124657124 0.04723819 -0.023961488 -0.02207854 -0.045509703
0.005556207 -0.033739407 0.028787293 -0.03516016 0.12991802 0.1945307 0.10806789 -0.021276241
-0.08472512 0.018694177 0.037462674 -0.03739065 0.004189056 0.05612536 -0.058516923 -0.08196052
0.0011539528 0.023904553 -0.008244813 0.1778515 0.04540471 0.03265327 0.015923077 0.28638336
0.07463192 -0.005274906 -0.109768264 -0.15824935 -0.013280159 -0.010682116 0.047462963 0.05882561
0.088704355 0.012242201 -0.16643883 0.07329252 0.048145093 0.15839711 -0.05731724 -0.041694827
-0.033221025 0.018078512 -0.01746663 0.06278987 -0.017671663 0.21086696 0.058279727 -0.03740174
-0.069051825 -0.02477371 -0.12761989 0.011246995 0.059209593 0.01668721 -0.014954636 -0.00075492146
0.05957929 0.06627124 0.13805969 -0.048863657 -0.0070792134 0.018483095 0.091001846 0.013004729
-0.08578756 0.11425088 -0.017362414 0.0675985 0.055086825 0.1034279 -0.052435238 -0.081241265
-0.11270496 0.012483811 0.14881589 -0.004800324 0.17020787 -0.033880617 -0.09257789 0.017493647
0.0968618 0.027355745 0.112435624 -0.06878555 -0.05874565 0.016150346 0.31011996 0.025071943
0.009904095 0.042942088 0.025955863 -0.19412397 0.050821714 -0.048950348 -0.18325275 0.0019449934
0.013981894 -0.0031662027 -0.010064018 0.0005015075 -0.023616921 -0.032221735 -0.0796423 0.09618544
0.07190667 0.04347451 -0.00089912664 0.0012691518 -0.07889815 -0.12895027 -0.0063379332 0.08510212
0.07812578 0.058180008 -0.0051601734 -0.051520895 0.19159803 0.10386252 -0.1617349 -0.056465104
-0.05666585 0.046857912 0.043603666 -0.031584706 -0.07001293 -0.116308115 0.06640241 -0.021253021
-0.03747438 -0.0037954897 0.008227912 0.010098039 0.08181538 -0.22599857 -0.049942005 -0.018400136
0.13294505 0.03857286 0.095103346 -0.053792167 -0.057080317 0.0034092874 -0.05491954 -0.031872887
-0.15556091 -0.028397946 0.011624351 0.055437386 0.06302834 0.00011259052 -0.025812237 0.04792202
-0.038858466 -0.15648513 0.0043863556 0.05563406 0.014311909 0.00416835 0.17750391 0.21382116
-0.091163024 0.071795665 0.054190308 0.009771154 -0.037502196 -0.032596365 -0.016416295 -0.0069570374
-0.06591224 0.069766715 -0.024323357 -0.065162 0.10109033 0.10052905 0.17030275 0.026771374
0.1557489 -0.000529568 -7.888613e-05 -0.010823525 0.024518391 0.06372286 0.012336455 -0.14677487
-0.016897773 -0.0060979384 0.044136558 -0.10495361 0.030100945 0.00030450858 -0.0047444096 -0.008886167
00000000: 925a eabc d709 37bb e7fd 6dbc 6edc 3abc
00000010: 412c 093d 084b 76bd 4005 bfbd b558 a53c
00000020: 169f 7f3e 2a73 8fbc 4b94 8d3d e5e9 b43b
00000030: 91f1 023e 38ac e5bc 27aa 08bd 5cc3 95bd
00000040: 03b9 20bd 914f 843d 5f47 21be 0018 8d3d
00000050: 9060 d1bc ca49 3cbd 6f0c 643d 6ffb 523d
00000060: 0600 fdbd ebbe 1cbc ccda 523d f97b 673d
00000070: 3389 96bd e2fe 893c 8659 d93d 2b6b 233b
00000080: 292c b7bc 6b51 88bd 74e0 c63d 4857 9dbb
00000090: 2227 6ebd f90a b73b cc1b 9ebc 8fb1 6b39
000000a0: cbda edbc 975d b5bd 6a65 b9bd 4bd5 053d
000000b0: 22c1 7539 00ae efbc d86f 04be 0cee 213c
000000c0: 104d ee3d dbe4 c83d 43c8 3abd e48a 92bd
000000d0: 3538 cdbc f879 193d 818e bfbd 71b2 9438
000000e0: 90e3 533d 3b69 553d 41a4 c43d 3c4c ffbd
000000f0: d57c 413d e24a c4bc 0ede b4bc 6268 3abd
00000100: d810 b63b 5532 0abd 54d3 eb3c 1a04 10bd
00000110: 3b09 053e 0e33 473e b352 dd3d 834b aebc
00000120: 5d84 adbd 8824 993c 7672 193d f026 19bd
00000130: 5944 893b b5e3 653d 71af 6fbd ebda a7bd
00000140: 3b40 973a 7bd3 c33c 4115 07bc b41e 363e
00000150: 4afa 393d 6fbf 053d 1d71 823c d7a0 923e
00000160: 9fd8 983d 1ed9 acbb 2fce e0bd 1e0c 22be
00000170: 0695 59bc 0b04 2fbc 8668 423d 1ff3 703d
00000180: a1aa b53d 8393 483c f16e 2abe 641a 963d
00000190: ca33 453d da32 223e 7bc5 6abd 32c8 2abd
000001a0: c512 08bd 6319 943c 2e16 8fbc fa97 803d
000001b0: 2ac4 90bc 82ed 573e b9b6 6e3d 9132 19bd
000001c0: 0b6b 8dbd 3cf2 cabc caae 02be 5145 383c
000001d0: c285 723d 9eb3 883c 4a04 75bc ece5 45ba
000001e0: 6a09 743d 37b9 873d 855f 0d3e 4225 48bd
000001f0: bff8 e7bb dc69 973c 2d5f ba3d c911 553c
00000200: 63b1 afbd 5efc e93d 9f3b 8ebc 1571 8a3d
00000210: b9a2 613d 02d2 d33d 55c6 56bd d261 a6bd
00000220: dcd1 e6bd e688 4c3c 3163 183e 094c 9dbb
00000230: f94a 2e3e 67c6 0abd 7a99 bdbd d64e 8f3c
00000240: 7b5f c63d 2819 e03c a644 e63d 70df 8cbd
00000250: 479f 70bd bb4d 843c 0bc8 9e3e ad63 cd3c
00000260: c944 223c 0be4 2f3d 64a1 d43c 6fc8 46be
00000270: 6e2a 503d 2980 48bd 9ca6 3bbe 26ef fe3a
00000280: 5014 653c 1180 4fbb 8de3 24bc 9977 033a
00000290: 4678 c1bc f0fa 03bd 811b a3bd dffc c43d
000002a0: ce43 933d 5412 323d 5eb3 6bba ab59 a63a
000002b0: 5a95 a1bd 8a0b 04be 70ae cfbb 054a ae3d
000002c0: 6900 a03d 294e 6e3d ac16 a9bb 9307 53bd
000002d0: 4632 443e dfb5 d43d d59d 25be f447 67bd
000002e0: 731a 68bd 15ee 3f3d c299 323d f75e 01bd
000002f0: f062 8fbd f332 eebd fdfd 873d d11a aebc
00000300: bc7e 19bd c0bd 78bb 5dce 063c 3f72 253c
00000310: d28e a73d 2b6c 67be fd8f 4cbd e2bb 96bc
00000320: bf22 083e 93fe 1d3d 8bc5 c23d 2d55 5cbd
00000330: 0dcd 69bd 5a6e 5f3b 50f3 60bd 258d 02bd
00000340: 5c4b 1fbe cfa2 e8bc 1074 3e3c 5012 633d
00000350: 0115 813d 931e ec38 2f74 d3bc e149 443d
00000360: 0e2a 1fbd a33d 20be 6bbb 8f3b 8ae0 633d
00000370: 7f7c 6a3c a796 883b 96c3 353e eff3 5a3e
00000380: aeb3 babd 9b09 933d a8f6 5d3d 3117 203c
00000390: e79b 19bd c483 05bd 777b 86bc dcf7 e3bb
000003a0: fffc 86bd dae1 8e3d c741 c7bc a873 85bd
000003b0: 7208 cf3d 2de2 cd3d d863 2e3e a44f db3c
000003c0: a47c 1f3e b5d2 0aba ab6f a5b8 2755 31bc
000003d0: cbda c83c 2181 823d d81e 4a3c 274c 16be
000003e0: 336d 8abc 37d1 c7bb 89c8 343d ebf1 d6bd
000003f0: 4296 f63c 73a6 9f39 fe76 9bbb 4997 11bc

rate_f.2.bias f4 [40]
-0.025225632 0.010803023 0.023903476 -0.0011081892 0.0050576935 0.017204948 -0.0051533342 -0.004526355
-0.006675658 -0.042174116 0.010558041 0.0 0.0038949018 -0.01664413 0.005323548 0.01652555
0.011269128 -0.00090386084 0.028494325 -0.014059576 0.03498067 0.026047142 0.015274014 0.02333155
0.029753873 0.011160413 0.030926079 -0.0028850085 0.011661711 -0.023029802 -0.01923615 0.0037029327
-0.07663754 -0.0062187724 0.014330769 -0.0464599 0.018048866 -0.020298393 0.013350572 0.00013438177
00000000: fca5 cebc 2aff 303c 39d1 c33c a940 91ba
00000010: 02bb a53b 64f1 8c3c 4ddd a8bb d151 94bb
00000020: 7abf dabb c4be 2cbd a2fb 2c3c 0000 0000
00000030: 9c41 7f3b 4559 88bc 2871 ae3b 9760 873c
00000040: 26a2 383c 13f1 6cba ee6c e93c 235a 66bc
00000050: e447 0f3d d160 d53c dc3f 7a3c cf21 bf3c
00000060: 65be f33c 2ada 363c b058 fd3c 6912 3dbb
00000070: c310 3f3c ffa8 bcbc 2195 9dbc e7ac 723b
00000080: 24f4 9cbd d8c6 cbbb 9acb 6a3c bc4c 3ebd
00000090: 37db 933c d148 a6bc 5cbc 5a3c d5e8 0c39

rate_f.4.weight f4 [5, 40]
-0.1644867 -0.10711871 -0.043546565 0.06286451 -0.15250617 0.05476794 0.033849847 -0.02812834
-0.122791015 0.02660608 0.05167043 -3.44862e-05 0.026981426 0.008031592 -0.037502985 -0.0048121857
0.07451871 0.021988677 -0.15895025 0.021782663 -0.008644545 0.051655002 0.0664484 -0.025371157
0.04072124 0.023768274 0.017669179 0.17127702 -0.070108145 -0.09755507 0.10897357 0.040768255
-0.085536614 -0.026402064 0.19238421 -0.023941219 -0.029064063 -0.03309875 0.073196776 0.07011755
0.027351871 -0.025076717 -0.19301687 0.13404816 0.032240693 0.07554965 0.004494693 0.031565823
-0.022241067 -0.010647765 -0.07751054 -5.008715e-07 -0.05189126 0.059412688 0.06937966 0.019577842
0.054424897 0.015580872 -0.075987294 -0.06524534 -0.009654622 0.0076561566 0.026782196 -0.0015221873
-0.090011194 -0.047942568 0.021291066 -0.12864481 -0.034096587 0.042248502 -0.008421406 -0.040672347
-0.009342711 0.20177974 -0.049813095 0.0031389447 0.036227047 -0.025441986 -0.06069037 0.047325835
-0.06511012 -0.04891678 0.029193815 -0.038359832 -0.0068178917 0.04139829 -0.16125867 -0.04398639
-0.013244025 0.10868327 -0.017624784 -0.00017105452 0.032985136 -0.015128852 0.061436977 0.08642775
0.17343362 0.10245707 0.113033876 -0.027306061 0.14204583 -0.08693421 -0.023686888 -0.12977512
-0.11381425 -0.004277103 -0.22411393 -0.050861947 -0.01338669 -0.023234157 -0.018360257 0.05155023
0.1098298 0.12950039 0.030394463 0.03335988 0.036060076 0.060106207 0.09880812 -0.008875568
0.0020981058 0.10526893 -0.031512097 0.015485181 0.017249867 -0.027757067 -0.10718624 -0.044332515
0.017860206 -0.07062001 0.019101687 7.2493697e-07 0.028115116 -0.114848524 -0.05658794 0.062632225
-0.12209482 -0.16598213 0.18632732 -0.011505929 0.007250805 -0.08886427 -0.07179146 0.2569866
0.07374503 -0.017681655 0.13487895 0.010442787 -0.022749884 0.052737005 -0.036132846 0.048761096
0.03244838 -0.14684707 0.17018522 -0.029041618 -0.09804308 0.16033708 -0.19010079 0.019699214
0.066300035 0.053705063 0.0329463 0.0676832 0.00044397524 0.008645806 -0.03281042 -0.10283397
-0.13441297 -0.16551478 0.03009424 1.2527542e-07 0.121619456 0.028873121 0.013101977 -0.007069651
0.08165291 -0.026665457 0.033140168 -0.012557052 -0.058444213 0.0941546 0.122900315 0.10790044
-0.21409704 0.08046834 -0.0075595253 -0.03900255 0.002314883 0.006207025 0.033969585 0.052541543
-0.000695955 0.07379231 -0.08812607 0.0076882304 0.018496 0.053547323 -0.120379165 0.11260287
00000000: 346f 28be 0e61 dbbd e25d 32bd 1cbf 803d
00000010: 942a 1cbe 5954 603d 23a6 0a3d 686d e6bc
00000020: db79 fbbd fef4 d93c 5fa4 533d 46a5 10b8
00000030: 2708 dd3c f096 033c bb9c 19bd 8aaf 9dbb
00000040: 449d 983d 9921 b43c dbc3 22be 8e71 b23c
00000050: daa1 0dbc 3294 533d 1916 883d 2cd7 cfbc
00000060: 51cb 263d afb5 c23c f4be 903c 3e63 2f3e
00000070: dc94 8fbd f4ca c7bd 892d df3d 9dfc 263d
00000080: d22d afbd 2449 d8bc 5e00 453e 6020 c4bc
00000090: c217 eebc 8e92 07bd 31e8 953d ca99 8f3d
000000a0: 0811 e03c b06d cdbc 37a6 45be ec43 093e
000000b0: d10e 043d c6b9 9a3d 3848 933b 2a4b 013d
000000c0: e632 b6bc f773 2ebc d9bd 9ebd a173 06b5
000000d0: ee8b 54bd b85a 733d ec16 8e3d b661 a03c
000000e0: a4ec 5e3d ea46 7f3c 3a9f 9bbd 599f 85bd
000000f0: 6b2e 1ebc 7fe0 fa3b 5666 db3c 2184 c7ba
00000100: ca57 b8bd 6d5f 44bd 9a6a ae3c 77bb 03be
00000110: dda8 0bbd c40c 2d3d f0f9 09bc 0c98 26bd
00000120: 2c12 19bc 599f 4e3e d108 4cbd c1b6 4d3b
00000130: d062 143d b66b d0bc 7796 78bd bcd8 413d
00000140: 7458 85bd f65c 48bd de27 ef3c 331f 1dbd
00000150: 9f68 dfbb 4191 293d fe20 25be 132b 34bd
00000160: 78fd 58bc 5695 de3d da61 90bc 195d 33b9
00000170: 6c1b 073d 01df 77bc 57a5 7b3d 0801 b13d
00000180: 9598 313e 03d5 d13d 4e7e e73d f6b0 dfbc
00000190: 7674 113e 900a b2bd 010b c2bc c5e3 04be
000001a0: 7217 e9bd f126 8cbb 1f7e 65be 9e54 50bd
000001b0: d953 5bbc 8f55 bebc 4068 96bc 5526 533d
000001c0: 72ee e03d c09b 043e cffd f83c 5fa4 083d
000001d0: bbb3 133d ed31 763d e95b ca3d d56a 11bc
000001e0: 6080 093b 3d97 d73d d412 01bd 8eb5 7d3c
000001f0: 984f 8d3c ca62 e3bc 7684 dbbd 0396 35bd
00000200: 914f 923c 39a1 90bd 247b 9c3c 4a99 4235
00000210: ac51 e63c b435 ebbd c1c8 67bd 5345 803d
00000220: d90c fabd 38f7 29be 97cc 3e3e 5d83 3cbc
00000230: 2998 ed3b 78fe b5bd 6707 93bd bf93 833e
00000240: a207 973d 1ed9 90bc b51d 0a3e 3918 2b3c
00000250: f75d babc c202 583d 0900 14bd b7b9 473d
00000260: 98e8 043d 145f 16be 0945 2e3e b0e8 edbc
00000270: cfca c8bd 672f 243e c8a9 42be 3f60 a13c
00000280: 50c8 873d d7f9 5b3d b3f2 063d 7d9d 8a3d
00000290: 59c5 e839 24a7 0d3c 3864 06bd 9e9a d2bd
000002a0: 8ea3 09be b57c 29be 3288 f63c 7283 0634
000002b0: 9f13 f93d 5387 ec3c ada9 563c 88a8 e7bb
000002c0: a439 a73d 8471 dabc fcbd 073d 18bc 4dbc
000002d0: 3363 6fbd 20d4 c03d 29b3 fb3d e8fa dc3d
000002e0: 413c 5bbe 96cc a43d e5b5 f7bb 23c1 1fbd
000002f0: 4bb5 173b 4d64 cb3b b123 0b3d cd35 573d
00000300: c070 36ba 6c20 973d 717b b4bd 8ded fb3b
00000310: ec84 973c 7054 5b3d 5a89 f6bd 559c e63d

rate_f.4.bias f4 [5]
-0.0045398073 0.012443448 0.006253062 -0.012286479 0.0033786872
00000000: aac2 94bb 9bdf 4b3c 7ce6 cc3b 3a4d 49bc
00000010: f76c 5d3b
