output/C_C2_S20_D15.pth (torch, 4459 bytes, 5 tensors)

weight_ih_l0 f4 [96, 3]
0	0xbdc91af1	-0.09819592
1	0x3d79a31a	0.06094656
2	0xbc1293e7	-0.0089463955
3	0xbee0278d	-0.43780175
4	0x3e10c8f6	0.1413916
5	0x3e90bba8	0.2826817
6	0xbb3d1701	-0.0028852823
7	0xb925bd66	-0.00015806183
8	0xb8ab68d8	-8.173444e-05
9	0xbc8126cc	-0.01576557
10	0xbec02fe7	-0.37536547
11	0xbe6a9c72	-0.22911242
12	0xbdeee988	-0.11665636
13	0xbe5d5563	-0.21614604
14	0xbd73a884	-0.05948688
15	0x3e8e6fdc	0.27819717
16	0x3bc3642c	0.005962869
17	0x3b7d6c39	0.0038669242
18	0xbd2c25a2	-0.042028077
19	0xbe91853a	-0.28421956
20	0xbed41a1a	-0.41426164
21	0xbd25509e	-0.040360086
22	0xbaf30d50	-0.0018543396
23	0xb9b9e69d	-0.0003545777
24	0x3e139d28	0.14415419
25	0xbdc8312c	-0.09775004
26	0xbdd65c27	-0.104667954
27	0xbcaf69d5	-0.02141277
28	0xbac83327	-0.0015274034
29	0xb9c87380	-0.00038233027
30	0xbf0fbb63	-0.56145304
31	0xbee3d49d	-0.4449815
32	0xbe915a95	-0.2838942
33	0xbd52a177	-0.051423516
34	0xbb749377	-0.0037319341
35	0xba9a0787	-0.0011751511
36	0xbd226d41	-0.039654974
37	0xbb11226b	-0.002214576
38	0xba92396c	-0.0011156029
39	0xbd06adef	-0.03288072
40	0xbb0f7ab4	-0.0021893205
41	0xba3aaa9c	-0.00071207597
42	0x3dcdffd3	0.1005856
43	0x3e25a04c	0.1617443
44	0xbd4044de	-0.046940677
45	0xbe928936	-0.2862031
46	0xbeea5314	-0.4576651
47	0xbd4e8062	-0.050415404
48	0x3cadcab2	0.021214817
49	0xbcfc0aec	-0.030766927
50	0xbcc635da	-0.0241956
51	0x3eab0a65	0.33406368
52	0xbd789d1e	-0.060696714
53	0x3e2171e8	0.15766108
54	0x3a87f0e1	0.001037147
55	0xbe9ece24	-0.31016648
56	0xbd5a24cb	-0.053257745
57	0xbe8a9763	-0.27068624
58	0x3d8b6342	0.06806041
59	0x3ca5b98b	0.020230075
60	0xbd2fe26d	-0.042940546
61	0xbb613632	-0.0034364578
62	0xbafb595c	-0.0019176411
63	0x3e11ab0a	0.14225402
64	0x3e063319	0.1310543
65	0x3d706c6b	0.058697145
66	0xbd1e7f3e	-0.038695566
67	0xbee8be48	-0.45457673
68	0xbd35e600	-0.0444088
69	0xbda74987	-0.08168321
70	0xbcc6ac98	-0.024252221
71	0xbd11beff	-0.03558254
72	0xbd8f6605	-0.070018806
73	0xbcb9ccab	-0.022680601
74	0x3c1d187a	0.009588355
75	0x3eafc780	0.34331894
76	0x3ec31769	0.38103798
77	0x3ed702a4	0.41994202
78	0xbb5c8e20	-0.003365405
79	0xb9768ee9	-0.00023513626
80	0xb8f46204	-0.000116530835
81	0x3e2b129d	0.16706319
82	0x3f210d1a	0.62910616
83	0x3eac23f3	0.33621177
84	0x3d406ba3	0.04697765
85	0x3d9440e1	0.07238937
86	0x3e40d27a	0.1883029
87	0xbe94198b	-0.28925738
88	0xbd0d8213	-0.034547877
89	0x3ae3b92b	0.001737391
90	0x3f22e632	0.636325
91	0xbf805a66	-1.0027587
92	0x3f2a3e60	0.66501427
93	0xbbf3a8c7	-0.0074358913
94	0xb996a6dc	-0.0002873455
95	0xb7a80b39	-2.0032387e-05
96	0x3e90b552	0.28263336
97	0xbda6bbcf	-0.081412904
98	0xbd87432f	-0.06604611
99	0xbbefc44a	-0.0073171007
100	0xba039b08	-0.0005020355
101	0xb91b49dc	-0.00014809467
102	0xbe1185d0	-0.14211202
103	0xbe0f3ec6	-0.1398879
104	0x3e0be0a4	0.13659912
105	0xbc27be67	-0.010238267
106	0xba9e9759	-0.0012099548
107	0x3897d848	7.2405266e-05
108	0xbc9a8292	-0.018861089
109	0xba9b5136	-0.0011849764
110	0xba20b8b8	-0.0006131041
111	0xbc66acd0	-0.014079288
112	0xba24876f	-0.00062762847
113	0xb970b0f3	-0.00022954102
114	0x3e848335	0.25881353
115	0x3ec65246	0.38734645
116	0x3daa7ec6	0.08324961
117	0x3f189beb	0.5961291
118	0x3eaa6df4	0.33287013
119	0x3f30a5c6	0.6900295
120	0x3e6817e0	0.22665358
121	0x3cf58674	0.029971339
122	0x3d202b34	0.0391037
123	0x3f12a80e	0.5728768
124	0xbd5e67f5	-0.05429836
125	0x3f089ca9	0.53364044
126	0x3ed77ef1	0.42089036
127	0x3e463be5	0.19358785
128	0x3e168aa9	0.14701332
129	0x3e84cf40	0.2593937
130	0x3f3b3dd0	0.73141193
131	0x3f7e8f78	0.99437666
132	0xbca63e9a	-0.020293523
133	0xbab175b2	-0.0013539104
134	0xba48b7fc	-0.00076568103
135	0x3e20e283	0.15711407
136	0x3dc0b101	0.09408761
137	0x3dda2aa4	0.10652664
138	0x3f38fc43	0.7225992
139	0x3ef6c5fe	0.4819793
140	0x3f284818	0.65735006
141	0x3ebd0e68	0.36925054
142	0x3e85c7c1	0.26128963
143	0x3de3707a	0.111054376
144	0x3dec4043	0.115356945
145	0xbe3a1be8	-0.18174708
146	0x3d212a69	0.039347086
147	0x3e2950a4	0.16534668
148	0xbec9c2ef	-0.39406535
149	0xbeb9399f	-0.36176774
150	0xb6418be2	-2.8840664e-06
151	0xb9a4e291	-0.00031449323
152	0x3a60278c	0.0008550815
153	0x3dc0c0f1	0.09411801
154	0xbf297b89	-0.66204125
155	0xbe33ee2c	-0.17571324
156	0xbe8450e5	-0.25842968
157	0x3dc26eb3	0.094937705
158	0x3e38b7cf	0.18038867
159	0xbeab21f2	-0.33424336
160	0xbdb01c15	-0.08599106
161	0x3d92b8f1	0.07164181
162	0x3e3c1f38	0.18371284
163	0x3d9535b6	0.07285635
164	0x3f1afdc3	0.6054346
165	0x3ae2a65a	0.0017292008
166	0xba5810eb	-0.0008242267
167	0x3bd43c98	0.00647695
168	0x3e2ae347	0.16688262
169	0xbebec3ce	-0.37258762
170	0xbdad8a94	-0.08473697
171	0x3b0e8fd5	0.002175321
172	0xbbb38ba8	-0.005479295
173	0x3bd8ba6b	0.0066140196
174	0x3efea092	0.4973188
175	0xbdbfef40	-0.09371805
176	0xbcc86475	-0.024461964
177	0x3b86f7db	0.004118902
178	0xbc70018c	-0.014648806
179	0x3cd8a3b3	0.026445245
180	0x3ab9ca36	0.0014174643
181	0xba52712f	-0.000802773
182	0xbac4bc9a	-0.0015009821
183	0x3a692669	0.0008893968
184	0xbb39271b	-0.0028252068
185	0x3c457b2a	0.01205329
186	0xbdb43cd3	-0.08800664
187	0x3d1fad2f	0.03898352
188	0x3d9475eb	0.072490536
189	0x3e7ff09d	0.2499413
190	0xbe0e4fe3	-0.13897662
191	0x3e15e862	0.14639428
192	0xbd96a6c7	-0.07356029
193	0xbe84980e	-0.2589726
194	0x3e5cd5f9	0.21565999
195	0x3e12f740	0.14352131
196	0xbec47417	-0.3836982
197	0x3c23cd71	0.0099977115
198	0xbe7a5930	-0.24448085
199	0x3e858c0d	0.26083413
200	0xbd9da838	-0.07698101
201	0xbd737504	-0.059437767
202	0xbed41fb9	-0.41430452
203	0xbe92832c	-0.286157
204	0xb97c0490	-0.00024034292
205	0xbaa95749	-0.001291969
206	0xbb70d523	-0.0036748133
207	0x3e58caad	0.21171065
208	0x3e553493	0.20820837
209	0xbda651ed	-0.08121095
210	0x3e56ab06	0.20963678
211	0xbe3b30e2	-0.18280366
212	0xbca23bc7	-0.019803895
213	0x3aee233b	0.0018168458
214	0x3da4f1ea	0.08053954
215	0xbdc1e4bc	-0.09467456
216	0xbe92fd9c	-0.28709114
217	0x3d96a4f6	0.073556826
218	0x3c51b97f	0.012800573
219	0xbe54d678	-0.20784938
220	0xbeb4dda0	-0.35325336
221	0xbdf1c34e	-0.118048295
222	0xbd1910a0	-0.03736937
223	0xbaa25361	-0.0012384468
224	0xb9c16ac8	-0.00036891387
225	0xbd930615	-0.071788944
226	0x3e003ad2	0.12522438
227	0xbea7a493	-0.32742748
228	0x3e970669	0.29497078
229	0x3e5ec99f	0.217566
230	0x3eb4aaca	0.35286552
231	0xbe55c5f0	-0.20876288
232	0x3e2cc948	0.16873658
233	0xbde4c2a0	-0.11169934
234	0x3e554045	0.20825298
235	0x3e8f21d2	0.2795549
236	0xbea313f4	-0.3185116
237	0xbd22826a	-0.039675154
238	0xbad3e5f6	-0.0016166556
239	0xb99486af	-0.00028329107
240	0xbec416e0	-0.38298702
241	0x3e843195	0.25819078
242	0xbd576e73	-0.052595567
243	0xbca28525	-0.019838879
244	0xbac950f0	-0.0015359204
245	0xb9ccae8d	-0.00039039963
246	0xbd6eb2bf	-0.058275934
247	0x3e084b78	0.13310039
248	0x3f010786	0.50402105
249	0xbd82a761	-0.06379581
250	0xbb833311	-0.0040038903
251	0xba940c85	-0.0011295235
252	0xbcfef7b8	-0.03112398
253	0xbb070a04	-0.0020605335
254	0xba8a7b66	-0.001056534
255	0xbcb8666f	-0.022509782

weight_hh_l0 f4 [96, 3]
0	0x3d85f28d	0.065404035
1	0x3ca85a71	0.020550938
2	0x3cb68148	0.022278443
3	0x3d5da3e9	0.054111395
4	0x3e1d06ad	0.15334578
5	0x3e344925	0.17606027
6	0xb8a2e752	-7.767849e-05
7	0xb904f67b	-0.00012680322
8	0xb8ba01ea	-8.869528e-05
9	0xbdb8607e	-0.090027794
10	0xbe4324c4	-0.19056994
11	0x3e05ecfb	0.13078682
12	0xbe8024f3	-0.2502819
13	0xbe29d4f7	-0.16585146
14	0xbddad0da	-0.106843665
15	0xbe4bf240	-0.1991663
16	0xbe382312	-0.17982128
17	0xbe2bd826	-0.16781673
18	0x3d4ecc3f	0.050487753
19	0xbc98ac44	-0.01863683
20	0xbdd2bc2a	-0.10289796
21	0xbb0c4575	-0.0021403704
22	0xbb1d27ed	-0.0023980096
23	0xbad38a33	-0.0016139209
24	0xbd5fe7ac	-0.0546643
25	0xbd51b642	-0.051199205
26	0xbd0db21e	-0.034593694
27	0xba944432	-0.0011311828
28	0xbab5e7da	-0.0013878301
29	0xba9630e1	-0.0011458659
30	0xbe215492	-0.15754917
31	0xbe497d0d	-0.1967661
32	0xbdf94f6d	-0.121733524
33	0xbb54d789	-0.0032477102
34	0xbb677044	-0.0035314718
35	0xbb581dd6	-0.0032976768
36	0xbb49716f	-0.0030737778
37	0xbb43c7ae	-0.0029873657
38	0xbb404f59	-0.002934417
39	0xbb0abd9c	-0.0021170145
40	0xbb34d24b	-0.0027591165
41	0xbb12c06e	-0.002239253
42	0xbc9d9671	-0.019236775
43	0x3d03e9c2	0.03220535
44	0x3c8465e2	0.016161863
45	0xbe9b5f0e	-0.30345958
46	0xbe76b36f	-0.24091886
47	0xbe44032f	-0.1914184
48	0xbc3876fd	-0.011258838
49	0xbd88bae8	-0.066762745
50	0xbd909d8e	-0.07061301
51	0xbd8ebd4d	-0.069697
52	0xbd8ffe74	-0.07030955
53	0xbe072eb7	-0.13201414
54	0x3b38eacb	0.002821612
55	0x3daf5ac8	0.08562237
56	0xbc537c9e	-0.012908129
57	0xbe5115ca	-0.20418468
58	0xbdd77736	-0.105207846
59	0xbdd4ae4e	-0.103848085
60	0xbb85cbf2	-0.00408315
61	0xbb7a7f65	-0.0038222906
62	0xbb85ed9f	-0.0040871645
63	0x3c4decbd	0.01256865
64	0x3d39e9c6	0.04538896
65	0x3d34ac2b	0.044109505
66	0x3b0cb570	0.002147045
67	0xbd0b72d4	-0.034045056
68	0x3d5153c9	0.051105294
69	0xbb6ce5fd	-0.0036147826
70	0x3d023273	0.031786393
71	0x3c53cc6c	0.012927156
72	0x3d4e28a9	0.050331745
73	0x3bd34905	0.0064479136
74	0x3c07711b	0.008266713
75	0x3d817634	0.063213736
76	0x3e9b8a8d	0.30379143
77	0x3ea6d056	0.32580823
78	0xb88ec024	-6.8068766e-05
79	0xb92f1db5	-0.00016700367
80	0xb8aad6bc	-8.146229e-05
81	0x3f09c1e1	0.5381146
82	0x3ef49a41	0.47773936
83	0x3f0ba31c	0.5454576
84	0x3de153e1	0.11002327
85	0x3e85b96f	0.26118037
86	0x3cd15973	0.025555348
87	0xbdccffb7	-0.10009711
88	0xbde086ad	-0.10963187
89	0xbde3829a	-0.11108895
90	0x3e60832f	0.21925043
91	0x3f1ac8a2	0.6046239
92	0x3f3084a3	0.6895239
93	0xb97d0a77	-0.00024131859
94	0xb95d13fd	-0.00021083649
95	0xb9453d84	-0.000188103
96	0xbc8ac290	-0.016938478
97	0x3cb57970	0.022152632
98	0x3d37e8bc	0.044899687
99	0xb9ed0429	-0.00045207262
100	0xba18f9f3	-0.0005835585
101	0xb9ee934b	-0.0004550464
102	0xbd1b8164	-0.037965193
103	0x3d9bafd9	0.076019
104	0x3da95ca1	0.08269621
105	0xba2581ad	-0.00063135737
106	0xba065edf	-0.0005125831
107	0xb9c9f96c	-0.0003852354
108	0xbad92d06	-0.0016569204
109	0xbacccebe	-0.0015625579
110	0xbadc6611	-0.0016815086
111	0xba59b6d1	-0.0008305135
112	0xba9ba04e	-0.0011873336
113	0xba5c0437	-0.0008392962
114	0xbc835ab5	-0.016034463
115	0x3d456d09	0.048199687
116	0x3e41b97d	0.18918414
117	0x3ec69c74	0.3879124
118	0x3eb0284b	0.3440574
119	0x3eaa139a	0.3321808
120	0x3dab693d	0.08369682
121	0xbca07db0	-0.019591182
122	0xbce24b1f	-0.027623711
123	0xbd77cbda	-0.060497142
124	0x3dbb5e44	0.09148839
125	0x3e99cb80	0.3003807
126	0xbd2c1757	-0.042014446
127	0x3d6aed6f	0.05735534
128	0x3dd30306	0.10303311
129	0x3e7368ca	0.23770443
130	0x3e0a44a0	0.13502741
131	0x3d1c7e76	0.03820654
132	0xbad0feb1	-0.0015945045
133	0xbab6f761	-0.0013959223
134	0xbad1e229	-0.0016012836
135	0x3cbb94ae	0.022898044
136	0x3dc663f4	0.09687033
137	0x3df830a7	0.12118655
138	0x3eec3db0	0.46140814
139	0x3e8c6715	0.27422395
140	0x3ebd2032	0.36938626
141	0x3db0319c	0.08603212
142	0x3e13e4ba	0.14442721
143	0x3dcdcd6d	0.100489475
144	0xbb11c44a	-0.0022242242
145	0x3d101fc3	0.03518654
146	0x3d93eb13	0.07222571
147	0x3e402c41	0.18766882
148	0xbdfe4bd7	-0.12416809
149	0xbe402708	-0.18764889
150	0x399e953d	0.000302473
151	0x3b2c1ef2	0.0026263562
152	0xbb4d8488	-0.0031359512
153	0xbd98792f	-0.07444989
154	0x3dc2c0fe	0.095094666
155	0x3e3b6ed8	0.18304002
156	0x3f0d8219	0.5527664
157	0xbda7e336	-0.08197634
158	0x3e4506a4	0.19240814
159	0x3e00ac14	0.12565643
160	0x3e93ac0d	0.28842202
161	0x3e914b11	0.28377584
162	0xbecf8ca5	-0.4053699
163	0x3b2f043f	0.0026705412
164	0xbebedcba	-0.37277776
165	0x3bcdff6d	0.0062865526
166	0xbb86e147	-0.0041162106
167	0xbcd7e71f	-0.026355324
168	0x3dab6d99	0.083705135
169	0x3dc22d16	0.09481256
170	0x3e24bd48	0.1608783
171	0xbbf24c3a	-0.007394341
172	0x3c8cddd6	0.017195623
173	0xbcc35caf	-0.023847906
174	0xbdc6e910	-0.09712422
175	0xbe3e7dc5	-0.18602665
176	0xbe08beda	-0.13354054
177	0xbcb6a734	-0.022296526
178	0x3bfa6a50	0.007642068
179	0x3ca75143	0.02042449
180	0xbbf7f50a	-0.0075670527
181	0xbb44dd70	-0.0030039214
182	0x3b9aea39	0.0047276285
183	0x3b852974	0.0040637795
184	0xb9ed522e	-0.0004526539
185	0xbc62495e	-0.013811437
186	0xbd8a0161	-0.06738544
187	0xbde9e35b	-0.11420318
188	0xbe75c77b	-0.24001877
189	0x3e996880	0.2996254
190	0x3cf70ef7	0.030158503
191	0xbd63b01c	-0.055587873
192	0x3c1d7182	0.009609582
193	0xbcb4abb2	-0.022054527
194	0x3c81cda8	0.015845135
195	0x3eab3d6f	0.33445308
196	0x3eab630e	0.3347401
197	0x3cf8006f	0.030273644
198	0xbcc9fadf	-0.024655757
199	0xbd0febfe	-0.03513717
200	0x3ddf37ca	0.10899313
201	0x3e130b06	0.14359674
202	0x3de1dd57	0.11028545
203	0x3dfb7b5e	0.1227939
204	0x3b1ee123	0.0024243079
205	0xbb81f14b	-0.003965532
206	0x39f4c925	0.0004668917
207	0xbef1ae74	-0.4720341
208	0xbef20f5c	-0.47277343
209	0xbec28a2f	-0.3799605
210	0x3ea25d16	0.31711644
211	0x3e352c0f	0.17692588
212	0x3e064db1	0.13115574
213	0xbbb31ac0	-0.0054658353
214	0x3e15447d	0.14576907
215	0x3e11e123	0.14246039
216	0x3d2623ca	0.040561475
217	0xbbab688e	-0.0052309697
218	0xbb72147e	-0.0036938484
219	0x3d87c690	0.0662967
220	0xbe36fb7c	-0.17869371
221	0x3c89ae26	0.016806673
222	0xb90e392e	-0.00013563476
223	0xba0412ce	-0.00050382025
224	0xb93a104f	-0.00017744418
225	0x3ea34300	0.31887054
226	0x3e974e07	0.29551718
227	0x3ea0ddbe	0.31419176
228	0x3dfd569c	0.12370035
229	0x3e225827	0.1585394
230	0x3ddda2e2	0.10822083
231	0xbeebe8b4	-0.46075976
232	0xbee5cc9a	-0.4488266
233	0xbed1d905	-0.40985885
234	0x3e5772ca	0.21039882
235	0x3e59dcaa	0.21275583
236	0x3e34c75b	0.17654173
237	0xba8c6dce	-0.0010713877
238	0xbaa5ddd8	-0.0012654616
239	0xba87d7cc	-0.0010363995
240	0xbe46d779	-0.19418134
241	0xbddf2822	-0.108963266
242	0x3d031d69	0.03201047
243	0xba8e8a53	-0.0010874964
244	0xbab26989	-0.0013611774
245	0xba920b01	-0.0011142195
246	0x3c5388f0	0.012911066
247	0x3d6fcf94	0.05854757
248	0x3da9b40b	0.082862936
249	0xbb638b99	-0.0034720658
250	0xbb790619	-0.003799802
251	0xbb64c5dd	-0.0034907975
252	0xbb39678e	-0.0028290483
253	0xbb30410b	-0.0026894237
254	0xbb32c316	-0.0027276925
255	0xbad0d1d2	-0.0015931672

bias_ih_l0 f4 [96]
0	0x3caf0eba	0.021369327
1	0x3dbf28b3	0.09333935
2	0xb93b547e	-0.00017865186
3	0xbf0974e2	-0.53693974
4	0xbdfd2c77	-0.123619966
5	0x3bbc8688	0.005753342
6	0xbf1a9e26	-0.60397565
7	0xbaccb6d3	-0.0015618451
8	0xbd96c110	-0.073610425
9	0xba9a78f1	-0.0011785311
10	0xbcc2fed4	-0.023803152
11	0xbb96fa0c	-0.0046074446
12	0xbb388158	-0.0028153267
13	0xbb1a5ba3	-0.0023553155
14	0xbdd40d39	-0.103540845
15	0xbed13f36	-0.4086854
16	0x3bcf539d	0.006327106
17	0xbe1f871e	-0.15578887
18	0xbe1f808c	-0.1557638
19	0xbec26d7f	-0.37974164
20	0xbb8e7d28	-0.004348416
21	0x3e554c50	0.20829892
22	0xbf0f99df	-0.56094164
23	0xbe2148d9	-0.15750445
24	0xbcb8596e	-0.02250358
25	0x3ec69804	0.38787854
26	0xb98a2f04	-0.0002635644
27	0x3e50d9f3	0.20395641
28	0x3ef13ea4	0.47118104
29	0xbd46beac	-0.048521683
30	0x3d4e2a56	0.050333343
31	0xb9c030f8	-0.00036657578
32	0x3cc77ea3	0.024352377
33	0xba034c4d	-0.0005008623
34	0x3f13485d	0.5753229
35	0xbac00778	-0.0014650663
36	0xbac44401	-0.001497388
37	0xba668673	-0.0008793838
38	0x3d1e10af	0.03859013
39	0x3f0288db	0.50990075
40	0x3deeac7a	0.11653991
41	0xbcba4924	-0.022739954
42	0x3ea124ec	0.31473482
43	0x3eccddcc	0.40012968
44	0xbad498d8	-0.0016219867
45	0x3eb10baa	0.3457921
46	0x3ec6a651	0.38798764
47	0x3dd92282	0.10602285
48	0xbde15091	-0.11001695
49	0xbe9223de	-0.2854299
50	0xbabca34e	-0.001439193
51	0xbe449daf	-0.19200777
52	0x3dbef186	0.09323411
53	0x3d39403c	0.045227274
54	0xbebeb1b4	-0.37244952
55	0x3c0bc20e	0.008530153
56	0x3d15dc96	0.03658732
57	0x3b9d9195	0.0048086145
58	0xbdeeeb98	-0.1166603
59	0xbca6a9ac	-0.020344578
60	0xbb64ef2e	-0.0034932601
61	0x3c94f483	0.018182999
62	0x3c9efb05	0.019406805
63	0xbe1c1ba4	-0.15244919
64	0x3e14ec2c	0.14543217
65	0xbe8a3aa7	-0.26997873
66	0xbe0a4dd4	-0.13506252
67	0x3ebb8d5e	0.36631292
68	0x3b81962a	0.0039546685
69	0xbe82fe8e	-0.25584835
70	0xbda2ecbf	-0.07955312
71	0x3df5d5dd	0.12003682
72	0x3bb3d9f1	0.005488627
73	0x3e1d1d3d	0.15343185
74	0xba609a4c	-0.0008567914
75	0xbe082fc9	-0.13299479
76	0xbca7acb2	-0.02046809
77	0xbd492cc3	-0.049114954
78	0xbe303af0	-0.17209983
79	0xbac69d36	-0.0015153054
80	0xbd6091df	-0.054826614
81	0xba955d0f	-0.0011395531
82	0x3e24c900	0.160923
83	0xbb9b7be4	-0.0047449935
84	0xbb28d29d	-0.00257603
85	0xbaf072d7	-0.0018344772
86	0xbdbf55c0	-0.093425274
87	0x3e9c25c2	0.30497557
88	0xbc9db5eb	-0.019251784
89	0x3cd1a30d	0.025590444
90	0x3c361b10	0.011114851
91	0xbe038e4f	-0.12847255
92	0xbb9c2c8b	-0.004766052
93	0x3e841d15	0.25803438
94	0x3e490584	0.1963101
95	0xbde960a0	-0.11395383

bias_hh_l0 f4 [96]
0	0x3caed655	0.021342436
1	0x3e14fe95	0.1455024
2	0xb93b803c	-0.00017881481
3	0xbf22b300	-0.6355438
4	0xbda77091	-0.08175767
5	0x3bafe1c4	0.0053674895
6	0xbf1cfaf2	-0.6132041
7	0xbb2d415a	-0.0026436658
8	0xbd8a2f11	-0.067472585
9	0xba9a3ce8	-0.0011767419
10	0xbcf54a04	-0.02994252
11	0xbb98a868	-0.0046587475
12	0xbb3895ba	-0.0028165416
13	0xbb19a344	-0.002344326
14	0xbdc5d283	-0.096592925
15	0xbeb200d1	-0.34766248
16	0x3bcf50ce	0.0063267713
17	0xbe1197ed	-0.14218111
18	0xbda58233	-0.08081474
19	0xbf1c7bbc	-0.61126304
20	0xbb8e7d4f	-0.004348434
21	0x3e4eac81	0.20182993
22	0xbf01c461	-0.50690275
23	0xbdb459fb	-0.08806225
24	0xbcb87155	-0.022514978
25	0x3edbc3c1	0.42922786
26	0xb98ada60	-0.00026484113
27	0x3e5f2b37	0.21793829
28	0x3ed60fde	0.4180898
29	0xbd46bfbb	-0.048522692
30	0x3e042cca	0.1290771
31	0xb9c3fe28	-0.0003738266
32	0x3d27074f	0.040778454
33	0xba031876	-0.00050008984
34	0x3f14ac89	0.5807577
35	0xbabff60b	-0.001464547
36	0xbac45ee7	-0.0014981896
37	0xba66dcec	-0.00088067236
38	0x3d0f1844	0.03493525
39	0x3eea0260	0.45704937
40	0x3deeafb2	0.11654605
41	0x3d53fb04	0.05175306
42	0x3e91036a	0.28322917
43	0x3eb2fe46	0.3495962
44	0xbad48b42	-0.0016215818
45	0x3ea65c39	0.32492235
46	0x3ef5f589	0.4803889
47	0x3e1adf20	0.15124178
48	0xbe163946	-0.14670286
49	0xbe5f76ab	-0.21822612
50	0x3ab7641f	0.001399163
51	0x3e0c35c4	0.13692385
52	0x3d05fc3f	0.032711264
53	0x3e2af990	0.16696763
54	0xbd0c0d53	-0.034192394
55	0x3be032b2	0.006841981
56	0x3d91b221	0.071140535
57	0x3b1ff0b0	0.0024404936
58	0xbea372bc	-0.31923473
59	0xbb352111	-0.0027638117
60	0x3bc6416c	0.0060502794
61	0xbc838258	-0.016053364
62	0xbc261555	-0.010136922
63	0xbe18e946	-0.14932737
64	0x3e415960	0.1888175
65	0xbd8a5e87	-0.06756311
66	0xbe399028	-0.18121397
67	0x3cb81432	0.022470567
68	0x3acf877d	0.0015833225
69	0xbea44103	-0.3208085
70	0xbdb5099d	-0.08839724
71	0x3dd2682c	0.102737755
72	0x3bb4e658	0.005520623
73	0xb9ebedac	-0.00044999772
74	0xba6b63c4	-0.0008979405
75	0x3d8f118a	0.06985767
76	0xbd047440	-0.032337427
77	0xbd2a8632	-0.041631885
78	0xbdaeae15	-0.08529297
79	0xbab9eab7	-0.001418433
80	0xbd2bd677	-0.041952576
81	0xba95b130	-0.0011420604
82	0x3e3fad8a	0.18718544
83	0xbb9e3d80	-0.0048291087
84	0xbb28d1b0	-0.002575975
85	0xbaf081ea	-0.0018349264
86	0xbe23ae56	-0.15984473
87	0x3d4dac21	0.050212983
88	0xbc9cb161	-0.01912755
89	0x3de1c6e3	0.11024263
90	0x3dd5d491	0.104409344
91	0xbe68adfb	-0.22722618
92	0xbb9c15a8	-0.004763324
93	0x3d5456e6	0.051840685
94	0x3e851c00	0.25997925
95	0xb9c82d04	-0.00038180512

weight_hr_l0 f4 [3, 24]
0	0xbc347266	-0.011013603
1	0xbe653fba	-0.22387591
2	0x3884febd	6.341699e-05
3	0xbcaf23d4	-0.021379389
4	0xbf19873d	-0.5997198
5	0x3ee7e401	0.4529114
6	0x3dcf4ef8	0.10122484
7	0x3aec3ff5	0.0018024432
8	0x3e9e95a6	0.30973548
9	0x3adc2b34	0.0016797544
10	0x3eae9c09	0.3410342
11	0x3abcdb81	0.0014408679
12	0x3848a1a3	4.783425e-05
13	0x3abf5531	0.0014597533
14	0xbe1296e0	-0.14315367
15	0x3e320bfc	0.17387384
16	0x3d74dda9	0.059781704
17	0x3c6752f5	0.0141189
18	0xbeb72a15	-0.35774294
19	0xbe595e6d	-0.21227427
20	0x39805c86	0.00024482998
21	0xbee389ed	-0.44441167
22	0x3ec21dcc	0.37913358
23	0x3e14df28	0.14538252
24	0x3cd29f1f	0.02571064
25	0xbe84650b	-0.2585834
26	0xb6170b95	-2.2507495e-06
27	0xbe8f9c8e	-0.2804913
28	0x3dc27f4c	0.09496936
29	0x3ad62e8e	0.0016340779
30	0x3eb7e7b5	0.35918966
31	0xba196585	-0.00058516144
32	0xbd014cca	-0.031567372
33	0xb836f4a4	-4.362002e-05
34	0xbefe0512	-0.49613243
35	0x3b08bf8f	0.002086613
36	0x389c1caa	7.443999e-05
37	0xb85aa530	-5.2129093e-05
38	0xbe41aee3	-0.1891437
39	0x3e8c5ef2	0.27416188
40	0x3b2a569e	0.002599157
41	0x3e688e41	0.22710516
42	0xbe17a09b	-0.1480736
43	0xbe924bdf	-0.2857351
44	0xb94af0b2	-0.00019353887
45	0xbe3b84cb	-0.18312375
46	0x3e884d65	0.26621547
47	0x3e4b5ac4	0.19858843
48	0xbe58fbd2	-0.21189812
49	0xbeae70a8	-0.34070325
50	0x38a8c46c	8.047451e-05
51	0xbeaee2f3	-0.34157524
52	0x3e0cd27c	0.13752168
53	0xbe778d9b	-0.24175112
54	0x3ed1c3ea	0.40969783
55	0x3afc72fd	0.0019260343
56	0xbb073247	-0.0020629333
57	0x3ae278a5	0.0017278387
58	0xbec93f0c	-0.39305913
59	0x3a705a98	0.0009168773
60	0xb86b430e	-5.6090816e-05
61	0x3afedddc	0.0019444781
62	0x3dbb2a8d	0.09138975
63	0x3e983570	0.2972827
64	0x3e57cba0	0.2107377
65	0x3e92f424	0.2870189
66	0xbdadedea	-0.08492644
67	0xbe90b72a	-0.28264743
68	0x391b5b79	0.00014816028
69	0xbe7d0254	-0.2470792
70	0x3ea55daf	0.32298037
71	0x3bdb4fb1	0.0066928496
