output/C_C_S20_D10.pth (torch, 4459 bytes, 5 tensors)

weight_ih_l0 f4 [96, 3]
000000 03 e7 45 3e be 9e c5 3d b6 96 be 3b cf cb 0a bf
       0.19326405 0.09649418 0.005816306 -0.5421724
000010 88 81 09 bf bb 64 26 be 4d 3e c3 be 5a d2 95 bd
       -0.53713274 -0.16249363 -0.3813347 -0.07315512
000020 ad 1b 04 3d 06 53 14 be 9f 83 fc bd bf d1 c2 3c
       0.032252956 -0.14484796 -0.12329792 0.023781655
000030 11 7c 63 be 57 c4 c4 be a2 99 b6 be 91 96 90 bb
       -0.22215296 -0.38431045 -0.35664088 -0.00441248
000040 82 08 1b ba 8e 42 81 b9 c7 b4 b2 bc 39 10 66 3b
       -0.00059140485 -0.00024654384 -0.021814717 0.0035104884
000050 ca bd 83 3b 4a 72 67 be f5 ff b3 bd 80 07 07 bd
       0.0040204274 -0.22602192 -0.08789054 -0.032966137
000060 c2 25 a2 bc d8 f2 4f bb 68 6c a9 ba 04 bc a9 3e
       -0.019793395 -0.003173044 -0.0012925984 0.33151257
000070 5e a6 1d 3e 02 e5 01 3d 9e 49 97 bd 0f 0e 73 3d
       0.15395495 0.03171254 -0.07387088 0.05933958
000080 00 1d b2 bd 22 e3 55 be c8 47 c9 bd bd 9b 48 bd
       -0.086969376 -0.20887426 -0.09828144 -0.04897665
000090 cb 16 fb 3d df 63 32 3d 37 f6 90 bb 6c b9 56 3d
       0.12260207 0.043552276 -0.0044238823 0.052422926
0000a0 0e 24 a3 3c 94 88 89 3d 53 76 8a 3e 2f c1 18 3e
       0.019914653 0.06715503 0.270434 0.14917444
0000b0 a6 b1 77 3d 8a df 97 be a4 42 b7 be ef b9 69 3e
       0.060472153 -0.29662734 -0.3579303 0.22824834
0000c0 30 1e 2d be 1e 5e 93 bd ec 31 22 bc b5 c7 0c be
       -0.16906047 -0.07195686 -0.009899598 -0.13748057
0000d0 dd 50 7f 3e ec c7 2d 3e da 2b 14 be 32 93 e0 bd
       0.2493319 0.16970795 -0.14469853 -0.10965575
0000e0 79 e6 da 3e 52 bd 0f bf 2e 63 f1 be ba 49 f5 bc
       0.42753962 -0.56148255 -0.4714598 -0.029942382
0000f0 52 6d b7 be 2d 29 0d bd 3d c1 75 be b4 69 c9 bd
       -0.35825592 -0.034463096 -0.23999496 -0.098346144
000100 2b fa e9 bd 6d 5f 39 bf bc ef c8 be d8 4c 16 bf
       -0.11424669 -0.72411233 -0.39245403 -0.58711004
000110 f0 85 27 3e e2 1b 4a be d9 00 43 bd 6b 34 e9 bc
       0.16359687 -0.19737199 -0.04760823 -0.028467378
000120 b2 25 87 3e c0 04 8d 3e 57 93 39 3d ae eb 1f 3f
       0.26395947 0.27542686 0.04530653 0.62468994
000130 ba e4 c1 3e 21 0b 44 3e b7 17 3a 3d 1b ed c6 3b
       0.37869817 0.1914487 0.045432772 0.0060707456
000140 4e d0 77 bd 4d 61 a0 3e ba 0c 50 3e 2e 78 1d 3e
       -0.06050139 0.31324235 0.20317355 0.15377876
000150 3d 74 33 3f 81 96 e9 3e 00 98 f4 3e bf cd 8a bb
       0.7009924 0.45622638 0.47772217 -0.0042359526
000160 da 7f 32 ba da b7 a4 b9 94 a8 7d bd 7e ed 22 bc
       -0.00068092125 -0.00031417498 -0.061928347 -0.009944318
000170 85 e3 98 bb f5 b6 e8 bd 0f 79 20 bd cd 90 39 bc
       -0.0046657943 -0.11363021 -0.03917795 -0.011326027
000180 96 fe ac bc 19 24 a6 bb bd 17 06 bb 9d c4 99 3e
       -0.02111749 -0.005070221 -0.0020460926 0.30032817
000190 72 3a 1e 3e 53 13 00 3d d2 c6 85 be 16 a6 91 bd
       0.15451983 0.03126843 -0.2612825 -0.071117565
0001a0 34 a6 70 bc 1a 49 e9 bd a7 10 1b bd fb ac 76 bc
       -0.014688063 -0.11390896 -0.037857678 -0.01505589
0001b0 b2 2f e7 3e df db 79 3e 66 51 81 3e 3c 68 ca 3e
       0.45153576 0.2440028 0.25257415 0.3953265
0001c0 88 4f 64 3e fb 62 27 3e 0e 33 64 3e ea 67 01 3e
       0.22295964 0.16346352 0.22285101 0.12637296
0001d0 a6 d3 c1 3d 41 29 81 3e 7a 48 bc 39 13 e3 e2 3e
       0.09464197 0.25226787 0.00035912154 0.4431387
0001e0 c6 db 70 3d ab 79 56 bc b4 51 5e bc dd e9 f7 3e
       0.058803342 -0.013090531 -0.013569284 0.4842061
0001f0 2e bd d3 3e 2a ca 35 3f 0f 5d 48 3e a9 9c 9b 3e
       0.4135527 0.710116 0.19566749 0.3039296
000200 c3 51 62 3f f4 37 05 3f 7b 0c 71 3e df e1 06 3e
       0.8840601 0.520385 0.23539917 0.131721
000210 4c 27 20 3f 04 09 ff 3e 15 2b cb 3e d5 2f e7 3e
       0.6255996 0.49811566 0.39681306 0.4515368
000220 5a b3 04 3f 41 91 bf be 71 b0 a8 3e 96 00 94 bc
       0.5183617 -0.37415507 0.32947114 -0.018066686
000230 f8 34 41 3e 75 0b 6c bd e9 c6 64 bc e7 09 49 bc
       0.18867862 -0.057628114 -0.0139634395 -0.012270427
000240 1d 95 b9 bc a0 bf 83 be 25 37 19 bd 27 f2 3c 3e
       -0.02265411 -0.25732136 -0.037406106 0.18451749
000250 89 55 c0 3d 49 87 b8 3d e9 6a 29 3e 6f 29 c0 bc
       0.093913145 0.090101786 0.16544689 -0.023457257
000260 90 70 d0 be 1d 72 89 3c 4b a2 d9 bc c6 eb df bd
       -0.40710878 0.016778046 -0.026566645 -0.10933642
000270 1c ce 7f bd 7e 03 49 3c 69 b5 52 be ae 45 bb 3b
       -0.06245242 0.012268899 -0.20577015 0.0057150936
000280 38 67 27 bc 06 c1 19 bb f1 93 6e 3d a5 a6 18 be
       -0.01021748 -0.0023460998 0.058246557 -0.1490732
000290 44 2b 16 bc ba 38 9f bd 38 fd c2 bc 0c 52 30 bd
       -0.009165589 -0.077744916 -0.023802385 -0.043046996
0002a0 3a 69 8a bc a5 ce 8c 3d b7 b0 8e bb b3 e2 54 3d
       -0.016895879 0.06875352 -0.004354562 0.05197401
0002b0 3e 40 9d 3e 1f 10 22 3e 8e 20 1e be be a5 53 be
       0.30713075 0.15826462 -0.15442106 -0.20668694
0002c0 a9 c0 f7 3d 1f d7 cd bd c7 a8 1b 3d 9f d8 90 bd
       0.12097294 -0.10050797 0.038002755 -0.07072567
0002d0 5a b5 2e 3e 04 67 e8 3b af 51 32 be 87 02 14 3e
       0.17061368 0.0070923585 -0.17413972 0.14454089
0002e0 84 29 90 3e 87 cc 63 bd a4 f2 b4 bd db 48 82 be
       0.28156674 -0.055614974 -0.088353425 -0.2544621
0002f0 1d bf 44 3d 2a b6 e8 bc e2 cc 67 3e d9 5d 3a bf
       0.048033822 -0.028407175 0.2263675 -0.7279945
000300 04 9d 04 be 2d dc 44 39 3a ee 1d 3e f4 5e b6 3c
       -0.12950522 0.00018774038 0.15422907 0.022262074
000310 a5 f9 04 3f 88 4c d5 3e 22 4d c7 3e e5 41 55 3d
       0.5194343 0.4165995 0.38926035 0.052064795
000320 33 0c 12 bd f1 7b da 3d 9b 37 8e 3d 11 27 97 3d
       -0.035656165 0.10668171 0.069442 0.07380498
000330 54 73 2c be fd a5 5b be 83 cc e5 be 07 f4 8e 3e
       -0.16840869 -0.21450038 -0.44882593 0.27920553
000340 95 be 34 bd 82 65 97 3e 4f 2f 88 be 7a 9a 95 3e
       -0.044127066 0.29569632 -0.26598594 0.2921942
000350 7a d2 07 3f 88 55 d1 3c f9 14 d1 bd 23 fd 1e 3e
       0.53055537 0.02555348 -0.10209078 0.15526251
000360 59 11 c9 bd 79 f3 35 be c3 b4 41 be 0d 96 35 3e
       -0.09817762 -0.17768659 -0.18916611 0.17733021
000370 70 cb 90 3e 28 b4 5c 3e 8c 6c f6 be 9f f3 bc bd
       0.2828021 0.21553099 -0.4812969 -0.092261545
000380 92 f9 d0 3c da 35 64 3c fd 08 71 be b6 15 c4 bd
       0.02550963 0.013928855 -0.23538585 -0.095744535
000390 18 67 81 3e fe 1c 12 3e 34 fe 85 3d 22 80 d3 bb
       0.25273967 0.14268872 0.06542626 -0.0064544836
0003a0 84 35 3b ba 32 ba 9c b9 8e 87 28 bd 0a 59 b1 38
       -0.00071414583 -0.00029893365 -0.0411449 8.4566025e-05
0003b0 55 c3 dd 3b 98 79 7a be 28 3e fb bd 02 e3 28 bd
       0.00676767 -0.24460447 -0.12267715 -0.041232117
0003c0 0d 30 ee bc 34 1d 64 bb d4 74 45 ba ea 69 e0 bc
       -0.029075647 -0.0034807445 -0.00075323624 -0.027394254
0003d0 7d 8d c5 bd db 0f 73 bd 6e 56 4a be 8a 9e eb 3d
       -0.096461274 -0.059341293 -0.19759533 0.11504848
0003e0 8a aa 8f bd 26 8b d1 bd 79 8d fb bd 77 df 94 bd
       -0.070149496 -0.102316186 -0.12282843 -0.07269185
0003f0 85 dc bd be 35 a4 94 bd 7d 33 62 be bb 48 d7 bd
       -0.37082306 -0.072578825 -0.22089954 -0.10511919

weight_hh_l0 f4 [96, 3]
000000 69 af 85 3d 4c 35 4d 3c 68 c9 6c bb bd b6 db bd
       0.065275975 0.012524914 -0.003613079 -0.10728214
000010 80 64 b9 bd 53 e8 17 be d1 82 7e 3d 49 9e 3d 3d
       -0.09052372 -0.14834718 0.062136475 0.04629353
000020 73 48 a9 3c fc a0 b4 3d 94 d0 08 3e 6a 53 d0 3d
       0.02066443 0.08819768 0.13360816 0.1017216
000030 55 f7 80 bd fa 84 8f bd 51 77 83 be 04 c9 0c ba
       -0.06297175 -0.07007785 -0.2567697 -0.000537053
000040 cc aa 04 ba f1 76 02 ba 9f 13 1a bc 01 c9 df bb
       -0.0005060851 -0.000497683 -0.009404092 -0.0068293815
000050 56 d9 d0 bb 6a e4 95 bd 1f 2a 9f bd f4 43 92 bd
       -0.0063735647 -0.07318957 -0.07771706 -0.07141867
000060 07 90 81 bb 2d 23 66 bb b2 f6 5c bb f0 6e 4f 3d
       -0.003953937 -0.0035116181 -0.0033716378 0.050642908
000070 ef 79 3a 3d b3 a4 07 3d 99 22 15 be 98 0e f6 bd
       0.04552644 0.033116054 -0.14563979 -0.12014502
000080 42 38 dd bd e6 18 77 bd 0e 69 cb bd 6b 69 97 bd
       -0.10801746 -0.06032648 -0.09932147 -0.07393154
000090 f6 f2 28 3d 81 03 3d 3c ac 29 31 bc 28 7e 35 3d
       0.04124733 0.01153648 -0.010813158 0.044309765
0000a0 b6 53 8e 3d c3 90 59 3c 01 41 3b 3d f9 43 a0 3d
       0.0694956 0.013279143 0.04571629 0.07825465
0000b0 aa d5 93 3d 93 ab ee bd 63 2f 38 3d 56 21 83 3c
       0.072184876 -0.11653819 0.044967066 0.016007107
0000c0 2c 2a f4 bb ae 38 32 bc 83 05 03 bd 0b 15 82 bc
       -0.0074513163 -0.010877771 -0.03198768 -0.015879175
0000d0 48 e1 53 bc d8 11 96 bd f1 16 5b 3e e5 c4 66 3e
       -0.012932129 -0.07327622 0.2139547 0.22536047
0000e0 27 c0 72 3e f3 19 7d bc f9 6a 5f 3d 94 e4 98 3d
       0.23706113 -0.015448081 0.054545376 0.07465473
0000f0 ab fc 3a 3c 9f 69 c2 bc 0b 42 79 be ac 16 ed 3c
       0.01141278 -0.023732005 -0.243416 0.028941475
000100 11 43 81 3e a0 93 cc 3e 6f 17 b2 3e b9 9b 2e 3d
       0.2524648 0.3995638 0.34783503 0.042628977
000110 01 c6 57 3e fb ed 9f bc 9a 1d 0e bd ea a3 34 bd
       0.21071626 -0.019522658 -0.0346962 -0.044101633
000120 f8 71 25 3e b0 f5 00 3e 0e 9a 29 3e ed 76 71 3e
       0.16156757 0.12593722 0.16562673 0.23580523
000130 1b c4 92 3e a9 ee 88 3e 57 11 46 3c 08 0b 82 ba
       0.28665242 0.26744583 0.012089095 -0.00099215
000140 5b a3 12 bc d0 34 cd 3d 1a a1 12 3e fc c0 ec 3d
       -0.00895008 0.10019839 0.14319268 0.11560246
000150 88 f6 e0 3e f1 83 96 3e 3a b3 8b 3e 4d bd 3e ba
       0.43938088 0.29397538 0.27285177 -0.0007276133
000160 ed a8 3a ba cd 80 39 ba 15 a8 b1 bc 63 c5 ac bc
       -0.0007120509 -0.0007076383 -0.021686593 -0.021090215
000170 7a 18 b1 bc 11 61 d9 bc 8b 5e e3 bc 27 e3 cf bc
       -0.021618117 -0.026535543 -0.027755043 -0.02537687
000180 4a ca d2 bb 2a d3 cc bb f5 a5 ce bb 67 87 08 3e
       -0.006432806 -0.0062507587 -0.0063064047 0.13332902
000190 25 5d 21 3e c3 58 25 3e 6f 6e 99 bd 21 a3 8b bd
       0.15758188 0.16147141 -0.07491767 -0.06818224
0001a0 da 21 87 bd dc 1a e1 bc 57 31 18 bd bd e2 ec bc
       -0.065982535 -0.027478628 -0.03715643 -0.028916711
0001b0 43 b4 76 3e f3 3c b6 3e b8 41 d9 3e 11 0a 28 3e
       0.24092202 0.35593376 0.42432952 0.1641009
0001c0 5f 7c 60 3e a9 1a 3f 3e bd 6c 99 3d 58 67 e4 3d
       0.21922444 0.18662514 0.07491443 0.11152524
0001d0 54 b3 c5 3d e8 ac 12 3d 9f e8 7d 3d 1e af 81 bd
       0.09653345 0.035809427 0.061989423 -0.06332229
0001e0 78 eb a0 bc 3a 59 87 bc c3 c5 f3 bc 7f b4 ff 3d
       -0.01964353 -0.016522039 -0.029757386 0.12485599
0001f0 ec 4f 02 3e 5a 27 15 3c b1 d5 fd bb f2 d2 44 3e
       0.127258 0.00910362 -0.0077464213 0.19221094
000200 ca 56 a7 3e fa 16 4c 3e ed b7 7a 3e 02 e8 6a 3e
       0.32683402 0.1993064 0.24484225 0.22940066
000210 47 00 01 3f 79 09 fb 3e a2 a1 8b 3e 93 7b 8f 3d
       0.5039105 0.49030665 0.27271754 0.07005992
000220 d1 e3 67 3e 4d d4 d5 3d e1 e5 c6 3e c2 e6 3b 3d
       0.22645499 0.10440884 0.3884726 0.045874365
000230 7b 1a d5 3a 7f 1d 2d bc c6 66 81 bc 7e d7 63 bc
       0.0016258502 -0.010566114 -0.015796077 -0.013906358
000240 a6 3d cd 3e 4b 4e 79 3e 2e 0e 69 3e 37 f5 f8 3d
       0.40086097 0.24346273 0.22759315 0.12156146
000250 7b cd 12 3e 0a 90 0b 3e 16 29 31 be 2f 7b 86 3d
       0.14336197 0.13629165 -0.1730083 0.06566464
000260 df 07 28 3e 19 3b 0f be 71 98 2c be 72 ae 24 be
       0.16409253 -0.13987388 -0.16855027 -0.1608217
000270 b3 fd 56 be 29 08 7d be f0 32 a0 3b fe 56 95 bc
       -0.20995216 -0.24710144 0.0048888847 -0.018229958
000280 1d 60 82 3c 09 4d 35 3b 71 f1 0e 3c fe f0 e0 bc
       0.015914971 0.0027664325 0.008724556 -0.027458664
000290 06 55 c7 bd a6 21 71 bd 4a 7c 66 bd 01 f5 77 bd
       -0.09733014 -0.05886998 -0.056270875 -0.06053639
0002a0 cf e9 03 3c c2 cf 73 bd 41 4c 6b 3d 64 0c 2a bf
       0.00805135 -0.059524305 0.05744577 -0.66425157
0002b0 38 b2 cb be 64 a3 67 be 27 50 2e 3e 70 fc 7e 3e
       -0.39784408 -0.22620922 0.17022763 0.24900985
0002c0 61 29 e7 3d be df 00 3c 71 88 86 3d 68 33 95 3d
       0.11287189 0.007865844 0.06568993 0.072851956
0002d0 48 1a 99 3d 56 81 22 3e 34 d1 01 3e bb 7f 7e be
       0.07475716 0.1586965 0.12677461 -0.24853413
0002e0 3d ab d9 be c7 3f 9f be 5a 2f d8 3e 73 f9 fe 3e
       -0.42513457 -0.31103346 0.42223626 0.4979969
0002f0 e6 54 c0 3e 15 84 a9 3d 69 88 64 be 88 4d 27 3d
       0.37564772 0.08277146 -0.22317661 0.040845424
000300 7d 10 35 3d 5e 2b d6 bc 10 eb b4 3d 58 43 2b be
       0.044205178 -0.026143726 0.08833897 -0.16724908
000310 0d 23 5c be 40 57 38 be 91 57 8b bd 76 5f 14 bd
       -0.21497746 -0.18002033 -0.06803811 -0.03622385
000320 fd 1b cd bd c8 78 e5 3d c5 6c 15 3e 4f b4 13 3e
       -0.10015104 0.11204678 0.14592274 0.14424251
000330 75 83 1d bc 40 ea 91 3c 89 6c 56 3e 86 87 97 be
       -0.009613861 0.017811894 0.2093984 -0.29595584
000340 d7 78 19 be b7 45 a9 be 85 27 e9 3e 77 73 9b bc
       -0.14987503 -0.33061 0.45537964 -0.018975956
000350 c4 aa 90 3c 54 bb d4 bb 11 4d f5 bd ea 2b f9 bd
       0.017659552 -0.006492058 -0.1197759 -0.12166579
000360 69 c0 17 be 49 6a 31 bd d0 ba 6b be 61 a2 a8 3e
       -0.14819492 -0.043314252 -0.23020482 0.32936385
000370 7d e6 99 3e 4b 8d 9f 3e bb 66 51 3d f8 01 07 3d
       0.3005866 0.31162485 0.051123362 0.032960862
000380 14 cd 71 3c cb e7 28 3e 98 4f c5 bd d4 6f 59 be
       0.014758367 0.16494672 -0.09634322 -0.21234065
000390 85 85 34 3e 23 d2 27 3e f3 d1 18 3d fe e4 1e ba
       0.17629059 0.16388755 0.0373096 -0.0006061344
0003a0 85 54 17 ba ca 02 16 ba d9 ba 60 bc 67 2e 3d bc
       -0.0005772787 -0.00057224615 -0.013716423 -0.011546708
0003b0 cc 43 40 bc 3c 5e a2 bd b4 85 ac bd 64 bc 9f bd
       -0.011734914 -0.0792813 -0.08423939 -0.077996045
0003c0 8a f3 9f bb d1 5b 92 bb 6c 7b 8e bb 1b 7e 34 be
       -0.004881327 -0.004466512 -0.004348209 -0.1762623
0003d0 28 75 ab be 26 7a 93 be aa 4d 49 be e5 51 0f be
       -0.3348782 -0.2880413 -0.19658533 -0.13996084
0003e0 ee a8 fe bd 5b dd 9c bd a8 f6 d1 bd 80 51 96 bd
       -0.124345645 -0.07659408 -0.10252124 -0.07339764
0003f0 7f 5b fa bb d5 aa b6 bd fd 1f 4a be f4 c2 68 bd
       -0.0076403017 -0.089193024 -0.19738765 -0.056826547

bias_ih_l0 f4 [96]
000000 dc c9 e6 3d b5 0a 72 bc b0 e2 a4 bb 9b c3 45 3d
       0.1126897 -0.014773061 -0.005031906 0.048282247
000010 95 de f8 be 98 ac 08 ba 42 c2 a5 bb f1 ee b7 bd
       -0.48607317 -0.0005213707 -0.0050585577 -0.08981121
000020 ea 71 5f bb 14 a0 10 3e 7c 1b c6 bb 89 3b 97 bd
       -0.0034094998 0.14123565 -0.006045757 -0.07384402
000030 b5 e2 a4 bd 07 2f 60 3d 06 ba 07 3e a7 2c b9 3c
       -0.080510534 0.05473235 0.13254556 0.0226043
000040 7e 73 40 bd 6c c3 aa be 2f 6f 04 be 86 b5 9d 3c
       -0.046985142 -0.3335222 -0.12933038 0.019251596
000050 f7 9b b2 be 59 c5 71 be 01 e1 4f be 38 09 bc bc
       -0.34884617 -0.23610438 -0.20300676 -0.022953615
000060 f4 21 57 3e 5d f2 05 3f 32 28 f7 bc ed b1 46 3e
       0.21009046 0.5232294 -0.030170534 0.19403811
000070 39 ac 99 3e 3e 0a 2b ba 02 29 96 bc ca 11 2b bd
       0.30014208 -0.00065246585 -0.0183301 -0.04176501
000080 ff cc b6 bb bb 15 95 3e 48 8e 81 bd 46 7d f4 bc
       -0.0055786367 0.29118142 -0.06325966 -0.029844891
000090 15 a8 86 3e e9 aa 8d 3e e5 30 34 3e 31 99 a7 3e
       0.2630011 0.27669457 0.17596777 0.32734063
0000a0 14 68 6d bc 14 33 e5 3c fc 21 45 3e 6a 24 ce 3e
       -0.014490146 0.027978458 0.19251245 0.40262157
0000b0 d8 31 14 3f 0f d4 cc 3c 87 77 42 3e 82 e5 21 bc
       0.57888556 0.025003461 0.18990909 -0.009881379
0000c0 e3 f1 ce 3d 14 e6 9f 3e 42 14 23 bd 8a 86 72 be
       0.1010473 0.31230223 -0.03981424 -0.23684135
0000d0 85 91 58 3e e3 b5 dd 3b 4c 51 22 3d 59 d7 43 bc
       0.21149261 0.0067660674 0.039628312 -0.011953198
0000e0 52 30 47 bd 4c ef 46 be f9 d4 81 3a 17 7a 15 bd
       -0.048630066 -0.19427222 0.000990539 -0.036493387
0000f0 35 ff 3e bd 7b 64 84 bd 8f 3d df 3d a3 54 e0 3b
       -0.046630103 -0.06464478 0.10900413 0.006846027
000100 6f d7 1f 3d d2 61 e0 ba 2d 5f 00 bf 29 87 78 3e
       0.039023813 -0.0017118996 -0.50145227 0.2427031
000110 b7 3a 8f 3e af bf ab bd 81 4b 89 3c e5 b4 c3 3d
       0.27974483 -0.0838617 0.016759636 0.09555987
000120 12 2c 0e 3e 34 3c 5c 3e cd e0 81 bc c9 54 80 3c
       0.13883999 0.2150734 -0.015854264 0.015665429
000130 b4 49 a8 3e d6 b5 1a ba fe a3 03 bc 89 2c c4 bd
       0.3286873 -0.00059017295 -0.008034704 -0.09578807
000140 25 ba 88 bb 13 10 0d bd eb c8 32 3c 80 87 7d bd
       -0.004172581 -0.034439158 0.01091216 -0.0618968
000150 39 68 da bd e3 b6 fd 3d 45 d1 df 3c 7d 0e 1a 3d
       -0.1066441 0.123883985 0.027321467 0.037611473
000160 54 a8 53 bd f5 3e 09 3d 24 93 17 3e 72 5b 44 3d
       -0.051674202 0.033507306 0.14802223 0.04793877
000170 a6 be 84 3e 6c e8 31 3d 21 23 47 3d 42 3b 76 bc
       0.25926703 0.043434545 0.048617486 -0.015028777

bias_hh_l0 f4 [96]
000000 06 68 15 3d 52 03 d6 bd 41 85 be bb 9e 79 49 3d
       0.036476158 -0.10449852 -0.005814225 0.04918825
000010 7c bb dc be a1 b6 08 ba 3e 61 a5 bb 93 eb b7 bd
       -0.4311179 -0.0005215202 -0.0050469926 -0.08980479
000020 3a 6d 5f bb 97 cb 0e 3e d2 d3 2f bc 30 3d 6d bd
       -0.0034092204 0.13944851 -0.010731654 -0.05791968
000030 17 6f b8 bd c7 67 0a 3d 1c 38 1e 3e 61 9e 2a 3c
       -0.09005564 0.033790376 0.15451092 0.010413737
000040 64 c0 37 bd 0e be 2f be 34 69 1a be fa 9f e7 ba
       -0.044861212 -0.17162344 -0.15079194 -0.0017671578
000050 da a9 b9 be 7c ae 9a be 1c 57 6d be 74 54 6b bc
       -0.362624 -0.30211246 -0.23177761 -0.014363397
000060 cd e9 7f 3e ed c2 14 3f d9 d8 fc bc 25 b6 90 3e
       0.24991532 0.58109933 -0.03086512 0.28263965
000070 3b 7a 94 3e 12 db 2a ba 40 07 96 bc 54 10 2b bd
       0.28999504 -0.00065176294 -0.018314004 -0.04176362
000080 63 d1 b6 bb 51 a5 78 3e e3 ca 81 bd 65 c9 a1 bc
       -0.00557916 0.24281813 -0.06337526 -0.019749353
000090 49 18 7f 3e 38 1a ac 3e 0d fc 43 3e a0 9c 6b 3e
       0.24911608 0.33613753 0.19139118 0.23008966
0000a0 a0 f4 84 bc 68 bb 60 3e ad ab 32 3e 45 ba c1 3e
       -0.016229928 0.2194649 0.17448302 0.37837425
0000b0 31 6a ec 3e 33 4f 40 3e ee 4e 66 3e 92 38 de bb
       0.46174768 0.18780212 0.22491047 -0.006781646
0000c0 b1 22 7f 3e 13 f3 89 3e 13 91 f8 bd c4 2d 78 be
       0.24915577 0.26943263 -0.12137046 -0.24236208
0000d0 5b df 7c bd a0 45 57 bc c5 8e 81 3d fd cc 63 bb
       -0.061736446 -0.0131391585 0.06326059 -0.0034759634
0000e0 7b ea d9 3c c0 75 7a bd 93 88 de bb 10 9a 6f bd
       0.026601067 -0.06114745 -0.0067911833 -0.058496535
0000f0 3b 67 05 be 21 ae aa bd e5 e9 a4 3d 22 a3 4b 3e
       -0.1302766 -0.08333994 0.08052424 0.19886449
000100 36 6a 6a 3c e3 20 3d be a5 40 51 be 04 84 68 3e
       0.014307549 -0.18469577 -0.20434816 0.2270661
000110 a2 3d 81 3e 1a 0e 29 be 6b 34 fd bd 59 32 eb 3d
       0.25242335 -0.16509286 -0.123635136 0.114842124
000120 b2 26 72 bd c6 d7 4c 3e 1d ba 70 bc 46 f5 9a 3c
       -0.059118934 0.20004186 -0.01469281 0.018915784
000130 9b d5 40 3e 8d 6f 1b ba 1a 98 19 bc 53 31 c4 bd
       0.18831484 -0.0005929403 -0.009374643 -0.0957972
000140 3c bb 88 bb a6 7a d3 bd 3e f8 ce 3a 7d a1 92 bd
       -0.0041727107 -0.10326128 0.0015790535 -0.07159708
000150 7d be ab bc fa 7d ad bd 2c 28 bc 3d 1a 62 04 3d
       -0.020964855 -0.08471294 0.0918735 0.03232012
000160 05 e4 29 bd 2e cb 0d bd b5 6e 9f 3d 01 b3 15 3d
       -0.041477222 -0.034617595 0.077847876 0.036547665
000170 b8 1d c8 3d 13 94 34 bc 1f 32 0a 3e c5 60 e2 bc
       0.097712934 -0.011021632 0.13495682 -0.027634034

weight_hr_l0 f4 [3, 24]
000000 fa 0f 50 3e 8d 4f c7 3e 63 c1 42 3e 1a c8 4a be
       0.20318595 0.3892788 0.19019084 -0.19802895
000010 3f 30 92 bd 35 2d 64 ba e1 c9 97 bc 7a e3 57 3d
       -0.071381085 -0.0008704246 -0.01852888 0.052707173
000020 c4 04 c2 3b d8 64 ab be 83 a0 8e 3e e7 1d 6e 3d
       0.0059209783 -0.33475375 0.27856836 0.058133986
000030 0d 5f 42 3e aa c5 15 3d 12 ab a6 3e 41 b1 2a bd
       0.18981571 0.03656546 0.3255239 -0.04167295
000040 ef 76 9e bd 15 89 45 3e fe 65 c6 3e de ed 65 3e
       -0.077375285 0.19290574 0.3874969 0.2245402
000050 49 27 d6 bd be 02 75 3e b8 11 c9 be 62 79 27 bd
       -0.10456712 0.23926827 -0.3927133 -0.040887244
000060 6c 09 4e 3e 24 5b b6 3e d1 a4 29 be 8b 97 d2 bd
       0.20120782 0.3561641 -0.16566779 -0.10282811
000070 50 43 89 be b9 4b 9b 39 82 17 8f 3c 37 5a 78 bd
       -0.26809168 0.00029620322 0.017467264 -0.06063291
000080 45 a4 bd ba e7 d8 68 be 3a b9 92 3c 97 46 2b bd
       -0.0014468512 -0.22738992 0.017910589 -0.041815367
000090 e9 0c ea 3d 92 e1 12 be 6b f7 87 3d a6 58 ea 3c
       0.11428244 -0.14343861 0.06638988 0.028606724
0000a0 d3 72 79 3d 7d 0a 94 3e 63 1a a0 bd 0b 12 84 3e
       0.06090052 0.28914252 -0.07817533 0.25795016
0000b0 02 2d a5 be 55 ad 87 3e 73 e6 2d 3e f4 c5 aa 3a
       -0.322609 0.2649943 0.1698244 0.0013028965
0000c0 7d 5c 4e 3d b2 90 69 3e 03 1a 2a be c1 a6 71 be
       0.050381172 0.22809103 -0.16611485 -0.23598768
0000d0 5f 03 be be d3 fc bb 39 ee 6f db bb 3f 5c 66 3d
       -0.37111947 0.00035855788 -0.0066966927 0.056240316
0000e0 d9 98 a8 bb ff 64 c9 bc de c1 c2 bd 84 80 96 bd
       -0.005145174 -0.024584292 -0.095096335 -0.07348731
0000f0 ab 05 2a 3d ca ff 99 be ac 35 47 3e 6c ae 87 be
       0.04150931 -0.30077964 0.19454068 -0.2650026
000100 9d 13 c4 bc ef 7f 9b 3e f8 e5 49 be 8d fc 87 3e
       -0.023935134 0.30371043 -0.19716632 0.26559868
000110 c7 60 b7 be 97 28 76 3e 1c df 40 3e b2 3a 88 3d
       -0.35816023 0.24038921 0.1883511 0.0665182
