output/C_P2_S5_D20.pth (torch, 4459 bytes, 5 tensors)

weight_ih_l0 f4 [96, 3]
0	0x3e4e1084	0.20123488
1	0x3d6ed085	0.05830433
2	0x3d6e8921	0.058236245
3	0xbc06f816	-0.008237859
4	0xbf2c4a77	-0.67301124
5	0x3e38e5ed	0.1805646
6	0xbef18f58	-0.47179675
7	0xbe601a54	-0.21885043
8	0x3ec7bfc3	0.3901349
9	0xbe886a56	-0.26643628
10	0xbebec59e	-0.37260145
11	0x3e79d44e	0.24397394
12	0x3c2bf1bf	0.0104946485
13	0xbca7bde5	-0.020476291
14	0xbe90ce2d	-0.282823
15	0xbd956a1a	-0.07295628
16	0xbbc3b3ea	-0.005972375
17	0xbbf93e09	-0.007606272
18	0xbda62085	-0.08111671
19	0x3e79a6a6	0.24379978
20	0x3dd201e4	0.10254267
21	0x3e1f5f3d	0.15563674
22	0xbd2adfea	-0.041717447
23	0xbcad5354	-0.021157898
24	0xbeafc78b	-0.34331927
25	0x3d728835	0.05921193
26	0x3e107609	0.14107527
27	0xbda2f6db	-0.0795724
28	0xbd7d58ba	-0.061852194
29	0xbeadd022	-0.33947855
30	0xbe8e747d	-0.27823249
31	0xbdaa0852	-0.08302368
32	0xbe4fcca0	-0.20292902
33	0xbd9cdb73	-0.07659044
34	0xbcc359dd	-0.023846561
35	0xbdab1aec	-0.08354744
36	0x3dd792a0	0.105260134
37	0x3c0dc54a	0.008652994
38	0x3d213889	0.039360557
39	0xbd4e01bf	-0.050294634
40	0xb9e60a12	-0.00043876522
41	0xb8d7cc89	-0.000102900965
42	0xbe8b82e1	-0.2724829
43	0xbec1ad09	-0.37827328
44	0xbe9e4709	-0.3091357
45	0x3da20202	0.07910539
46	0x3e6a4b91	0.22880389
47	0xbd6c4693	-0.057684492
48	0x3d950393	0.07276072
49	0x3dcb7d78	0.09936041
50	0xbf0c96ea	-0.54917777
51	0xbe69945d	-0.22810502
52	0xbc455577	-0.012044302
53	0xbf1edb66	-0.62053525
54	0xbea85842	-0.32879835
55	0x3dd3337d	0.10312555
56	0xbf38f998	-0.7225585
57	0xbe26898d	-0.16263409
58	0xbc53e94e	-0.012934042
59	0x3e01cb86	0.12675294
60	0xbe4763fc	-0.19471735
61	0xbf0c1188	-0.5471425
62	0x3f44c9a3	0.76870173
63	0xbef86b5f	-0.48519418
64	0xbe2ae53d	-0.1668901
65	0xbe13e6e8	-0.14443552
66	0x3dfc7b37	0.12328189
67	0x3d0c6592	0.034276552
68	0x3cfc48fa	0.030796517
69	0xbdc7806c	-0.097412914
70	0xbb1387af	-0.0022511294
71	0xbe29cd13	-0.16582136
72	0xbda1d340	-0.07901621
73	0xbd30acc7	-0.043133523
74	0x3cc284d9	0.023744987
75	0x3e827158	0.254771
76	0x3dcc1bce	0.09966241
77	0x3f4a7c7e	0.7909621
78	0x3d98c017	0.07458513
79	0x3d3455f2	0.044027276
80	0x3e9ac721	0.30230048
81	0x3f3dcebc	0.74143577
82	0x3e800eda	0.2501133
83	0xbe825f26	-0.25463217
84	0x3e288d6a	0.16460195
85	0x3a08fb0a	0.0005225396
86	0xbe0e805d	-0.13916154
87	0xbc6492f9	-0.013951057
88	0xbb458b17	-0.0030142718
89	0xbbca6dc7	-0.0061776373
90	0x3df2fcfc	0.11864659
91	0x3f828f07	1.0199898
92	0xbddab8e5	-0.10679797
93	0x3d7ffb46	0.062495492
94	0xbc2b98a3	-0.010473403
95	0xbd538f06	-0.05165007
96	0x3ed2fc14	0.41207945
97	0x3e13bae3	0.1442676
98	0x3f02d41d	0.5110491
99	0x3dbcad55	0.09212748
100	0xbe2f6167	-0.17127
101	0x3fd18d2b	1.6371206
102	0x3f495759	0.78648907
103	0x3db8daf7	0.09026139
104	0x3e6789a1	0.22611095
105	0x3d5530e0	0.052048564
106	0x3c77132b	0.015080254
107	0xbd74bc6d	-0.05975001
108	0x3e894bbb	0.2681559
109	0x3d0033dd	0.03129946
110	0x3dd72aa8	0.10506183
111	0xbc09738c	-0.008389365
112	0xb8cb367a	-9.689941e-05
113	0xb8a849f6	-8.0246406e-05
114	0x3ba083d9	0.00489853
115	0xbe866107	-0.262459
116	0xbe11c6fd	-0.14236064
117	0xbd8bee75	-0.068325914
118	0x3e8a26a7	0.26982614
119	0xbe07e8cd	-0.132724
120	0x3e3e38df	0.18576382
121	0x3ced9cb3	0.029005384
122	0x3e249856	0.16073737
123	0xbcbf0b90	-0.023320943
124	0xbd61fa8b	-0.055170577
125	0xbacc5470	-0.0015589129
126	0xbe16753c	-0.14693159
127	0x3e7fd1b1	0.24982335
128	0xbd0dd389	-0.034625564
129	0x3dea4512	0.11438955
130	0x3f4ddd00	0.80415344
131	0x3f10ca9d	0.56559163
132	0x3ed58953	0.41706333
133	0x3f579e15	0.8422559
134	0xbd0c07a1	-0.034186963
135	0x3f1ed93a	0.6205021
136	0x3ec5812e	0.3857512
137	0xbe2bc7bd	-0.16775413
138	0xbd9edd36	-0.077570364
139	0xbd981bed	-0.074272014
140	0x3c6aec89	0.014338621
141	0x3ea4ba2e	0.32173294
142	0xbcd660bc	-0.026169173
143	0xbe01a01c	-0.12658733
144	0x3e93537f	0.2877464
145	0x3d71a2de	0.058993213
146	0x3e1a5c91	0.15074374
147	0x3d66ca10	0.056345046
148	0x3e9320ed	0.28736058
149	0x3eef3d69	0.4672654
150	0x3ebf2865	0.37335506
151	0xbe008325	-0.12550028
152	0xbe8d45e5	-0.27592388
153	0xbe8ea606	-0.2786104
154	0xbeb6eec0	-0.35729027
155	0xbea0f985	-0.31440368
156	0x3d896849	0.06709344
157	0x3e3c7028	0.18402159
158	0x3ed1de45	0.4098989
159	0xbb973cb5	-0.004615391
160	0xbd268068	-0.0406498
161	0x3c5e3b8a	0.013564
162	0xbdf36780	-0.118849754
163	0x3eb67890	0.35638857
164	0xbf415549	-0.7552076
165	0x3e5648a3	0.20926146
166	0xbcc795eb	-0.024363479
167	0xbdbc641a	-0.0919878
168	0xbf4a2ae6	-0.7897171
169	0x3c35d8c1	0.011099041
170	0x3f37a8da	0.7174202
171	0x3d99f96b	0.07518276
172	0x3e934ed4	0.2877108
173	0x3f23eaf3	0.6403038
174	0x3eaad45c	0.33365142
175	0xbde769f9	-0.112995096
176	0xbec66a4f	-0.38752982
177	0x3ccb2d29	0.024801807
178	0x3d4d0cc4	0.050061002
179	0xbdc63775	-0.09678546
180	0x3e88d5bd	0.2672557
181	0xbdef8f90	-0.11697304
182	0x3dfac918	0.12245387
183	0xb7e9bded	-2.7864206e-05
184	0x3ba7a4e0	0.00511609
185	0x390c8264	0.00013400015
186	0x3d0da6e3	0.034582984
187	0x3eb059f1	0.3444362
188	0x3ef81dce	0.4846024
189	0x3e4207ad	0.1894824
190	0x3e38668d	0.1800787
191	0x3e4812e5	0.19538458
192	0x3d7764b1	0.06039876
193	0xbe92ed3a	-0.28696615
194	0x3eefb751	0.46819547
195	0x3d8deaf1	0.06929577
196	0x3ef09fbc	0.46996868
197	0x3f1fc93a	0.6241642
198	0xbdbd1432	-0.092323676
199	0xbd903f78	-0.07043356
200	0xbf34cebc	-0.7062795
201	0x3dbb03e8	0.091316044
202	0x3d0d3dd0	0.034482777
203	0xbefabefc	-0.48973835
204	0xbe9678fa	-0.29389173
205	0xbdbc9659	-0.09208364
206	0xbef88d2e	-0.48545212
207	0x3e67ad5c	0.22624725
208	0x3e4f4b1c	0.20243496
209	0xbdff209f	-0.12457394
210	0x3e93d65a	0.28874475
211	0x3c34faab	0.011046092
212	0x3db9bee0	0.0906961
213	0xbe1700a2	-0.14746335
214	0x3e7220e6	0.23645362
215	0x3d89651d	0.06708739
216	0xbe5754b7	-0.2102841
217	0xbe2ead0e	-0.17058203
218	0x3cf13bdb	0.029447487
219	0x3e2b2054	0.16711551
220	0x3f5bd1f0	0.85867214
221	0xbcaf37cc	-0.02138891
222	0xbd3aa2be	-0.04556536
223	0x3e16760d	0.1469347
224	0x3e81784f	0.252871
225	0x3db2f039	0.08737225
226	0xbe765a0e	-0.2405779
227	0xbe06e8d5	-0.13174756
228	0x3e63e672	0.22255877
229	0x3d6c8137	0.057740416
230	0x3ab3bdb5	0.0013713153
231	0xbce91e85	-0.028456936
232	0xbb9e9c93	-0.0048404424
233	0xbbf32d65	-0.007421183
234	0xbe1e0312	-0.15430859
235	0xbe1dd164	-0.15411907
236	0x3e537ce6	0.20653114
237	0xbe8547ff	-0.2603149
238	0xbe159c0a	-0.14610305
239	0xbd2d3307	-0.04228499
240	0xbd9923b9	-0.07477517
241	0x3e19bc0a	0.15013137
242	0xbe7abdb8	-0.24486434
243	0xbd3a8ee5	-0.04554643
244	0xbdfc2ebb	-0.12313601
245	0x3e2ebf7f	0.17065237
246	0x3c54849c	0.01297107
247	0x3dade4c2	0.08490898
248	0x3e0d2acc	0.13785857
249	0xbb9b9369	-0.0047477973
250	0xbc6b9edf	-0.01438114
251	0xbd66f24a	-0.05638341
252	0xbe083529	-0.13301529
253	0xbe3c30c0	-0.18377972
254	0x3db071f1	0.086154826
255	0xbd98d7be	-0.074630246

weight_hh_l0 f4 [96, 3]
0	0x3b547920	0.003242083
1	0xbbc61b87	-0.006045762
2	0xbc7aea01	-0.01531458
3	0x3e098009	0.13427748
4	0x3cc044d5	0.023470322
5	0x3e3efafc	0.1865043
6	0xbe340cfc	-0.17583078
7	0xbdfcc1d7	-0.123416595
8	0xbdec7f80	-0.11547756
9	0x3f588187	0.84572643
10	0x3f18a770	0.5963049
11	0x3f28888e	0.65833366
12	0xbf36f30e	-0.7146462
13	0xbf029189	-0.5100332
14	0xbf1d134a	-0.6135756
15	0xbb0f0f36	-0.0021829135
16	0xbc0cc103	-0.008590939
17	0xbc19a1a7	-0.00937692
18	0x3ebec2bf	0.37257954
19	0x3e90d357	0.2828624
20	0x3e9775b6	0.29581994
21	0x3d039180	0.03212118
22	0x3daf0812	0.08546461
23	0x3db367fa	0.08760066
24	0x3e9c1186	0.3048212
25	0x3eb7e9fd	0.35920706
26	0x3eb689f6	0.3565213
27	0xbdd3a805	-0.103347816
28	0xbeedcbcf	-0.46444556
29	0xbe8e8a58	-0.27839923
30	0x3e07e69b	0.13271563
31	0xbdabcd13	-0.08388724
32	0xbd406100	-0.046967506
33	0x3b78cfe5	0.0037965712
34	0xbd579097	-0.052628126
35	0xbd6cee3d	-0.05784439
36	0x3d082bbd	0.033244837
37	0x3ceb94d4	0.02875749
38	0x3cd790c3	0.026314145
39	0xb92e5b83	-0.00016628024
40	0xb974e1e2	-0.00023353801
41	0xb988024d	-0.00025941656
42	0x3e470549	0.1943561
43	0x3ed8a1d9	0.4231098
44	0x3ea5230c	0.322533
45	0x3cbddb75	0.023175934
46	0x3e797adc	0.24363273
47	0x3e8fbd30	0.28074026
48	0xbe160555	-0.14650472
49	0xbe1f17a1	-0.15536357
50	0xbe1f44d8	-0.15553606
51	0x3f37d6f4	0.7181237
52	0x3f2cefaf	0.6755323
53	0x3f1ec9cb	0.6202666
54	0xbe33418c	-0.17505473
55	0x3e19578a	0.149748
56	0x3dbd09db	0.092303954
57	0xbe7d8f8d	-0.24761792
58	0xbf30bab2	-0.69034874
59	0xbf01641c	-0.5054338
60	0x3ea29230	0.31752157
61	0x3ed32116	0.4123618
62	0x3eea627b	0.4577826
63	0xbc1228be	-0.0089208465
64	0xbdf11fff	-0.11773681
65	0xbdd67b59	-0.104727454
66	0x3d0d5249	0.0345023
67	0x3c7b8093	0.015350479
68	0x3c359587	0.011083013
69	0xbe38b0d2	-0.18036202
70	0xbe1e08ec	-0.15433091
71	0xbe290b37	-0.16508184
72	0xbd6dcacd	-0.058054734
73	0xbd5f3c02	-0.054500587
74	0xbd9b19ba	-0.07573266
75	0x3eff217c	0.49830234
76	0x3e7c0196	0.2460998
77	0x3ed2d373	0.41176948
78	0xbc5e518b	-0.013569246
79	0x3c3705c9	0.011170813
80	0x3be55c82	0.006999553
81	0x3e16c33e	0.14722916
82	0x3d081dba	0.033231474
83	0x3e68aed4	0.22722942
84	0xbf8c3507	-1.0953683
85	0xbf2a99ab	-0.6664073
86	0xbf3d4fbc	-0.7394979
87	0x3a1dc6fe	0.0006018727
88	0xbba490d9	-0.00502215
89	0xbbbbcbca	-0.0057310807
90	0x3da1e06d	0.07904134
91	0x3e3e4572	0.18581179
92	0x3e63b0cc	0.22235411
93	0xbd235270	-0.03987354
94	0xbbdfd7db	-0.006831152
95	0xbc7c4e62	-0.015399547
96	0xbbaba4ed	-0.0052381665
97	0x3d023ae1	0.031794433
98	0xbdaa7a23	-0.08324077
99	0x3f246837	0.6422152
100	0xbd89b060	-0.06723094
101	0xbdafa2a4	-0.08575943
102	0x3d36fc9e	0.04467451
103	0x3e480bd5	0.19535764
104	0x3e6c78b1	0.23092915
105	0x3d189254	0.037248924
106	0xbc8611fb	-0.016365996
107	0xbcb125f0	-0.021624535
108	0x3db2b948	0.08726746
109	0x3dc6aa48	0.09700447
110	0x3dc08982	0.094012275
111	0xb8abd1a0	-8.192961e-05
112	0xb8d4f22d	-0.000101540565
113	0xb8f7f2e1	-0.000118231175
114	0x3e6931c1	0.22772886
115	0x3f832e11	1.0248433
116	0x3f6dfede	0.9296702
117	0x3c910995	0.017704764
118	0x3e8646c5	0.26225868
119	0x3e867f4e	0.26269
120	0x3dcd44ac	0.10022864
121	0x3e5ed412	0.21760586
122	0x3e6dfd88	0.23241246
123	0x3e9d09b6	0.3067147
124	0x3d36b86b	0.04460947
125	0xbdda20cb	-0.10650786
126	0x3e20be7a	0.15697661
127	0x3ef26799	0.47344664
128	0x3ee16053	0.44018802
129	0x3ea690f7	0.32532474
130	0xbe7c6b1e	-0.24650237
131	0xbbb85639	-0.005625513
132	0x3e669633	0.22518234
133	0x3dba6b07	0.09102445
134	0x3dd887ec	0.105728
135	0x3e093911	0.13400675
136	0x3d4226ce	0.04740029
137	0x3d08a628	0.033361584
138	0x3cc3572e	0.023845281
139	0x3b2c6a64	0.002630853
140	0xbc27625b	-0.010216321
141	0x3e0b4e4a	0.13604084
142	0x3e7910dd	0.24322839
143	0x3e7da3c8	0.24769509
144	0x3c466a5e	0.012110321
145	0xbc927fb0	-0.017883152
146	0xbd0408cd	-0.032234956
147	0x3d257f0c	0.040404364
148	0xbf09cdca	-0.53829634
149	0xbd16da49	-0.036829267
150	0xbc6b6201	-0.014366628
151	0xbdfd1865	-0.123581685
152	0xbd77f8e8	-0.06054011
153	0x3e80931d	0.2511224
154	0x3e908240	0.28224373
155	0x3e5eaa02	0.2174454
156	0xbf7aa728	-0.9791131
157	0xbe8b57e7	-0.27215502
158	0xbe64b747	-0.2233554
159	0x3c6c0242	0.014404835
160	0xbcdd445c	-0.027010135
161	0xbcb9ccbb	-0.02268063
162	0x3e9af461	0.3026457
163	0x3e6fc606	0.23415384
164	0x3ec8c467	0.39212343
165	0xbdacb779	-0.08433432
166	0xbe57fdc5	-0.21092899
167	0xbe56899f	-0.20950936
168	0xbd61b810	-0.055107176
169	0x3eb83af8	0.3598249
170	0x3ec38af2	0.38191944
171	0xbdb36d04	-0.087610275
172	0xbe3fff74	-0.18749791
173	0xbe475ba9	-0.1946856
174	0xbe7efae7	-0.24900399
175	0x3e0ca527	0.13734876
176	0x3e01aec6	0.12664327
177	0x3cfc3aa5	0.030789683
178	0x3d8f678c	0.07002172
179	0x3d47246a	0.04861871
180	0x3da6e0da	0.08148356
181	0x3d79f915	0.06102856
182	0x3d588f41	0.052870993
183	0x3ad648e4	0.0016348627
184	0x3b1990a8	0.002343217
185	0x3a3d16b7	0.00072131626
186	0xbd978127	-0.07397681
187	0xbecf05b7	-0.40434048
188	0xbe8fe91d	-0.2810754
189	0xbe20fa36	-0.15720448
190	0xbe951c4b	-0.29123148
191	0x3d67e8fd	0.05661868
192	0x3bc67951	0.0060569425
193	0xbee6b85d	-0.45062533
194	0xbe84e8b3	-0.25958785
195	0x3c91d12e	0.01779994
196	0xbf1558f8	-0.5833888
197	0xbf0463a0	-0.51714516
198	0x3e1956c6	0.14974508
199	0x3eaaf075	0.3338658
200	0x3ec72587	0.3889582
201	0xbef798b7	-0.483587
202	0xbd851aa8	-0.06499225
203	0xbebc9c20	-0.36837864
204	0x3e9113b1	0.28335336
205	0x3edd96b2	0.43279034
206	0x3e9f673b	0.31133446
207	0x3d719464	0.058979407
208	0xbcc44990	-0.023960859
209	0xbcedef18	-0.029044673
210	0x3c003b45	0.007826631
211	0xbc8fe83b	-0.01756679
212	0xbca795c3	-0.020457154
213	0x3e828461	0.25491622
214	0xbdae209a	-0.08502312
215	0xbc89a55d	-0.016802484
216	0xbe362acf	-0.17789768
217	0xbd2d6b52	-0.042338677
218	0xbdc53e7c	-0.096310586
219	0x3ddab118	0.10678309
220	0xbe4f7399	-0.20258941
221	0xbd5a6140	-0.0533154
222	0xbe8e9076	-0.2784459
223	0xbe8d45c4	-0.2759229
224	0xbe8d7978	-0.27631736
225	0x3e0725d6	0.13198027
226	0x3e573781	0.21017267
227	0x3ea20cdd	0.3165044
228	0xbe9a352a	-0.30118686
229	0xbe327959	-0.17429103
230	0xbe6be460	-0.23036337
231	0xba9a59d0	-0.0011776034
232	0xbbeec774	-0.0072869603
233	0xbc03b6ec	-0.008039217
234	0x3d8749ad	0.066058494
235	0x3ef0cfa9	0.47033432
236	0x3ed8e140	0.42359352
237	0xbca7b310	-0.020471126
238	0x3e23bdd1	0.15990378
239	0x3dee19cd	0.11626015
240	0x3c944b66	0.018102359
241	0xbe92fa00	-0.2870636
242	0xbda4cf58	-0.0804736
243	0x3ee3e913	0.4451376
244	0x3f26562f	0.64975256
245	0x3f16efd0	0.58959675
246	0xbc0f7a39	-0.0087571675
247	0x3e4bdee6	0.19909248
248	0x3da7635f	0.081732504
249	0x3bb64b89	0.0055632037
250	0xbd39c6ac	-0.045355484
251	0xbd4dca78	-0.050241917
252	0xbe4a8f9f	-0.1978135
253	0xbdc52ed6	-0.09628074
254	0xbe09a6cf	-0.13442539
255	0xba8cb9c5	-0.0010736516

bias_ih_l0 f4 [96]
0	0x3d92a1b6	0.0715975
1	0xbf3567de	-0.70861614
2	0x3dc45e7e	0.095883355
3	0xbca58461	-0.020204725
4	0xbc450666	-0.012025451
5	0xba9764d5	-0.0011550436
6	0x3e9e9ac0	0.3097744
7	0xbc216d5e	-0.009852735
8	0x3e8c68cd	0.27423707
9	0xbea89a3d	-0.32930174
10	0xbe1c335e	-0.1525397
11	0x3c63e989	0.01391066
12	0x3d49915f	0.049210902
13	0xb94917de	-0.00019177745
14	0xbd7aa574	-0.061192945
15	0xbd652bcc	-0.05594997
16	0xbd6d5dc7	-0.05795076
17	0x3eba3233	0.36366424
18	0x3d9f60db	0.077821456
19	0x3db31d3e	0.08745812
20	0x3befa32d	0.0073131532
21	0x3e16e37a	0.14735213
22	0x3da6ee9f	0.08150982
23	0xbe3a7c77	-0.18211542
24	0x3c9173b3	0.017755365
25	0x3e85b2cb	0.2611297
26	0x3e51a6d7	0.204738
27	0x3e3cf3b4	0.1845234
28	0x3bffb069	0.007803012
29	0xb9a2a89c	-0.00031024672
30	0x3e9d17d3	0.3068224
31	0xbd44659b	-0.04794846
32	0x3e5aebdc	0.21379036
33	0x3fa4e703	1.2882999
34	0x3dda3f9b	0.10656663
35	0x3d246014	0.04013069
36	0x3df0a20c	0.11749658
37	0xb876c94f	-5.8838454e-05
38	0xbedcf9b5	-0.4315926
39	0xbe487283	-0.19574933
40	0x3cfb77f3	0.030696845
41	0x3f2d2b7d	0.6764448
42	0x3ebbe266	0.36696166
43	0x3efe1f2f	0.49633166
44	0x3f103f22	0.56346333
45	0x3e9acedb	0.30235943
46	0x3d41f257	0.047350254
47	0x3e13bec3	0.14428239
48	0x3de5cb3e	0.11220406
49	0xbe5e8bb3	-0.21732979
50	0xbead91cd	-0.339003
51	0x3e5084b9	0.2036313
52	0xbe0750eb	-0.13214462
53	0x3d285708	0.041098624
54	0x3e184ec0	0.1487379
55	0x3be6c419	0.0070424196
56	0xbd1a24e6	-0.037632845
57	0xbe9bcbf3	-0.30429038
58	0x3cd4fe45	0.026000151
59	0xbdcc6804	-0.09980777
60	0x3dc4ebe2	0.096153036
61	0xbbdf7441	-0.0068192785
62	0xbd159943	-0.036523115
63	0xbe8ccadb	-0.27498516
64	0x3e47df9b	0.19518892
65	0xbef06c97	-0.46957847
66	0x3e9ed1ef	0.31019542
67	0xbda21e9c	-0.079159945
68	0x3ec0ba4d	0.37642136
69	0x3e3784a7	0.17921697
70	0x3de0ec4d	0.10982571
71	0x3d1c1e5a	0.038114883
72	0x3d90e879	0.07075591
73	0xbea5b397	-0.3236358
74	0x3d40cc53	0.04706986
75	0x3dd55907	0.10417371
76	0x3e448ee5	0.19195135
77	0xba0fc7f8	-0.0005484815
78	0xbe1634a4	-0.14668518
79	0xbd4cc232	-0.049989887
80	0xbc45e2d7	-0.012078009
81	0x3d08c942	0.03339506
82	0x3e1c7d4f	0.15282176
83	0x3c7a8780	0.015291095
84	0xbde37742	-0.11106731
85	0xb93da368	-0.00018085318
86	0xbe9f349b	-0.31094822
87	0xbe0a9ba1	-0.1353593
88	0xbe4a479b	-0.19753878
89	0x3ddc9c57	0.10772007
90	0x3eaf1847	0.3419821
91	0xbdbd691c	-0.09248564
92	0xbec3e3e1	-0.38259795
93	0x3b0132b8	0.0019714069
94	0xbda9b1b7	-0.082858495
95	0xbc9d0188	-0.01916577

bias_hh_l0 f4 [96]
0	0x3d93829e	0.072026476
1	0xbf479a5e	-0.7796992
2	0x3dc44516	0.095834896
3	0xbd97e5f2	-0.074169055
4	0x3ce2cb49	0.027684825
5	0xba966d97	-0.0011476752
6	0x3e90f519	0.28311995
7	0xbc25790e	-0.0100996625
8	0x3e8d2027	0.27563593
9	0xbeb9822c	-0.36232126
10	0xbda28a6e	-0.079365596
11	0x3c63f19c	0.013912585
12	0x3d4a6043	0.04940821
13	0xb9614210	-0.00021482282
14	0xbda8bf93	-0.08239665
15	0xbd738e78	-0.05946204
16	0xbd6aff99	-0.057372663
17	0x3ebe5e50	0.3718133
18	0xbd574e69	-0.052565012
19	0xbd46950f	-0.048481997
20	0xbc8c08d8	-0.01709406
21	0x3e1a4111	0.15063883
22	0x3da70898	0.08155936
23	0xbe39b822	-0.18136647
24	0x3c475979	0.012167328
25	0x3e1398d4	0.14413768
26	0x3e5195ca	0.20467296
27	0x3ddc6495	0.10761372
28	0x3c9e9f46	0.019363057
29	0xb9a2b29f	-0.0003103213
30	0x3e8923cb	0.2678512
31	0xbd521f4b	-0.051299375
32	0x3e354a27	0.17704068
33	0x3fa23c97	1.267474
34	0x3e0898f7	0.13339601
35	0x3d24591f	0.040124055
36	0x3ded59ff	0.11589431
37	0xb896b547	-7.186323e-05
38	0xbec94a42	-0.39314467
39	0xbe48047a	-0.19532958
40	0x3cfcf2d4	0.030877508
41	0x3f2d5138	0.67702055
42	0x3f09e0ff	0.5385894
43	0x3ef53eb3	0.47899398
44	0x3f184311	0.59477335
45	0x3e9cce00	0.30625916
46	0x3d2e8c93	0.04261453
47	0x3e108ab2	0.14115408
48	0x3dff9295	0.1247913
49	0xbe1e9098	-0.15484846
50	0xbeb19193	-0.34681377
51	0x3d2dc22c	0.042421505
52	0xbe95b7e8	-0.29241872
53	0x3d0ca5f0	0.034337938
54	0x3e6cca57	0.23124062
55	0xbcf326b3	-0.02968154
56	0x3d104930	0.035226047
57	0xbe073679	-0.13204373
58	0x3e12e04e	0.14343378
59	0xbdd75f9e	-0.105162844
60	0x3dc739e1	0.097278364
61	0xbb2c872b	-0.0026325684
62	0x3e4efd05	0.20213707
63	0xbec843b9	-0.39114168
64	0x3e8d44bb	0.275915
65	0xbed83679	-0.4222906
66	0x3eb1ea69	0.34749153
67	0xbdf9a7e4	-0.12190226
68	0x3e8c3aa1	0.2738848
69	0x3e3a8f64	0.18218762
70	0x3de1200c	0.109924406
71	0x3e0331b1	0.12811925
72	0xbd047bc6	-0.032344602
73	0xbe8a513d	-0.27015105
74	0x3d42c33e	0.04754948
75	0x3e16e044	0.14733988
76	0x3e3dce41	0.18535711
77	0xba0feb55	-0.00054900843
78	0xbd84a50c	-0.06476793
79	0xbdc4e427	-0.09613829
80	0x3d854b6b	0.065085255
81	0x3dee2762	0.116286054
82	0x3e4fc332	0.20289305
83	0x3c7a8855	0.015291293
84	0xbde68332	-0.11255492
85	0xba27d251	-0.0006401884
86	0xbea53ec6	-0.32274455
87	0xbe03127c	-0.1280002
88	0xbe474b4f	-0.19462322
89	0x3def90bd	0.116975285
90	0x3eb9b115	0.36267915
91	0xbe885b21	-0.26632026
92	0xbed22db7	-0.41050503
93	0x3dbe74b2	0.092996016
94	0xbe327034	-0.17425615
95	0xbd077a41	-0.033075575

weight_hr_l0 f4 [3, 24]
0	0x3e77277f	0.2413616
1	0x3e4be062	0.19909814
2	0xbf00b786	-0.50280035
3	0xbe57a6eb	-0.21059768
4	0xbf2bd3be	-0.6711997
5	0x3c360fa3	0.0111121265
6	0x3d9c4c5f	0.07631754
7	0x3d8afa43	0.06786015
8	0x3e19eb96	0.15031275
9	0x3de31dfd	0.11089704
10	0x3eb933a5	0.36172214
11	0xbd61191e	-0.054955594
12	0x3e84b624	0.25920212
13	0xba2ce9d4	-0.00065961224
14	0xbe52b17b	-0.20575516
15	0x3db34cf6	0.087549135
16	0x3d313414	0.043262556
17	0xbe0117f7	-0.12606798
18	0x3e3dccde	0.18535182
19	0x3ce4a9c1	0.027912976
20	0xbe5faf23	-0.21844153
21	0x3e89b0f6	0.26892823
22	0x3e4e173e	0.20126054
23	0xbe3cf11b	-0.1845135
24	0x3c1f0735	0.009706308
25	0x3f033299	0.5124908
26	0x3db421c2	0.08795501
27	0xbea74043	-0.32666215
28	0xbe8ffa0c	-0.28120458
29	0x3b688067	0.0035476924
30	0x3e67575b	0.22591917
31	0x3d8d94c8	0.069131434
32	0x3ea3708a	0.31921798
33	0x3ec0c4b1	0.37650064
34	0x3b4eac3e	0.003153577
35	0xbdb04bea	-0.086082295
36	0xbced859c	-0.028994374
37	0x39c70c3d	0.00037965356
38	0xbf0a9c9a	-0.54145205
39	0x3e8ce9b7	0.2752206
40	0x3e00f72b	0.12594287
41	0xbeac81ee	-0.33692878
42	0x3f0f2cd9	0.5592781
43	0xbe86d330	-0.26332998
44	0xbde4aeb3	-0.11166134
45	0x3dcd3df9	0.10021586
46	0x3d6a46b6	0.05719634
47	0x3d683b73	0.05669732
48	0x3d4d613b	0.050141554
49	0x3f07a073	0.529792
50	0x3dca78df	0.098863356
51	0xbea7b742	-0.32757002
52	0xbe6535fd	-0.22383876
53	0xbce9b9bf	-0.028530953
54	0x3e60f80c	0.21969622
55	0x3e3cd6f0	0.18441367
56	0x3eafa350	0.34304285
57	0x3ed70390	0.41994905
58	0xbc3342d4	-0.010941226
59	0x3d910a16	0.07082002
60	0xbdb28a92	-0.087178364
61	0x3abc84c1	0.0014382825
62	0xbf0d3ecf	-0.55173963
63	0x3e6dd1fa	0.23224631
64	0x3df8eb7c	0.1215429
65	0xbeb0aa7e	-0.34505075
66	0x3f109cf8	0.56489515
67	0xbe82d352	-0.2555185
68	0xbdd6e2ce	-0.10492478
69	0x3e10246a	0.14076391
70	0xbcb8a59b	-0.022539904
71	0x3e03d9f1	0.12876107
