output/C_P2_S10_D10.pth (torch, 4459 bytes, 5 tensors)

weight_ih_l0 f4 [96, 3]
0	0x3e674c24	0.22587639
1	0x3d590318	0.052981466
2	0x3c3953b7	0.011311463
3	0xbe26fa42	-0.16306403
4	0x3cfc4381	0.030793907
5	0xbd1a4298	-0.037661165
6	0xbe7a17d6	-0.24423155
7	0x3d2ae458	0.04172167
8	0x3efd16ff	0.49431607
9	0x3eac146a	0.33609325
10	0x3db63491	0.08896745
11	0x3c562d35	0.013072302
12	0xbe267ac2	-0.16257766
13	0x3ea58fdd	0.3233632
14	0xbe0826ef	-0.13296102
15	0xbd24f638	-0.040273875
16	0xbab87a7b	-0.0014074588
17	0xb9c9a070	-0.00038457243
18	0x3d84f4a9	0.06491978
19	0x3e73104a	0.23736683
20	0xbee198a7	-0.44061777
21	0xbeb7f482	-0.35928732
22	0xbdec796d	-0.11546598
23	0x3db079a1	0.08616949
24	0xbe619452	-0.22029236
25	0xbda4f651	-0.080547936
26	0x3d5855dc	0.052816257
27	0xbdbecbff	-0.09316253
28	0xbbea8a1e	-0.007157578
29	0xbbd32e38	-0.0064447187
30	0xbdd427d9	-0.10359163
31	0xbe8550d0	-0.26038218
32	0xbec4bbed	-0.38424626
33	0xbdd889e6	-0.10573177
34	0xbf05cc7d	-0.5226515
35	0x3e4984af	0.19679521
36	0xbe961c64	-0.29318535
37	0x3cd79a47	0.026318682
38	0xbd8b2305	-0.06793789
39	0xbe94015f	-0.28907296
40	0x3e260014	0.16210967
41	0xbd9c29cb	-0.07625159
42	0xbe9a3049	-0.30114964
43	0xbe68dad9	-0.22739734
44	0xbe87d1ce	-0.26527256
45	0xbe6543e0	-0.22389174
46	0x3d72818d	0.05920558
47	0x3c232868	0.009958364
48	0x3d2c814e	0.042115502
49	0xbe14106a	-0.14459386
50	0xbd56c2ef	-0.052431997
51	0xbedb91d9	-0.4288471
52	0xbe84579d	-0.25848094
53	0xbde5a4d2	-0.112130776
54	0xbd80bda8	-0.06286174
55	0xbc314a58	-0.010820948
56	0x3afd22b9	0.0019312716
57	0x3d82c54e	0.06385289
58	0xbd003834	-0.0313036
59	0xbc0ccb37	-0.008593372
60	0xbea6a872	-0.3255039
61	0xbdf7efe0	-0.121062994
62	0xbcffca5a	-0.031224418
63	0xbccbe5d2	-0.02488986
64	0xbad4e131	-0.0016241429
65	0x39832dcb	0.00025020386
66	0x3b750764	0.0037388438
67	0xbed3b103	-0.41345987
68	0x3e80e678	0.25175834
69	0x3eb6cb3a	0.35701925
70	0x3cff1527	0.031138016
71	0xbd1983c4	-0.037479177
72	0x3e8d7d86	0.2763483
73	0x3d9064f2	0.07050504
74	0x3cfd08c6	0.030887973
75	0xbd3ad4ac	-0.045612976
76	0x3d0d240a	0.034458198
77	0xbc647ead	-0.0139462175
78	0x3e52a038	0.20568931
79	0x3f1d5c55	0.6146901
80	0x3f0f1714	0.5589459
81	0x3dbc073f	0.091810696
82	0xbd0a21d3	-0.033723664
83	0x3ca134df	0.019678531
84	0xbba132f2	-0.004919403
85	0x3e9e995c	0.3097638
86	0xbd8d140f	-0.068885915
87	0xbc95e146	-0.018295895
88	0xb9f82c79	-0.0004733538
89	0xb945a03d	-0.00018847077
90	0x3db7cab8	0.089742124
91	0x3e8d1361	0.27553847
92	0xbebbe02d	-0.3669447
93	0xbdd7a9a6	-0.10530405
94	0x3da7fe79	0.08202834
95	0x3ee6c098	0.45068812
96	0x3ef5865c	0.4795407
97	0x3ed2a306	0.41140002
98	0x3e31de66	0.17369995
99	0xbc23b6d8	-0.009992324
100	0xba4c67bb	-0.00077974395
101	0xbb051f82	-0.002031297
102	0x3ebf7925	0.37397113
103	0x3d1a9af4	0.03774543
104	0xbe578860	-0.21048117
105	0x3ef6ce5e	0.4820432
106	0x3d9d728e	0.07687865
107	0x3d7eb25c	0.062181816
108	0xbdd946f5	-0.10609237
109	0xbc60d011	-0.013721482
110	0xbc986942	-0.018604878
111	0x3ee8b4ee	0.45450538
112	0x3e338726	0.17532024
113	0x3b9cbc94	0.0047832225
114	0xbcee9512	-0.029123817
115	0xbe8fc173	-0.28077278
116	0x3dc65c6e	0.09685598
117	0xbe27647b	-0.16346924
118	0xbdfbab92	-0.12288584
119	0x3c9ced02	0.019155983
120	0x3ec71ee5	0.38890758
121	0x3cb1878c	0.02167108
122	0x3e7be5f5	0.2459944
123	0x3cec0e16	0.02881531
124	0xbe6b6bd0	-0.22990346
125	0xbd2d406d	-0.04229777
126	0xbba7e415	-0.005123625
127	0x3b2c2600	0.0026267767
128	0x3c0bf3ae	0.0085419845
129	0x3ed28471	0.4111667
130	0x3c0c72c6	0.008572286
131	0x3f3417f5	0.70349056
132	0x3ea6c8b9	0.32575014
133	0xbcf756b3	-0.030192709
134	0xbd1381da	-0.036012508
135	0x3bea3da5	0.007148462
136	0xb9736dd1	-0.00023215196
137	0x3a4d10e8	0.00078226486
138	0x3eae8fc3	0.34094056
139	0x3ee94fb4	0.4556862
140	0xbd1f357c	-0.038869366
141	0x3edb74ff	0.42862698
142	0x3e08b9e0	0.13352156
143	0x3db029d8	0.08601731
144	0xbe75aa17	-0.23990665
145	0xbd94ae6f	-0.07259833
146	0xbcce5d46	-0.02519096
147	0xbdc0bc70	-0.094109416
148	0xbdd289d4	-0.10280195
149	0x3c7d7bdf	0.015471428
150	0x3d3369b1	0.043801967
151	0x3e8bd8a7	0.2731373
152	0x3f342da8	0.70382166
153	0xbd7dd5c9	-0.06197146
154	0x3d0ff15a	0.03514228
155	0x3d448b3b	0.047984343
156	0xbe04ab75	-0.1295603
157	0x3d45c457	0.048282947
158	0xbe2175de	-0.15767619
159	0xbb99c1b2	-0.0046922797
160	0x3bf713f5	0.007540221
161	0x3c08418c	0.008316409
162	0xbc5ee510	-0.013604417
163	0x3deaeb09	0.11470611
164	0x3f6eb240	0.9324074
165	0x3ea01bce	0.31271213
166	0x3e02f43d	0.12788482
167	0x3d59ff00	0.053221703
168	0xbdcb6edc	-0.09933254
169	0xbe8526fa	-0.260063
170	0xbdeb78ce	-0.11497651
171	0xbc45b8b7	-0.012067965
172	0xbc38f989	-0.011289963
173	0x3d7a72c1	0.061144594
174	0x3e404877	0.18777643
175	0xbef0c884	-0.4702798
176	0xbf31939b	-0.69365853
177	0x3ebf0e64	0.37315667
178	0x3e2ce763	0.16885142
179	0x3e86fda9	0.26365402
180	0x3e30de33	0.17272262
181	0x3d695a14	0.05697067
182	0xbbc604d1	-0.0060430546
183	0xbd5aeda3	-0.053449284
184	0xbe3fd1b8	-0.18732345
185	0x3da4c93e	0.080461964
186	0x3ead9c8b	0.33908495
187	0x3d87996b	0.06621059
188	0x3dc78800	0.09742737
189	0xbe7f1f26	-0.24914226
190	0xbd9cc072	-0.076538935
191	0xbc07e75e	-0.008294908
192	0xbdb1f62a	-0.0868953
193	0xbe2a7f61	-0.16650154
194	0xbe6ab673	-0.22921161
195	0xbd80b0ad	-0.06283698
196	0x3d5d1477	0.053974595
197	0x3ca4bc75	0.020109395
198	0x3c236eae	0.009975119
199	0x3d5ff82a	0.054680027
200	0xbdb01725	-0.085981645
201	0xbd8df20d	-0.06930933
202	0x3e99fad9	0.30074194
203	0xbf4b22fd	-0.7935026
204	0x3e51fbb1	0.20506169
205	0x3d32cc91	0.04365212
206	0x3beda201	0.0072519784
207	0xbc55880b	-0.013032923
208	0x3c45df3f	0.012077152
209	0x3ca82414	0.020525016
210	0xbddfdbb2	-0.109305754
211	0xbe9c8c71	-0.30575898
212	0xbf033dbb	-0.5126607
213	0x3e98e40e	0.29861492
214	0x3dc2c71a	0.09510632
215	0x3d2dfd4c	0.04247789
216	0xbe53db6a	-0.20689169
217	0xbd6de699	-0.058081243
218	0x3d799505	0.06093313
219	0xbe75f13c	-0.24017805
220	0xbba87acf	-0.005141593
221	0xbcc980fc	-0.024597637
222	0x3dc5697d	0.09639261
223	0x3ee8ca30	0.45466757
224	0xbcf579a5	-0.029965231
225	0x3ea08b78	0.31356406
226	0x3e3cc068	0.18432772
227	0xbd507f89	-0.050902877
228	0xbe4f7db7	-0.202628
229	0x3e1604db	0.1465029
230	0xbe3b8e04	-0.18315893
231	0xbdf6983a	-0.12040754
232	0xbb68e717	-0.003553813
233	0xba7615a9	-0.0009387383
234	0x3df9e1af	0.12201249
235	0x3eb261cd	0.3484024
236	0xbe9897ad	-0.2980322
237	0x3e0515f1	0.12996651
238	0x3e119be6	0.14219627
239	0xbcd6a076	-0.02619956
240	0x3e057ebd	0.13036628
241	0x3e7f92d7	0.24958359
242	0x3abbaec5	0.0014319053
243	0xbe0197c7	-0.12655555
244	0xbc7a1515	-0.015263815
245	0xbafcd3ee	-0.0019289234
246	0x3ed2a1b9	0.4113901
247	0xbedc0014	-0.4296881
248	0x3c9bffb9	0.019042837
249	0x3e055d9c	0.1302399
250	0x3e68e1ab	0.22742335
251	0x3d62a0be	0.055329077
252	0xbe08cfa0	-0.13360453
253	0x3c79bd36	0.015242865
254	0xbd7688ed	-0.060189176
255	0x3e2fa526	0.17152843

weight_hh_l0 f4 [96, 3]
0	0x3cf2c119	0.029633092
1	0x3c276a64	0.010218237
2	0x3ba97631	0.00517156
3	0xbcc4690b	-0.02397587
4	0xbd25c479	-0.040470574
5	0xbd25877a	-0.040412404
6	0xbbbf3b02	-0.0058358917
7	0xbf0aa734	-0.5416138
8	0xbf61dc35	-0.88226634
9	0x3dc78bb2	0.09743442
10	0x3d97addc	0.07406208
11	0x3d8cac7b	0.068688355
12	0x3e673877	0.22580133
13	0xbc8bf197	-0.017082972
14	0xbd863d77	-0.06554692
15	0xbaaad375	-0.001303299
16	0xbad86867	-0.0016510607
17	0xbad8f09a	-0.0016551197
18	0x3e7e18f0	0.248142
19	0x3ef6317b	0.48084626
20	0x3f026ea8	0.509501
21	0xbd4a0b9b	-0.049327474
22	0x3e3b3ead	0.18285628
23	0x3dd57097	0.104218654
24	0x3e39ff52	0.18163803
25	0x3ec7cec6	0.39024943
26	0x3ecc02e2	0.3984595
27	0x3b0d6c47	0.002157943
28	0x3bde9a04	0.0067932624
29	0x3beddadd	0.0072587566
30	0xbe3993a1	-0.18122722
31	0xbe871d8a	-0.26389724
32	0xbebfa4a3	-0.37430295
33	0x3e56622b	0.20935886
34	0x3e8523b9	0.26003817
35	0x3e7417b0	0.23837161
36	0xbda648a2	-0.08119322
37	0xbe2c6034	-0.16833574
38	0xbe2cc14d	-0.16870613
39	0x3e6d50c4	0.23175341
40	0x3ec93974	0.39301646
41	0x3ecb81f0	0.39747572
42	0xbd503557	-0.05083212
43	0x3d46a8b0	0.048500717
44	0xbe0c51ad	-0.13703032
45	0xbe00a345	-0.12562282
46	0xbd855ea9	-0.065121956
47	0xbc46e873	-0.012140381
48	0x3c3e4ac6	0.011614507
49	0xbcee61c6	-0.029099356
50	0xbd07f78e	-0.03319507
51	0xbb5681fb	-0.0032731283
52	0xbd2418b5	-0.040062625
53	0xbd1fdb39	-0.039027426
54	0xbc181a88	-0.009283669
55	0xbc73f518	-0.014889978
56	0xbc812221	-0.015763344
57	0xbe7d0475	-0.24708731
58	0xbf3f042b	-0.74615735
59	0xbf417a95	-0.7557767
60	0x3dcda61a	0.10041447
61	0x3d807739	0.0627274
62	0x3d73ca90	0.05951935
63	0xba4fd633	-0.00079283415
64	0x39b41ad6	0.0003435227
65	0x39f2b94a	0.00046295888
66	0xbdcbc50d	-0.09949694
67	0xbdc3e634	-0.09565392
68	0xbe55f4e2	-0.20894197
69	0xbdb248e3	-0.08705308
70	0xbdaff9d7	-0.08592575
71	0xbdadc43d	-0.08484695
72	0x3e283366	0.16425857
73	0x3e3fe25c	0.18738693
74	0x3e3cdbf7	0.18443285
75	0x3ce2c980	0.027683973
76	0x3cca3560	0.024683654
77	0x3ccafa8e	0.024777677
78	0x3f1f5fb3	0.622554
79	0x3e693da6	0.22777423
80	0x3d2eed7b	0.042706948
81	0x3e1af20a	0.15131393
82	0x3d1eaff8	0.038742036
83	0x3cd87831	0.0264245
84	0x3e60a424	0.21937615
85	0xbd652220	-0.055940747
86	0xbdbdb68d	-0.092633344
87	0xb9b9515b	-0.00035346564
88	0xb9bdd054	-0.00036204106
89	0xb9b712c8	-0.00034918473
90	0x3e0a9ec2	0.13537124
91	0x3e3720b6	0.17883572
92	0x3e72d8c1	0.23715498
93	0x3e529eda	0.2056841
94	0x3e2ff81f	0.17184494
95	0x3e5cfb29	0.21580185
96	0x3dac3cee	0.08410059
97	0x3e5a1db7	0.21300398
98	0x3ea559d3	0.32295093
99	0x3c02f641	0.007993282
100	0x3c63dbe3	0.013907406
101	0x3c6dc862	0.014513107
102	0x3d4ce597	0.05002364
103	0xbd455f82	-0.048186786
104	0x3de09c37	0.109672956
105	0x3e818f33	0.25304565
106	0x3e310acc	0.17289275
107	0x3e2d47f9	0.16921987
108	0xbc34a9c1	-0.011026801
109	0xbd397246	-0.045274995
110	0xbd20acad	-0.039227176
111	0x3e015b99	0.12632598
112	0x3e8df0ca	0.2772277
113	0x3e8a1ea7	0.2697651
114	0x3eb12d48	0.3460486
115	0x3eb8c3cc	0.3608688
116	0x3d2f22ae	0.042757683
117	0xbc52737c	-0.012844916
118	0x3e400837	0.18753134
119	0x3de73f1c	0.11291334
120	0x3ca694dc	0.020334654
121	0xbc7f56c7	-0.015584654
122	0xbc3dd480	-0.0115863085
123	0x3dd7f02e	0.105438575
124	0x3e204337	0.1565064
125	0x3e32d951	0.17465712
126	0x3be1cca1	0.0068908487
127	0x3bdabf4a	0.0066756355
128	0x3bd2c678	0.0064323507
129	0x3d40e7e7	0.04709616
130	0x3ebe0e91	0.37120488
131	0x3eb1d490	0.34732485
132	0x3e12aa07	0.14322673
133	0x3dd91bc0	0.10600996
134	0x3dd58cc5	0.1042724
135	0x39b6c184	0.00034857925
136	0x3ac427ff	0.0014965533
137	0x3adba357	0.0016757053
138	0x3ef36024	0.47534287
139	0x3f1f7f3f	0.6230354
140	0x3f0dbe59	0.5536857
141	0x3e613c7f	0.21995734
142	0x3e573d76	0.21019539
143	0x3e9056aa	0.2819112
144	0xbda348f7	-0.07972901
145	0xbcc5110e	-0.024055984
146	0xbc30af79	-0.010784023
147	0x3d590325	0.052981514
148	0x3d7857fa	0.060630776
149	0x3d3a71f0	0.045518816
150	0x3e26aa00	0.16275787
151	0x3db19ab8	0.086720884
152	0xbeed7a0b	-0.46382174
153	0x3f1e48ba	0.6182972
154	0x3f43acab	0.76435345
155	0x3f411be9	0.7543321
156	0x3de39e6a	0.111141995
157	0x3efdf0db	0.4959782
158	0x3ebb6ef3	0.36608085
159	0x3c57198e	0.013128651
160	0xbc2f7bb3	-0.010710645
161	0xba0e40eb	-0.00054265436
162	0xbd6268d5	-0.055275757
163	0xbf082f6f	-0.5319738
164	0xbf1680b6	-0.5879015
165	0x3e1d6084	0.15368849
166	0x3e100df9	0.1406783
167	0x3e1d9377	0.15388285
168	0x3e09e8e7	0.13467751
169	0xbe05f6b6	-0.13082394
170	0xbe1cd698	-0.15316236
171	0xbc8abada	-0.0169348
172	0xbd3b5ab2	-0.04574079
173	0xbd0409e8	-0.03223601
174	0xbdc5b40b	-0.09653481
175	0x3ddfca86	0.109273
176	0xbd140611	-0.036138598
177	0xbebd3dcb	-0.36961207
178	0xbe79f5a8	-0.24410117
179	0xbf080593	-0.53133506
180	0x3dd4367d	0.10361955
181	0x3d9d2747	0.07673507
182	0x3d9ade3e	0.075619206
183	0x3d0b0530	0.033940494
184	0xbe13f701	-0.14449693
185	0xbdd6b3ab	-0.10483488
186	0x3db098ff	0.08622932
187	0x3e00a11e	0.12561461
188	0x3de78a36	0.113056585
189	0xbe1d1300	-0.15339279
190	0xbe203b53	-0.1564763
191	0xbe27685c	-0.16348404
192	0x3dc1034d	0.09424458
193	0x3e7b1ab4	0.24521905
194	0x3eba9926	0.36444968
195	0xbe4a020d	-0.19727345
196	0xbe0477fb	-0.12936394
197	0xbe362827	-0.17788754
198	0xbcce1f64	-0.025161453
199	0x3b8ed7b5	0.0043592104
200	0x3c3d30f7	0.011547319
201	0x3dabb065	0.08383254
202	0xbd2a0208	-0.041505843
203	0x3d94fb1f	0.0727446
204	0x3dfc2a63	0.12312772
205	0x3dd18eed	0.10232339
206	0x3dcdb777	0.10044759
207	0x3c31ba62	0.01084766
208	0xbca6bcd1	-0.020353707
209	0x3bca7ec7	0.006179664
210	0x3eacc00f	0.3374028
211	0x3ed2d827	0.41180536
212	0x3eea5204	0.45765698
213	0xbd40636a	-0.04696981
214	0xbe1402a5	-0.14454134
215	0xbe16b85f	-0.1471877
216	0xbd956824	-0.07295254
217	0x3d8bd2f5	0.06827346
218	0xbe004886	-0.12527665
219	0xbd3a779c	-0.045524225
220	0xbd974c58	-0.07387608
221	0xbd990964	-0.07472494
222	0x3eaa0782	0.33208853
223	0x3e0cf916	0.13766894
224	0x3dc23c37	0.09484141
225	0x3e25bdb1	0.16185643
226	0x3e4104ec	0.18849534
227	0x3deb9ec3	0.11504891
228	0x3cbf314c	0.023338936
229	0xbe7340f2	-0.23755243
230	0xbe893e19	-0.2680519
231	0xbb5ff485	-0.0034172845
232	0xbb82d02b	-0.0039921007
233	0xbb8981d0	-0.004196383
234	0x3db4bfb5	0.08825628
235	0x3df37fa5	0.11889581
236	0x3ddc5800	0.10758972
237	0x3dfb9401	0.12284089
238	0x3e5677bc	0.20944113
239	0x3e55aada	0.20865956
240	0x3e17c857	0.14822517
241	0x3d8b6c78	0.06807798
242	0x3e1bef22	0.1522794
243	0x3a90e70b	0.0011055184
244	0x3bc2758e	0.0059344238
245	0x3bd35648	0.0064494945
246	0xbda11c28	-0.078666985
247	0xbed2eca4	-0.41196167
248	0xbe865a7e	-0.26240915
249	0x3df9109d	0.12161372
250	0x3d4303a1	0.047610883
251	0x3d2eb318	0.042651266
252	0xbd578602	-0.052618034
253	0xbdee5260	-0.116368055
254	0xbddba8ee	-0.1072558
255	0xbd6cfabe	-0.057856314

bias_ih_l0 f4 [96]
0	0x3d8edb4e	0.06975423
1	0x3cb8ceda	0.022559572
2	0xbe96cecd	-0.2945465
3	0x3e2d2c04	0.16911322
4	0x3db3650d	0.08759508
5	0xba986066	-0.0011625409
6	0xbe3986d0	-0.18117833
7	0xbdeeb3a9	-0.11655361
8	0xbea0d482	-0.3141213
9	0xbb399c9c	-0.0028322106
10	0x3dd910f9	0.105989404
11	0xbea2f2a9	-0.3182576
12	0xbd428cf6	-0.047497712
13	0xbe62302b	-0.22088687
14	0x3e04aba8	0.12956107
15	0xbc0f0da2	-0.008731278
16	0xbcca0ebf	-0.024665235
17	0xbe28f87f	-0.16501044
18	0xbb530e28	-0.0032204483
19	0xbe9a479f	-0.30132768
20	0x3d47cd59	0.04877982
21	0xba687adf	-0.0008868407
22	0xbf59bf72	-0.8505775
23	0xbd753735	-0.059867103
24	0x3e20cd51	0.15703322
25	0x3d6ba95e	0.057534568
26	0x3f03f6d3	0.515485
27	0x3e8009ed	0.25007573
28	0x3e08b20e	0.13349172
29	0xb9b17e5d	-0.0003385422
30	0xbdce6942	-0.1007867
31	0x3ea0e19f	0.31422135
32	0xbc27a928	-0.010233201
33	0x3b4be2fd	0.0031110637
34	0x3e8e2924	0.27765763
35	0x3e9b61a7	0.3034794
36	0xbb3449a9	-0.0027509725
37	0xbccccab8	-0.024999008
38	0x3e9f80fa	0.3115309
39	0x3c6eb563	0.014569613
40	0x3db2cd01	0.08730508
41	0x3d2a9a9a	0.041651346
42	0x3c200099	0.0097657675
43	0x3d92d457	0.07169407
44	0x3e1acf10	0.1511805
45	0xb99e29c1	-0.00030167217
46	0x3f2d8d0c	0.67793345
47	0x3e2efe2d	0.17089148
48	0xbe1d523b	-0.153634
49	0x3dcf2ae9	0.10115606
50	0x3d27b46a	0.04094354
51	0x3c79fcfc	0.01525807
52	0xbd9b3240	-0.07577944
53	0x3a755877	0.00093591906
54	0x3e8e737f	0.27822492
55	0x3e32b32e	0.17451164
56	0x3e3046d5	0.1721452
57	0x3d68cf28	0.056838185
58	0xbd0f4ccb	-0.034985345
59	0xbe5b60d5	-0.21423657
60	0x3e0806e4	0.13283879
61	0x3c3a1fd1	0.011360125
62	0x3dd118f4	0.102098376
63	0xbe333e43	-0.1750422
64	0xbd38f3fc	-0.045154557
65	0xbcf6b7f8	-0.03011702
66	0xbcfabcb7	-0.030607564
67	0x3deaa4b5	0.114571966
68	0x3e321bd3	0.17393427
69	0x3c594e3d	0.013263282
70	0x3bd895c7	0.0066096517
71	0xbda77599	-0.08176727
72	0xbe09297c	-0.13394731
73	0x3c5c5e00	0.013450146
74	0x3e1d0cab	0.15336864
75	0x3ea5d979	0.3239248
76	0xbc8452a0	-0.01615268
77	0xbb4c3a32	-0.0031162617
78	0xbc84d139	-0.016213046
79	0x3e1b3e68	0.15160525
80	0x3e1aaec7	0.15105735
81	0xbb98290b	-0.0046435646
82	0x3df28cc9	0.11843259
83	0x3d8aeda9	0.06783611
84	0xbc2d64c8	-0.01058311
85	0xbc634104	-0.013870481
86	0xbbaddf4f	-0.0053061615
87	0x3dd2d26d	0.10294042
88	0xbdc1312e	-0.094332084
89	0x3d0faaf6	0.03507515
90	0xbb6f5d60	-0.0036524162
91	0xbe660c1e	-0.2246556
92	0xbd8074c8	-0.06272274
93	0xbaf3f83b	-0.0018613407
94	0x3e49210d	0.19641514
95	0xbd9795ee	-0.07401644

bias_hh_l0 f4 [96]
0	0x3d8eda90	0.06975281
1	0x3cb8cf5f	0.02255982
2	0xbe9065cb	-0.28202662
3	0x3e297b46	0.16550931
4	0x3db7209f	0.08941769
5	0xba986f9a	-0.001162994
6	0xbe8609fe	-0.26179498
7	0x3dfe4955	0.12416331
8	0xbe4aac86	-0.19792375
9	0xbb366024	-0.00278283
10	0x3dcff3e6	0.10153942
11	0xbedd405e	-0.4321317
12	0xbd3f7961	-0.046746615
13	0xbe273ad0	-0.16331029
14	0x3e4873eb	0.19575469
15	0x3dde4801	0.108535774
16	0xbcc924db	-0.024553707
17	0xbd6db45e	-0.05803334
18	0xbb530cd9	-0.0032203703
19	0xbe34e9b5	-0.17667277
20	0x3d4706c4	0.048590437
21	0xba60955f	-0.000856718
22	0xbf2837c3	-0.65710086
23	0xbd753492	-0.059864588
24	0x3e1fa1a5	0.15589006
25	0x3d6bae64	0.05753936
26	0x3f19a14a	0.6001173
27	0x3e5136c7	0.20431052
28	0x3e0adcf6	0.13560852
29	0xb9b156b4	-0.0003382467
30	0xbe189c94	-0.1490348
31	0x3dce0577	0.10059636
32	0x3c9aab75	0.018880585
33	0x3b4b3956	0.0031009517
34	0x3e4ff11a	0.20306817
35	0x3e8bda2f	0.27314898
36	0xbc0f14d8	-0.008732997
37	0xbab0d9fc	-0.0013492699
38	0x3ec7dbb8	0.3903482
39	0x3d84962d	0.06473956
40	0x3daeddf6	0.085384294
41	0x3d0f9e3e	0.03506302
42	0x3c200131	0.009765909
43	0x3cbf713b	0.023369422
44	0x3e19d4f0	0.15022635
45	0xb98faf90	-0.0002740589
46	0x3f00ff0c	0.5038917
47	0x3e3cb041	0.1842661
48	0xbe1f212f	-0.15540002
49	0x3dcf299e	0.1011536
50	0xbe87286c	-0.26398027
51	0x3e27e28d	0.16395016
52	0x3c9b530f	0.018960504
53	0x3a745087	0.0009319861
54	0x3e897f5c	0.2685498
55	0x3e358379	0.17725934
56	0xbced9902	-0.029003624
57	0x3d51fa4c	0.051264092
58	0x3d9ac8d7	0.075578384
59	0xbd47c949	-0.048775945
60	0x3df2d56a	0.11857112
61	0xbd8e828f	-0.06958496
62	0x3ce75c68	0.028242305
63	0xbe272f81	-0.16326715
64	0xbd7a39d6	-0.061090313
65	0xbdea226a	-0.11432345
66	0xbcfd2a74	-0.030904032
67	0x3eb08f8d	0.3448452
68	0x3e2f50f2	0.17120722
69	0x3c871d8a	0.016493578
70	0x3c7872fc	0.015164133
71	0xbe212830	-0.15737987
72	0x3cd84ea0	0.026404679
73	0x3c5c5086	0.013446933
74	0x3e5d1635	0.21590503
75	0x3ea2243e	0.31668276
76	0xbc61eca2	-0.013789328
77	0xbb604a4e	-0.0034223977
78	0x3e228092	0.15869358
79	0x3dcc65e2	0.0998037
80	0x3d2d7af7	0.042353597
81	0xbb9b1a97	-0.0047333944
82	0x3c2ba798	0.010476969
83	0x3dc7e1ab	0.097598396
84	0xbc98a14a	-0.018631596
85	0xbcfa98c5	-0.030590424
86	0xbd0398d3	-0.032128166
87	0x3da9d267	0.08292084
88	0xbdf8a864	-0.12141493
89	0x3d0bcacc	0.03412895
90	0xbb6f57c9	-0.003652083
91	0xbe384695	-0.17995675
92	0xbd479035	-0.04872151
93	0xbae76a43	-0.001765557
94	0x3e7c04db	0.24611227
95	0xbc7fb0a2	-0.015606077

weight_hr_l0 f4 [3, 24]
0	0xbe6cf443	-0.23140053
1	0x3e1a3e4f	0.15062831
2	0x3cc6b0d4	0.02425424
3	0x3ec48771	0.38384584
4	0xbe51e379	-0.2049693
5	0x3b66fdd2	0.0035246504
6	0xbde2fca8	-0.110833466
7	0x3e6d8cad	0.23198195
8	0xbe50b96d	-0.20383234
9	0x3d166255	0.03671487
10	0xbd82ccb1	-0.06386698
11	0x3e4b966f	0.19881605
12	0x3e3fab34	0.18717653
13	0xbe5c22f4	-0.21497709
14	0x3c190bbd	0.0093411775
15	0xbe587870	-0.21139693
16	0xbe1e5ca2	-0.15465024
17	0xbe0cb6fc	-0.13741678
18	0xbd4cdf59	-0.05001769
19	0xbe0f270d	-0.1397974
20	0x3ebaefe7	0.36511156
21	0x3c7a1656	0.015264114
22	0xbe1cb380	-0.15302849
23	0x3d870b14	0.0659391
24	0xbd55cbfd	-0.05219649
25	0xbdc5e5f4	-0.09663001
26	0x3ecc554b	0.39908823
27	0x3e29fc40	0.16600132
28	0x3c45eedd	0.012080875
29	0x38f69d46	0.000117594886
30	0xbe9d4f8d	-0.30724755
31	0x3ea39ce3	0.31955633
32	0xbe8a95bf	-0.27067372
33	0xbd164527	-0.036687043
34	0xbeadb7fe	-0.33929437
35	0x3e3f3fcd	0.18676682
36	0x3e267a4e	0.16257593
37	0xbdbd84ab	-0.0925382
38	0x3e861fa6	0.2619602
39	0xbe6aa63d	-0.22914977
40	0xbade694a	-0.0016968634
41	0xbe09c04c	-0.13452262
42	0x3d4283ff	0.047489163
43	0xbec6e469	-0.38846138
44	0x3e1b4cc7	0.15166007
45	0x3a928739	0.0011179216
46	0xbed475b6	-0.41496056
47	0x3e7a52c4	0.24445635
48	0xbe8dc927	-0.2769253
49	0x3d1abe72	0.03777928
50	0x3efdd409	0.49575832
51	0x3e115eb5	0.14196284
52	0x3e40467e	0.1877689
53	0xbb1b3d1f	-0.0023687554
54	0xbea18b90	-0.3155179
55	0x3e126652	0.14296845
56	0xbe26e933	-0.16299896
57	0xbb3b9c39	-0.0028627052
58	0xbeb93f69	-0.3618119
59	0x3e2e655e	0.17030856
60	0xbd718c52	-0.05897171
61	0xbe3737e5	-0.17892416
62	0x3eca21da	0.39478952
63	0xbe31b052	-0.17352417
64	0x3cdad2b6	0.026711803
65	0xbe659f96	-0.22424158
66	0xbcd18d58	-0.025580093
67	0xbecb8d24	-0.3975612
68	0xbdf39f34	-0.118956
69	0xba203f3e	-0.00061129394
70	0xbede310c	-0.43396795
71	0x3e8016e5	0.25017467
