output/C_P2_S10_D20.pth (torch, 4459 bytes, 5 tensors)

weight_ih_l0 f4 [96, 3]
000000 d8 be af 3e 31 9c ea 3d 95 1d 48 3d de 8b 2f be
       0.3432529 0.114555724 0.048856337 -0.17143199
000010 b6 d0 2e 3e 29 ab f2 be 1b 99 d1 be 3e 89 99 3e
       0.17071804 -0.4739621 -0.40937123 0.2998752
000020 a5 53 86 3e 47 0e 09 be 2e 25 4e bf 80 4f b1 bf
       0.2623569 -0.13384353 -0.8052548 -1.3852386
000030 83 83 ab be d9 01 29 3e 9a b1 a3 bd 97 65 d5 bd
       -0.33498773 0.16504611 -0.07992859 -0.10419767
000040 cf 18 93 3e 4a b2 58 3e bc e4 05 bf f5 a2 16 be
       0.28729865 0.21161762 -0.52302146 -0.147106
000050 ef 05 45 be 28 b3 78 3e 7d 35 82 3d 9e 80 88 3c
       -0.19240545 0.24287093 0.06357858 0.016662892
000060 68 78 e4 bc ed b9 b1 bc de e4 de 3c 49 01 ff bd
       -0.027889445 -0.021695102 0.027208742 -0.12451417
000070 05 1d 24 bc 40 f6 9c bb 09 81 1a be b6 1a e1 3d
       -0.010016684 -0.0047900975 -0.15088286 0.10991423
000080 8d b3 22 3d 4d 9a dd be 92 b9 11 3c 6c ec 25 3e
       0.039722014 -0.43281785 0.008894341 0.16203469
000090 bc af d3 3e b0 1c 80 3e 94 95 0b be 3e 18 87 3c
       0.41345012 0.25021887 -0.13631278 0.016491052
0000a0 c8 ee 3c be 1f da b4 bd d6 85 30 be f9 d5 c3 bd
       -0.18450463 -0.08830666 -0.17238554 -0.095622964
0000b0 cf 41 35 bc 83 65 84 3d a2 8c f0 3d 0a 60 08 3d
       -0.011063053 0.06464674 0.117455736 0.033294715
0000c0 5d 34 0d bf 06 5a 07 3e d9 d0 ae 3c ff 81 61 ba
       -0.55158025 0.13217935 0.02133982 -0.000860244
0000d0 7e ad fc b7 81 56 e7 38 f9 98 ad be 6c 15 05 3b
       -3.012153e-05 0.00011031051 -0.3390577 0.0020306958
0000e0 14 bf cf 3e 4b 55 1f be 40 fa 39 3b 2d 5a 03 be
       0.4057547 -0.1555988 0.002837792 -0.12827368
0000f0 ac 41 1c be 6f 88 df bd f5 e8 32 bc da 4e f7 3e
       -0.15259427 -0.109146945 -0.010919799 0.48302346
000100 71 4c ac 3b 15 66 2a 3e de 57 a2 be d9 a8 95 be
       0.005258136 0.16640504 -0.31707662 -0.29230383
000110 8a 86 41 bd 1d 7d 9c be 45 dc 94 bd 57 e1 50 3e
       -0.047247447 -0.30564204 -0.072685756 0.2039846
000120 2e 52 f5 3d f2 a6 2d 3e 36 d4 03 3e c0 62 76 3e
       0.11978565 0.16958216 0.12873921 0.24061108
000130 2a 8e 93 3e 68 8d 92 be 14 39 a2 3c d3 ba 9c 3d
       0.288194 -0.2862351 0.019802608 0.076528214
000140 5a 4e a1 3e 45 f9 e9 bc ac 89 00 bf bf 74 a7 be
       0.3150509 -0.028561244 -0.5021007 -0.32706258
000150 86 6d 97 3d ef 6a 24 3e 97 40 5c 3d 78 dc bc 3d
       0.07393937 0.16056417 0.053772535 0.092217386
000160 db 5e e8 3e f2 38 39 3f 70 13 4b 3f 55 6d d7 3e
       0.4538487 0.72352517 0.79326534 0.420756
000170 2c 5b 07 3f 2a d2 68 3e 7c d9 cf 3d 4c 1f 5e 3d
       0.5287349 0.22736421 0.10148904 0.054229066
000180 58 cf b5 b9 3e ac 46 bd 3a 3c c9 3c 7e ac 88 bd
       -0.00034677493 -0.048504107 0.024564851 -0.06673525
000190 ef 61 37 bb 47 57 e0 ba 7f 34 ed 3d 2c 24 48 3f
       -0.0027981957 -0.0017115854 0.115822785 0.78180194
0001a0 f3 df 42 3f b1 62 ab bc 41 17 8c 3d bb e7 01 3e
       0.7612297 -0.020921083 0.06840373 0.12686054
0001b0 0d e0 e3 3d 10 cd 03 3f db 37 9f 3e fc 5c 70 3e
       0.11126719 0.51484776 0.31097302 0.2347297
0001c0 b8 73 2e 3e d5 51 76 3e 68 9e 03 3f d3 d4 e9 3d
       0.1703633 0.24054654 0.51413584 0.11417546
0001d0 67 bb 7b bd 1b e9 9b be 39 42 95 bd f6 2e d4 b8
       -0.061458018 -0.30451283 -0.072880216 -0.00010117695
0001e0 fc e6 bf bc ab f2 23 3e 12 9f ed 3d 99 04 37 ba
       -0.023425572 0.16010539 0.11602606 -0.0006981581
0001f0 7f 6b 2a b9 88 89 8b 38 92 a0 31 3f 74 85 39 be
       -0.00016252509 6.653654e-05 0.69385636 -0.18117315
000200 ff 47 2a be 19 07 23 be 87 99 24 bb cd 70 1d bc
       -0.16629027 -0.15920676 -0.0025115923 -0.009609413
000210 25 6c 31 ba 06 fb 38 3d fb c7 58 3c af 3a c3 3e
       -0.0006768129 0.04516127 0.013231273 0.3813071
000220 f2 02 b0 3d be a1 cb 3e 78 9f 39 3f c7 e8 74 3e
       0.08594312 0.39771837 0.72508955 0.23916923
000230 3d ea ea 3d dc ee 43 3f bb 13 ca 3e 5a 9e 45 3e
       0.11470459 0.76536345 0.39468178 0.19298688
000240 3a 47 92 3d 9d b9 6b bb d4 99 a6 bd 11 58 ed bd
       0.07142492 -0.0035968788 -0.08134809 -0.11589063
000250 17 a6 64 3e ff 30 0b 3f 5d b3 92 be 76 29 cb 3e
       0.22328983 0.5437164 -0.28652468 0.3968007
000260 82 a3 1a bf 41 4a db be 06 10 32 3d b7 d6 c7 bd
       -0.60405743 -0.4283009 0.043472312 -0.097577505
000270 45 a8 cd bb 88 fd a3 be 8e d7 97 3c 4c bc 68 3d
       -0.006276163 -0.32029366 0.018535402 0.0568202
000280 b6 f4 73 3c b0 92 88 3e 1c cc b4 bd 0d 8d fa be
       0.014889887 0.26674414 -0.08827993 -0.48935738
000290 bb b6 bf be fc 11 83 be ab f7 d2 bd 20 8a f9 bc
       -0.374441 -0.25599658 -0.10301145 -0.030461371
0002a0 0f 4f c3 3c 8c a9 df bd 17 2a 4f bd 97 6d 24 3c
       0.023841409 -0.109210104 -0.05057725 0.010035894
0002b0 dd 43 a5 3c 9e 27 70 3b 21 3e 4c 3d 44 40 8e 3d
       0.020173961 0.0036644707 0.04986394 0.069458514
0002c0 03 9d db bb 6c 8a 4c 3e e8 15 01 be da 3d b2 be
       -0.006702067 0.19974679 -0.12606013 -0.34812814
0002d0 94 02 8f bd bf bf 96 be 08 3c 0c bf bb 0c 88 3d
       -0.069829136 -0.29443166 -0.547791 0.06643053
0002e0 d9 16 a3 3e cd 76 0f 3f 35 34 af 3d e6 d7 02 be
       0.3185337 0.5604065 0.085548796 -0.12777671
0002f0 c4 b2 29 3d 72 42 3e 3d 94 64 70 3e 69 9d 48 3e
       0.04143025 0.046450086 0.23475868 0.19591297
000300 36 53 b4 be a0 3e d0 bc b8 12 1a bf 92 06 cd ba
       -0.35219735 -0.025420487 -0.6018481 -0.0015642217
000310 ff 40 cb 3b ef 0c 0a 3c 33 27 96 be c2 10 26 be
       0.0062028165 0.008425935 -0.29326782 -0.1621733
000320 1b 55 a4 3e a0 90 5b 3e d4 79 22 3e 88 8c 28 3d
       0.3209618 0.21441889 0.15866786 0.041149646
000330 71 d2 53 be 84 6d df bd 86 26 80 bc e8 9a 41 3e
       -0.20685746 -0.1090956 -0.01564337 0.18906748
000340 42 af fd 3e fc 29 20 3f 2e a7 30 be 26 6e a6 bd
       0.49547774 0.62564063 -0.17251274 -0.08126478
000350 07 22 7b 3c 57 04 9d 3e ee 3d c4 be 06 7f 0c 3f
       0.015327937 0.30667374 -0.383285 0.5488132
000360 b4 7d 85 3e 7d 0b 2a 3e 87 e6 c2 3d 96 18 9e 3d
       0.26072466 0.16605945 0.09516626 0.07719533
000370 7a 59 45 be d3 20 03 3e 8c f9 78 be 92 b4 1c 3e
       -0.19272414 0.1280549 -0.24313945 0.15303257
000380 37 81 d7 3e 2a 8a 7f 3e 84 90 9f 3d 65 1a d3 3e
       0.4209077 0.24955049 0.07791236 0.41231075
000390 04 98 e1 3d 5a d3 43 3d b3 63 05 be f1 1a 06 3f
       0.11015323 0.047808982 -0.13026313 0.5238486
0003a0 86 b2 b5 3c 22 c1 84 3d 27 18 0b 3e 3d 2f d8 3d
       0.022179853 0.0648215 0.13583432 0.10555885
0003b0 ab f9 7a 3e 25 f1 77 be 24 ee a8 bd 7b 1f 35 bd
       0.24509303 -0.24213083 -0.08248547 -0.044219475
0003c0 47 80 9f bd a3 d7 05 bd 08 cb 93 3c 99 21 d5 bd
       -0.07788139 -0.03267635 0.018041149 -0.10406799
0003d0 75 bb 02 bc 16 cb 62 bb 6f eb 88 3b fe ae 4a bd
       -0.007979264 -0.0034605912 0.0041784565 -0.04948329
0003e0 61 9f 02 3f 70 73 94 3e aa 39 14 be e2 4a a7 bd
       0.5102444 0.28994322 -0.14475122 -0.0816858
0003f0 b2 07 9d bd fd 83 82 be 4d bc 9f be 40 48 c9 3d
       -0.076674834 -0.25491324 -0.3119835 0.09828234

weight_hh_l0 f4 [96, 3]
000000 4d 85 65 3d 55 34 15 3d a8 40 10 3d 18 a3 bb bd
       0.05603533 0.03642686 0.03521791 -0.09161967
000010 0b 1f 82 3d 1a db 9b 3d 50 37 f8 3d bb 94 16 3e
       0.06353577 0.0761015 0.12119925 0.14705174
000020 a6 03 18 3e c7 9e 2d bd 18 b2 10 3e cc 35 19 3e
       0.14845142 -0.04238775 0.14130437 0.14961928
000030 ee 3c 96 bd 26 f7 01 be 4d 2b 09 be a4 18 ca bd
       -0.0733584 -0.12691936 -0.13395424 -0.09867981
000040 85 1a bb 3e 43 62 ad 3e 3d a7 4a be 29 ca 29 3d
       0.3654367 0.3386403 -0.19790359 0.04145256
000050 5d 4a c0 3d 1d c0 ae 3c e1 c1 a2 3b 5e 98 9d 3b
       0.09389184 0.021331841 0.00496696 0.0048094233
000060 2b 39 14 3c e9 1a 41 bc c3 0b 5a bc 88 ba 43 bc
       0.009046833 -0.011786201 -0.013308468 -0.011946328
000070 29 98 69 bc b8 3e 65 bc 4e a7 51 3d 5d 52 23 3e
       -0.014257469 -0.013992004 0.051184945 0.15949388
000080 f1 74 5b 3e 57 cb e2 bd 39 59 44 3e 4b ad 6e 3e
       0.21431328 -0.1107394 0.1917466 0.23308294
000090 bc d3 55 be 82 e5 d5 be 07 bb dd be 38 d4 16 3d
       -0.20881552 -0.41776663 -0.43306753 0.03682348
0000a0 8c 01 dc 3d 0b fc 0d be c9 81 6a bd 98 a3 ec ba
       0.107424825 -0.13865678 -0.05725268 -0.0018054126
0000b0 bc f3 69 3c 15 2c 07 be da 99 e4 bd 40 db e3 bd
       0.014279302 -0.1320041 -0.11162157 -0.11125803
0000c0 fb 3a 95 3d 90 1d b3 3d c5 10 0e 3e f7 0f f6 37
       0.0728664 0.08745873 0.13873585 2.933292e-05
0000d0 bf df 8d 38 ea 6e 98 38 2b e7 e7 3c c1 fb 30 be
       6.76508e-05 7.268584e-05 0.028308472 -0.17283536
0000e0 7b 04 5e be 70 17 a0 bd a2 9d e8 bd 7e 40 e1 bd
       -0.21681397 -0.0781697 -0.11358191 -0.10998629
0000f0 ae eb 48 bb 8c 9b 37 bd e5 db 60 bd e2 70 7b bb
       -0.0030658054 -0.044826075 -0.054897208 -0.0038366844
000100 ff 20 ed 3c 9d f8 ef 3c 8b 82 a1 bd 86 06 b2 bd
       0.028946398 0.029293353 -0.07886227 -0.086926505
000110 ff 31 a3 bd c6 7d b2 3e 5f 81 e6 3e 73 8c e9 3e
       -0.079685204 0.34861583 0.45020577 0.45614967
000120 cd 35 a7 3d 37 0e 33 3d ff 50 3d 3d 98 78 1a 3e
       0.081645586 0.04371473 0.046219822 0.15085065
000130 0a a5 a8 bd e7 9f 05 be 12 2c 38 3e c5 1d 3e 3e
       -0.08234604 -0.13049279 0.17985561 0.18566044
000140 c5 2f 49 3e 3e b4 a3 3e b4 cf 9c 3e 43 f4 a1 3e
       0.19647129 0.3197345 0.30627215 0.3163167
000150 97 71 67 bb 6a 2d 13 bd 8e 2d 32 bd a9 64 13 bf
       -0.0035315508 -0.035931982 -0.043500476 -0.5757547
000160 cb db 20 bf 3e 28 e4 be 2c 7a e5 3e fe 56 c7 3e
       -0.6283538 -0.44561952 0.44819772 0.38933557
000170 c0 f8 d7 3e e2 da a1 3d d1 d2 8f 3d e6 c3 94 3d
       0.4218197 0.07903077 0.07022632 0.07263927
000180 a4 87 33 ba c5 c3 4a bc c5 9f 52 bc 6e a6 c2 bb
       -0.000684852 -0.012375777 -0.012855475 -0.00594025
000190 30 2b ff bb 87 9f fe bb 3a d9 35 3e 23 65 d7 3e
       -0.007787131 -0.007770482 0.17758647 0.4206935
0001a0 26 18 e8 3e b9 d4 f2 bd 7c 73 19 3e 14 54 3a 3e
       0.45330924 -0.1185698 0.1498546 0.18196136
0001b0 a0 fe f7 3e 3d 2e c8 3e f7 d5 f1 3e d1 5e 7b 3f
       0.4843645 0.39097777 0.47233555 0.98191553
0001c0 c1 7b cd 3e 68 24 95 3e a2 6f 4d 3d 66 bb f9 3d
       0.4013348 0.29129338 0.05015529 0.121939465
0001d0 dc af 10 3e ee 66 f7 3b 00 22 0a 3d e7 0d 16 3d
       0.14129585 0.007550112 0.03372383 0.036634352
0001e0 4d 6c ea 3e a6 2f 02 3f 63 d4 07 3f 98 b6 75 b8
       0.45785752 0.50853956 0.5305845 -5.8582606e-05
0001f0 43 76 55 b6 b8 1a 8c 36 41 f6 e4 3d 52 03 fe 3d
       -3.180831e-06 4.1754356e-06 0.11179782 0.12402977
000200 ca 56 f3 3d d6 6a 39 3c f0 04 53 ba 56 a0 ae 3a
       0.11881788 0.011316976 -0.0008049747 0.001332293
000210 be 73 85 3d 4d f1 5d 3c 57 33 86 3b 6f b6 3a 3e
       0.06516217 0.0135463 0.0040954757 0.18233655
000220 75 af f5 3e 2f 61 07 3f 7b b8 be 3e f2 46 00 3f
       0.47985426 0.52882665 0.37250122 0.50108254
000230 62 dd 06 3f cf 23 e2 3d 37 7a a7 3d 7e 65 43 3d
       0.52681553 0.11041986 0.081776075 0.047704212
000240 a2 9d 37 bf d5 2d 1b bf c4 76 11 bf a0 d6 d4 3e
       -0.71724904 -0.6061681 -0.56821847 0.41569996
000250 fa ed 30 be 4d c6 98 be 94 f9 a5 bc 28 f4 db 3e
       -0.17278281 -0.2983879 -0.02026061 0.42959714
000260 40 07 0a 3f 39 fa 30 be f5 b9 7d 3d ce ec ab 3d
       0.5391731 -0.17282952 0.06194492 0.08394776
000270 4d 36 4b 3d 58 2d 38 bd 57 f4 f3 bb 5d 59 d5 3d
       0.049612332 -0.04496512 -0.007444899 0.10417435
000280 a2 cd 02 bf 44 8d 0e bf 61 b6 a5 3d 24 3a 7a 3e
       -0.5109502 -0.55684304 0.08091427 0.24436241
000290 e6 42 38 3e 5c 7f 6b bd 84 53 a9 bc 42 2b a1 bc
       0.1799427 -0.057494506 -0.020669706 -0.019673947
0002a0 57 07 b6 3c b8 8a 9a 3c dd 29 a8 3c da 3e 74 3a
       0.022220297 0.018864974 0.020527774 0.0009317227
0002b0 54 c9 df bc e1 3e d4 bc 84 37 f1 3c c4 cc a8 3e
       -0.02731768 -0.02590889 0.029445417 0.32968724
0002c0 d9 08 9a 3c 2c bf eb bb e6 91 93 be 50 e2 a0 be
       0.018803047 -0.0071944203 -0.2882225 -0.31422663
0002d0 d7 f5 ad 3d 2a f7 d9 3d ab 81 b8 3d c1 8a a6 bd
       0.08494156 0.10642846 0.09009107 -0.08131934
0002e0 65 50 af be 52 3c f0 be 36 d2 4d be ab 7d 50 bc
       -0.34241024 -0.4692102 -0.2009972 -0.012725274
0002f0 31 da e8 3c 64 c2 9a be 3c 46 72 bd 01 7e 89 bd
       0.028424354 -0.30226433 -0.059149012 -0.067134865
000300 40 f3 8d bc db 6c e3 3d 40 7e 46 bc 95 ef b9 3a
       -0.017327905 0.11104747 -0.012115061 0.0014185781
000310 7b 46 8a 3a 53 b2 cb 3a 0d 0d 99 3e af 0c 88 3e
       0.0010549569 0.0015540816 0.2989277 0.26572177
000320 19 b3 93 3e 19 90 02 bd c2 25 4d bd a8 0d 28 bd
       0.28847578 -0.031875703 -0.050084837 -0.04102865
000330 9b b0 4b 3d b8 b7 0b bd 31 bb 05 3d 5c 3e e7 be
       0.04972897 -0.034110755 0.032649223 -0.45164764
000340 53 0a b0 be cd 4f e2 be ab cd cc 3d 09 df 8e bd
       -0.34382877 -0.44201508 0.100001656 -0.06976134
000350 73 6f ca bd 6f 57 76 be 26 84 61 bd 2b f4 8e bc
       -0.098845385 -0.24056791 -0.055057667 -0.017450413
000360 b9 17 08 bd a7 82 43 3e d9 ee 3a 3e 98 70 04 be
       -0.03322575 0.19092809 0.18255176 -0.12933576
000370 3f 77 f0 bd 83 4b e6 bd c5 1f 0b 3e f8 4c ef 3c
       -0.117414944 -0.112448715 0.13586338 0.029211506
000380 16 ad 4a b9 19 e5 cd 3d 12 10 dc 3d e2 9f 5d 3d
       -0.00019328701 0.100534625 0.10745253 0.054107554
000390 58 6c 78 bc a7 ca 37 bd 57 07 4c bd 4a 93 8f 3c
       -0.01516255 -0.044871 -0.049811687 0.017526288
0003a0 5e 1d 01 3c 13 7a 3a 3c 79 da 5f 3a 47 68 87 3e
       0.007880537 0.011381644 0.000853933 0.26446745
0003b0 83 56 bf 3e a7 b7 3b bd 5c d8 b1 3d 3f 3f bb 3d
       0.3737069 -0.04582944 0.086838454 0.091429226
0003c0 c0 31 a3 3b 28 01 91 bc 21 9f 9e bc a8 b3 27 bc
       0.004980296 -0.017700747 -0.019362988 -0.0102357045
0003d0 f4 8c 4a bc 26 d4 46 bc 99 32 4a bd 2f f8 0e 3e
       -0.012362707 -0.012135541 -0.04936466 0.13961862
0003e0 a1 e3 1c 3e c5 7a 7e be 77 bd 01 be 34 7f ca bd
       0.15321209 -0.2485152 -0.12669931 -0.09887543
0003f0 28 b5 9a 3d b1 d7 b4 3d 5a fe 8a 3d 51 fe fb 3d
       0.07554084 0.08830202 0.06786795 0.123043664

bias_ih_l0 f4 [96]
000000 b8 76 f4 3d 91 c6 3d 3d 8a d6 33 3e d4 16 fc bd
       0.11936706 0.046331946 0.17562309 -0.123090416
000010 82 2e 78 bb 5b 73 49 3d 07 5a d3 be 05 bd 96 3d
       -0.0037869518 0.049182277 -0.41279623 0.07360271
000020 6b f5 27 3c af 97 31 bc 01 26 b5 be 9e 73 7e 3d
       0.010251383 -0.010839387 -0.35380557 0.06212198
000030 57 69 32 3d 1a 30 9b bf 67 2c 4d bd 73 3c 47 bd
       0.04355749 -1.2124054 -0.050091173 -0.048641633
000040 66 db 8a bd cd 6f c4 b6 84 ca bd bd 10 d5 ed bb
       -0.06780128 -5.8542705e-06 -0.092671424 -0.007258065
000050 97 b6 b3 3b c4 2a 05 3d e5 fb 2b be 04 7b c1 bd
       0.005484413 0.032511488 -0.16795309 -0.094472915
000060 bf ce 8b 3e d8 69 d1 3e d1 91 9e 3e f5 9c be 3e
       0.27306172 0.40901065 0.30970624 0.37229124
000070 df 05 60 3d f5 c9 b7 3d 20 71 b9 3e db 01 1b 3e
       0.0546931 0.08974067 0.3621912 0.15137427
000080 41 89 82 bb 31 fa 9f bb 7e 78 b8 3d b6 ff 28 3e
       -0.003983647 -0.00488212 0.09007357 0.16503796
000090 a9 43 1b 3f a7 95 83 3f 7a 9c d5 3d a7 ed db bc
       0.60650116 1.0280045 0.10430236 -0.02684672
0000a0 07 ac 91 3e f1 8e ed b8 dd 46 b0 3e e4 a8 7e 3c
       0.2845156 -0.000113276656 0.34429064 0.015543196
0000b0 ef e4 a7 3d 3b f0 18 be 48 53 b0 3e 41 1c 2e 3e
       0.081979625 -0.1493539 0.3443854 0.17002966
0000c0 66 a0 6e be b7 8f 0b 3e 8b 84 3d 3e 56 c5 ba be
       -0.23303375 0.13629042 0.18507592 -0.3647868
0000d0 3f 05 b2 bd 40 d6 82 3e 9b e3 4f 3e 60 3d 1a be
       -0.08692407 0.25554085 0.20301668 -0.15062475
0000e0 52 af af bc 9d 2a 2f bb 82 08 b0 bd 2c fc 1a be
       -0.021445904 -0.002672828 -0.08595373 -0.15135258
0000f0 c6 11 10 3f 02 ff 10 3c 63 ea 74 bc b4 2e c3 3d
       0.5627712 0.008849861 -0.01494846 0.09530392
000100 0f 39 44 3e 5e ef e7 b8 0a 90 da bd a8 ea cd 3d
       0.19162391 -0.00011059524 -0.106720045 0.10054523
000110 88 28 a2 3d 40 a6 41 be d3 ef b6 3d cd a2 be bc
       0.07917887 -0.18911076 0.089324616 -0.023270989
000120 60 ad 8b 3e 72 4c da bd d4 37 0a 3d c5 aa 10 3e
       0.27280712 -0.10659112 0.033744648 0.14127643
000130 b0 0a 69 3c 16 4f 96 bd db 59 27 bd 1c ff 2b bd
       0.0142237395 -0.07339303 -0.040857177 -0.041991338
000140 8b 02 02 3c 96 82 1a bc aa 84 09 be 6c 49 7f bd
       0.007935177 -0.009430548 -0.13429514 -0.06232588
000150 5e 1e 82 bc aa b7 4c 3c 0f 78 84 bd 09 01 23 bd
       -0.01588362 0.012494961 -0.06468212 -0.03979591
000160 72 14 38 3c 71 d2 46 b8 b7 d0 12 3e cd 96 21 3b
       0.011235343 -4.7402867e-05 0.14337431 0.0024656535
000170 20 fa 0d bd ba a2 e8 bd b4 00 e9 bc 21 bc 82 bb
       -0.034662366 -0.11359163 -0.028442718 -0.003989712

bias_hh_l0 f4 [96]
000000 7a 67 f4 3d 6e 9d 4c 3d f5 5d 37 3e 15 d4 be 3d
       0.11933799 0.049954824 0.17906936 0.09317795
000010 2e 85 da bb ef f1 0e 3d b3 32 d8 be 39 b2 96 3d
       -0.0066687083 0.034898695 -0.4222618 0.07358212
000020 cb e5 27 3c 1b 97 31 bc 86 1e 9f be 7f 08 7e 3d
       0.010247658 -0.010839249 -0.31077975 0.06201982
000030 10 33 55 3d ac 7d 90 bf 20 ef 4b bd e7 0a 34 bd
       0.05205065 -1.1288352 -0.049788594 -0.04395571
000040 df 62 3e bd 96 7a c3 b6 72 b5 b4 bd 56 4e 05 b9
       -0.04648101 -5.8257237e-06 -0.088236704 -0.00012713051
000050 e5 25 b9 3b 9a 2b 07 3d 1a 4c 21 be 40 e4 b9 bd
       0.0056502693 0.033000566 -0.15751687 -0.09076738
000060 32 0b 89 3e 76 69 d2 3e 97 53 9f 3e 4a 64 e7 3e
       0.26766354 0.41096085 0.3111846 0.45193702
000070 14 ca 5e 3d 81 20 53 3e 98 3a 92 3e 0e e0 1c 3e
       0.054391935 0.20617868 0.28560328 0.15319845
000080 54 88 82 bb 41 f6 9f bb 81 de 93 3d 1f 0a 29 3e
       -0.0039835367 -0.0048816507 0.072201736 0.16507767
000090 49 dc 18 3f 47 44 5e 3f 8f 5e df 3d ab ed db bc
       0.5971113 0.8682293 0.109067075 -0.026846727
0000a0 81 cb 91 3e dd 8b ed b8 1b d5 c5 3e 65 9c 73 3c
       0.28475574 -0.00011327092 0.3863915 0.01486883
0000b0 b5 c8 a9 3d 07 cd 30 be 75 15 ab 3e a1 64 66 3e
       0.08290235 -0.17265712 0.33414808 0.22499324
0000c0 d0 16 29 be e7 34 1a 3e 49 1e 3d 3e 2d 7e be be
       -0.16512609 0.15059243 0.18468584 -0.3720564
0000d0 86 45 73 bc d4 7d 42 3e fe 81 a7 bd 8d 5a 19 be
       -0.014848119 0.18993312 -0.08179091 -0.14975949
0000e0 3f 51 e0 ba b4 69 ba ba eb 8e 71 be 9b 65 13 be
       -0.0017114057 -0.0014222176 -0.23589675 -0.14394228
0000f0 37 72 c2 3e c3 4e cd bd f0 c0 8a bb 84 2a 16 bd
       0.37977764 -0.10024788 -0.0042344257 -0.03666164
000100 03 aa 53 3e 64 b5 fb ba 1b 36 15 bd ef 84 ca 3d
       0.20670323 -0.0019203839 -0.036428552 0.09888636
000110 43 9e eb 3d f8 55 16 be a0 f7 17 3d 16 b6 81 bd
       0.115047954 -0.14681232 0.037101388 -0.06333558
000120 8d 62 17 3e 85 68 db bd de 0e f0 3c 5e 9c 35 3e
       0.14783688 -0.10713295 0.029303964 0.1773543
000130 70 88 7f 3c 3c 23 8a bd 1b 4f 90 3d e6 87 93 3c
       0.015596494 -0.06745002 0.07046338 0.018009137
000140 32 d6 01 3c 08 85 1a bc 88 6a 51 be e6 46 7f bd
       0.007924603 -0.009431131 -0.20450795 -0.062323473
000150 15 4a 2a 3b 11 05 7e bd 7d 7b 8d bd dd 2f 4a bd
       0.0025984098 -0.06201655 -0.06908319 -0.049362052
000160 8c e2 06 3c 55 c4 57 b8 00 68 55 3d 7c 73 5f bb
       0.008232724 -5.1442843e-05 0.052101135 -0.0034095934
000170 44 5d 02 bd f8 12 23 be d6 2c 0b bd 73 72 26 3e
       -0.031827226 -0.15925205 -0.033978306 0.16254596

weight_hr_l0 f4 [3, 24]
000000 b4 f3 c8 be 70 52 ec bb 5f 90 6f 3d 1a a3 03 be
       -0.3924843 -0.0072119758 0.058487292 -0.12855187
000010 d8 3b 1b be 71 b6 0d be 32 00 9b bd 7f 2b 94 be
       -0.15159547 -0.13839127 -0.07568397 -0.28939435
000020 49 a0 4e bc dc 29 3d 3c 25 32 ca 3c 7f 7d cf be
       -0.012611457 0.011545625 0.024682114 -0.40525433
000030 db a4 ab bd 41 31 05 3e ca 0f 81 3e 76 ff 33 3d
       -0.08381053 0.1300707 0.2520736 0.0439448
000040 bf 7f 9c 3e 92 43 50 ba 23 e6 9c be 3b 09 57 3e
       0.30566213 -0.0007944639 -0.3064433 0.20999615
000050 87 13 cf bd 91 36 da bc ad 99 0e be 02 a3 81 3e
       -0.101111464 -0.026637347 -0.1392581 0.25319678
000060 07 2c 39 be 3f ef 08 3e 4d f6 86 3e 80 58 00 bf
       -0.18083201 0.13372515 0.26359788 -0.5013504
000070 fd 53 1e 3e da b3 c1 be e4 13 d5 be 58 b3 da bd
       0.15461726 -0.37832528 -0.41616738 -0.10678738
000080 a9 0c 36 bd 97 5a 87 39 66 f7 3f 3e 07 19 0d 3c
       -0.044445667 0.000258167 0.18746719 0.008611924
000090 1d d4 45 be 3e 3d 15 3f 80 65 95 bd 49 b6 32 3e
       -0.19319196 0.58296573 -0.0729475 0.17452349
0000a0 af 09 6e 3e ce 5b 22 3b af f9 75 bd 74 b1 0f 3c
       0.23245881 0.0024773958 -0.06005257 0.0087703355
0000b0 5e a1 04 3e cc 9e 46 3e 91 67 66 be 7b 8a eb 3d
       0.12952182 0.19396514 -0.22500445 0.115010224
0000c0 63 fb 24 be 88 55 18 3e f1 57 91 3e 11 30 09 bf
       -0.16111521 0.14876378 0.28387406 -0.5358897
0000d0 c0 75 ae 3d 3e 2b cb be 43 03 e5 be 7f a0 a7 bd
       0.08518553 -0.3968143 -0.4472905 -0.08184909
0000e0 34 78 b1 3d b1 62 af bc 1b b7 72 3e 64 ad b0 3d
       0.08665505 -0.021409364 0.23702662 0.08626822
0000f0 0a b0 43 be cc cd 1d 3f 45 a3 00 be 1a fc 37 3e
       -0.19110122 0.61642146 -0.12562282 0.17967263
000100 5c fc 74 3e 2d 4a 22 bb 76 bd f0 bc 57 c5 66 bd
       0.23924392 -0.002476345 -0.029387217 -0.05634054
000110 c8 fc 9e 3d 58 2c 69 3e 4c 67 53 be 62 b3 e2 3d
       0.07763058 0.22770822 -0.20644873 0.11069371
